{"format": "graph-model", "generatedBy": "2.8.0", "convertedBy": "TensorFlow.js Converter v3.15.0", "signature": {"outputs": {"Identity": {"name": "Identity"}, "Identity_1": {"name": "Identity_1"}, "Identity_2": {"name": "Identity_2"}, "Identity_3": {"name": "Identity_3"}}}, "modelTopology": {"node": [{"name": "model/agnostic_nms_1/agnostic_nms/TensorArrayV2_3/element_shape", "op": "Const", "attr": {"value": {"tensor": {"dtype": "DT_INT32", "tensorShape": {}}}, "dtype": {"type": "DT_INT32"}}}, {"name": "model/agnostic_nms_1/agnostic_nms/TensorArrayV2_3/num_elements", "op": "Const", "attr": {"dtype": {"type": "DT_INT32"}, "value": {"tensor": {"dtype": "DT_INT32", "tensorShape": {}}}}}, {"name": "model/agnostic_nms_1/agnostic_nms/TensorArrayV2Stack/TensorListStack/element_shape", "op": "Const", "attr": {"dtype": {"type": "DT_INT32"}, "value": {"tensor": {"dtype": "DT_INT32", "tensorShape": {"dim": [{"size": "2"}]}}}}}, {"name": "model/agnostic_nms_1/agnostic_nms/TensorArrayV2_4/element_shape", "op": "Const", "attr": {"dtype": {"type": "DT_INT32"}, "value": {"tensor": {"dtype": "DT_INT32", "tensorShape": {}}}}}, {"name": "model/agnostic_nms_1/agnostic_nms/TensorArrayV2_4/num_elements", "op": "Const", "attr": {"value": {"tensor": {"dtype": "DT_INT32", "tensorShape": {}}}, "dtype": {"type": "DT_INT32"}}}, {"name": "model/agnostic_nms_1/agnostic_nms/TensorArrayV2Stack_1/TensorListStack/element_shape", "op": "Const", "attr": {"value": {"tensor": {"dtype": "DT_INT32", "tensorShape": {"dim": [{"size": "1"}]}}}, "dtype": {"type": "DT_INT32"}}}, {"name": "model/agnostic_nms_1/agnostic_nms/TensorArrayV2_5/element_shape", "op": "Const", "attr": {"value": {"tensor": {"dtype": "DT_INT32", "tensorShape": {}}}, "dtype": {"type": "DT_INT32"}}}, {"name": "model/agnostic_nms_1/agnostic_nms/TensorArrayV2_5/num_elements", "op": "Const", "attr": {"dtype": {"type": "DT_INT32"}, "value": {"tensor": {"dtype": "DT_INT32", "tensorShape": {}}}}}, {"name": "model/agnostic_nms_1/agnostic_nms/TensorArrayUnstack_1/TensorListFromTensor/element_shape", "op": "Const", "attr": {"dtype": {"type": "DT_INT32"}, "value": {"tensor": {"dtype": "DT_INT32", "tensorShape": {"dim": [{"size": "2"}]}}}}}, {"name": "model/agnostic_nms_1/agnostic_nms/TensorArrayV2Stack_2/TensorListStack/element_shape", "op": "Const", "attr": {"dtype": {"type": "DT_INT32"}, "value": {"tensor": {"dtype": "DT_INT32", "tensorShape": {"dim": [{"size": "1"}]}}}}}, {"name": "model/agnostic_nms_1/agnostic_nms/TensorArrayV2_6/element_shape", "op": "Const", "attr": {"value": {"tensor": {"dtype": "DT_INT32", "tensorShape": {}}}, "dtype": {"type": "DT_INT32"}}}, {"name": "model/agnostic_nms_1/agnostic_nms/TensorArrayV2_6/num_elements", "op": "Const", "attr": {"dtype": {"type": "DT_INT32"}, "value": {"tensor": {"dtype": "DT_INT32", "tensorShape": {}}}}}, {"name": "ConstantFolding/model/tf.math.truediv/truediv_recip", "op": "Const", "attr": {"dtype": {"type": "DT_FLOAT"}, "value": {"tensor": {"dtype": "DT_FLOAT", "tensorShape": {}}}}}, {"name": "ConstantFolding/model/tf.math.truediv_1/truediv_recip", "op": "Const", "attr": {"dtype": {"type": "DT_FLOAT"}, "value": {"tensor": {"dtype": "DT_FLOAT", "tensorShape": {}}}}}, {"name": "ConstantFolding/model/tf.math.truediv_2/truediv_recip", "op": "Const", "attr": {"value": {"tensor": {"dtype": "DT_FLOAT", "tensorShape": {}}}, "dtype": {"type": "DT_FLOAT"}}}, {"name": "model/tf.split/split/split_dim", "op": "Const", "attr": {"dtype": {"type": "DT_INT32"}, "value": {"tensor": {"dtype": "DT_INT32", "tensorShape": {}}}}}, {"name": "model/tf.__operators__.getitem/strided_slice/stack", "op": "Const", "attr": {"dtype": {"type": "DT_INT32"}, "value": {"tensor": {"dtype": "DT_INT32", "tensorShape": {"dim": [{"size": "2"}]}}}}}, {"name": "model/tf.__operators__.getitem/strided_slice/stack_1", "op": "Const", "attr": {"value": {"tensor": {"dtype": "DT_INT32", "tensorShape": {"dim": [{"size": "2"}]}}}, "dtype": {"type": "DT_INT32"}}}, {"name": "model/tf.__operators__.getitem/strided_slice/stack_2", "op": "Const", "attr": {"dtype": {"type": "DT_INT32"}, "value": {"tensor": {"dtype": "DT_INT32", "tensorShape": {"dim": [{"size": "2"}]}}}}}, {"name": "ConstantFolding/model/tf.math.truediv_3/truediv_recip", "op": "Const", "attr": {"dtype": {"type": "DT_FLOAT"}, "value": {"tensor": {"dtype": "DT_FLOAT", "tensorShape": {}}}}}, {"name": "model/tf.concat/concat/axis", "op": "Const", "attr": {"dtype": {"type": "DT_INT32"}, "value": {"tensor": {"dtype": "DT_INT32", "tensorShape": {}}}}}, {"name": "model/agnostic_nms_1/agnostic_nms/TensorArrayUnstack/TensorListFromTensor/element_shape", "op": "Const", "attr": {"value": {"tensor": {"dtype": "DT_INT32", "tensorShape": {"dim": [{"size": "2"}]}}}, "dtype": {"type": "DT_INT32"}}}, {"name": "model/tf.__operators__.getitem_1/strided_slice/stack", "op": "Const", "attr": {"dtype": {"type": "DT_INT32"}, "value": {"tensor": {"dtype": "DT_INT32", "tensorShape": {"dim": [{"size": "3"}]}}}}}, {"name": "model/tf.__operators__.getitem_1/strided_slice/stack_1", "op": "Const", "attr": {"dtype": {"type": "DT_INT32"}, "value": {"tensor": {"dtype": "DT_INT32", "tensorShape": {"dim": [{"size": "3"}]}}}}}, {"name": "model/tf.__operators__.getitem_1/strided_slice/stack_2", "op": "Const", "attr": {"value": {"tensor": {"dtype": "DT_INT32", "tensorShape": {"dim": [{"size": "3"}]}}}, "dtype": {"type": "DT_INT32"}}}, {"name": "model/tf_detect/strided_slice_3/stack", "op": "Const", "attr": {"dtype": {"type": "DT_INT32"}, "value": {"tensor": {"dtype": "DT_INT32", "tensorShape": {"dim": [{"size": "2"}]}}}}}, {"name": "model/tf_detect/strided_slice_3/stack_1", "op": "Const", "attr": {"dtype": {"type": "DT_INT32"}, "value": {"tensor": {"dtype": "DT_INT32", "tensorShape": {"dim": [{"size": "2"}]}}}}}, {"name": "model/tf_detect/strided_slice_3/stack_2", "op": "Const", "attr": {"dtype": {"type": "DT_INT32"}, "value": {"tensor": {"dtype": "DT_INT32", "tensorShape": {"dim": [{"size": "2"}]}}}}}, {"name": "model/tf_detect/mul_2/y", "op": "Const", "attr": {"dtype": {"type": "DT_FLOAT"}, "value": {"tensor": {"dtype": "DT_FLOAT", "tensorShape": {}}}}}, {"name": "model/tf_detect/sub", "op": "Const", "attr": {"dtype": {"type": "DT_FLOAT"}, "value": {"tensor": {"dtype": "DT_FLOAT", "tensorShape": {"dim": [{"size": "1"}, {"size": "6400"}, {"size": "1"}, {"size": "2"}]}}}}}, {"name": "model/tf_detect/mul_3", "op": "Const", "attr": {"dtype": {"type": "DT_FLOAT"}, "value": {"tensor": {"dtype": "DT_FLOAT", "tensorShape": {"dim": [{"size": "1"}, {"size": "2"}]}}}}}, {"name": "model/tf_detect/strided_slice_5/stack", "op": "Const", "attr": {"dtype": {"type": "DT_INT32"}, "value": {"tensor": {"dtype": "DT_INT32", "tensorShape": {"dim": [{"size": "2"}]}}}}}, {"name": "model/tf_detect/strided_slice_5/stack_1", "op": "Const", "attr": {"dtype": {"type": "DT_INT32"}, "value": {"tensor": {"dtype": "DT_INT32", "tensorShape": {"dim": [{"size": "2"}]}}}}}, {"name": "model/tf_detect/strided_slice_5/stack_2", "op": "Const", "attr": {"dtype": {"type": "DT_INT32"}, "value": {"tensor": {"dtype": "DT_INT32", "tensorShape": {"dim": [{"size": "2"}]}}}}}, {"name": "model/tf_detect/mul_4", "op": "Const", "attr": {"dtype": {"type": "DT_FLOAT"}, "value": {"tensor": {"dtype": "DT_FLOAT", "tensorShape": {"dim": [{"size": "1"}, {"size": "1"}, {"size": "3"}, {"size": "2"}]}}}}}, {"name": "model/tf_detect/tf_conv2d_16/conv2d_139/Conv2D/ReadVariableOp", "op": "Const", "attr": {"dtype": {"type": "DT_FLOAT"}, "value": {"tensor": {"dtype": "DT_FLOAT", "tensorShape": {"dim": [{"size": "1"}, {"size": "1"}, {"size": "320"}, {"size": "255"}]}}}}}, {"name": "model/tf_detect/tf_conv2d_16/conv2d_139/BiasAdd/ReadVariableOp", "op": "Const", "attr": {"dtype": {"type": "DT_FLOAT"}, "value": {"tensor": {"dtype": "DT_FLOAT", "tensorShape": {"dim": [{"size": "255"}]}}}}}, {"name": "model/tf_detect/Reshape/shape_1", "op": "Const", "attr": {"dtype": {"type": "DT_INT32"}, "value": {"tensor": {"dtype": "DT_INT32", "tensorShape": {"dim": [{"size": "4"}]}}}}}, {"name": "model/tf_detect/strided_slice_6/stack", "op": "Const", "attr": {"dtype": {"type": "DT_INT32"}, "value": {"tensor": {"dtype": "DT_INT32", "tensorShape": {"dim": [{"size": "2"}]}}}}}, {"name": "model/tf_detect/strided_slice_6/stack_1", "op": "Const", "attr": {"dtype": {"type": "DT_INT32"}, "value": {"tensor": {"dtype": "DT_INT32", "tensorShape": {"dim": [{"size": "2"}]}}}}}, {"name": "model/tf_detect/strided_slice_6/stack_2", "op": "Const", "attr": {"dtype": {"type": "DT_INT32"}, "value": {"tensor": {"dtype": "DT_INT32", "tensorShape": {"dim": [{"size": "2"}]}}}}}, {"name": "model/tf_detect/concat/axis", "op": "Const", "attr": {"dtype": {"type": "DT_INT32"}, "value": {"tensor": {"dtype": "DT_INT32", "tensorShape": {}}}}}, {"name": "model/tf_detect/Reshape_1/shape_1", "op": "Const", "attr": {"dtype": {"type": "DT_INT32"}, "value": {"tensor": {"dtype": "DT_INT32", "tensorShape": {"dim": [{"size": "3"}]}}}}}, {"name": "model/tf_detect/strided_slice_10/stack", "op": "Const", "attr": {"value": {"tensor": {"dtype": "DT_INT32", "tensorShape": {"dim": [{"size": "2"}]}}}, "dtype": {"type": "DT_INT32"}}}, {"name": "model/tf_detect/strided_slice_10/stack_1", "op": "Const", "attr": {"dtype": {"type": "DT_INT32"}, "value": {"tensor": {"dtype": "DT_INT32", "tensorShape": {"dim": [{"size": "2"}]}}}}}, {"name": "model/tf_detect/strided_slice_10/stack_2", "op": "Const", "attr": {"dtype": {"type": "DT_INT32"}, "value": {"tensor": {"dtype": "DT_INT32", "tensorShape": {"dim": [{"size": "2"}]}}}}}, {"name": "model/tf_detect/mul_9/y", "op": "Const", "attr": {"dtype": {"type": "DT_FLOAT"}, "value": {"tensor": {"dtype": "DT_FLOAT", "tensorShape": {}}}}}, {"name": "model/tf_detect/sub_1", "op": "Const", "attr": {"dtype": {"type": "DT_FLOAT"}, "value": {"tensor": {"dtype": "DT_FLOAT", "tensorShape": {"dim": [{"size": "1"}, {"size": "1600"}, {"size": "1"}, {"size": "2"}]}}}}}, {"name": "model/tf_detect/mul_10", "op": "Const", "attr": {"value": {"tensor": {"dtype": "DT_FLOAT", "tensorShape": {"dim": [{"size": "1"}, {"size": "2"}]}}}, "dtype": {"type": "DT_FLOAT"}}}, {"name": "model/tf_detect/strided_slice_12/stack", "op": "Const", "attr": {"dtype": {"type": "DT_INT32"}, "value": {"tensor": {"dtype": "DT_INT32", "tensorShape": {"dim": [{"size": "2"}]}}}}}, {"name": "model/tf_detect/strided_slice_12/stack_1", "op": "Const", "attr": {"value": {"tensor": {"dtype": "DT_INT32", "tensorShape": {"dim": [{"size": "2"}]}}}, "dtype": {"type": "DT_INT32"}}}, {"name": "model/tf_detect/strided_slice_12/stack_2", "op": "Const", "attr": {"dtype": {"type": "DT_INT32"}, "value": {"tensor": {"dtype": "DT_INT32", "tensorShape": {"dim": [{"size": "2"}]}}}}}, {"name": "model/tf_detect/mul_11", "op": "Const", "attr": {"dtype": {"type": "DT_FLOAT"}, "value": {"tensor": {"dtype": "DT_FLOAT", "tensorShape": {"dim": [{"size": "1"}, {"size": "1"}, {"size": "3"}, {"size": "2"}]}}}}}, {"name": "model/tf_detect/tf_conv2d_17/conv2d_140/Conv2D/ReadVariableOp", "op": "Const", "attr": {"value": {"tensor": {"dtype": "DT_FLOAT", "tensorShape": {"dim": [{"size": "1"}, {"size": "1"}, {"size": "640"}, {"size": "255"}]}}}, "dtype": {"type": "DT_FLOAT"}}}, {"name": "model/tf_detect/tf_conv2d_17/conv2d_140/BiasAdd/ReadVariableOp", "op": "Const", "attr": {"dtype": {"type": "DT_FLOAT"}, "value": {"tensor": {"dtype": "DT_FLOAT", "tensorShape": {"dim": [{"size": "255"}]}}}}}, {"name": "model/tf_detect/Reshape_2/shape_1", "op": "Const", "attr": {"value": {"tensor": {"dtype": "DT_INT32", "tensorShape": {"dim": [{"size": "4"}]}}}, "dtype": {"type": "DT_INT32"}}}, {"name": "model/tf_detect/strided_slice_13/stack", "op": "Const", "attr": {"dtype": {"type": "DT_INT32"}, "value": {"tensor": {"dtype": "DT_INT32", "tensorShape": {"dim": [{"size": "2"}]}}}}}, {"name": "model/tf_detect/strided_slice_13/stack_1", "op": "Const", "attr": {"dtype": {"type": "DT_INT32"}, "value": {"tensor": {"dtype": "DT_INT32", "tensorShape": {"dim": [{"size": "2"}]}}}}}, {"name": "model/tf_detect/strided_slice_13/stack_2", "op": "Const", "attr": {"dtype": {"type": "DT_INT32"}, "value": {"tensor": {"dtype": "DT_INT32", "tensorShape": {"dim": [{"size": "2"}]}}}}}, {"name": "model/tf_detect/concat_1/axis", "op": "Const", "attr": {"dtype": {"type": "DT_INT32"}, "value": {"tensor": {"dtype": "DT_INT32", "tensorShape": {}}}}}, {"name": "model/tf_detect/Reshape_3/shape_1", "op": "Const", "attr": {"value": {"tensor": {"dtype": "DT_INT32", "tensorShape": {"dim": [{"size": "3"}]}}}, "dtype": {"type": "DT_INT32"}}}, {"name": "model/tf_detect/strided_slice_17/stack", "op": "Const", "attr": {"dtype": {"type": "DT_INT32"}, "value": {"tensor": {"dtype": "DT_INT32", "tensorShape": {"dim": [{"size": "2"}]}}}}}, {"name": "model/tf_detect/strided_slice_17/stack_1", "op": "Const", "attr": {"dtype": {"type": "DT_INT32"}, "value": {"tensor": {"dtype": "DT_INT32", "tensorShape": {"dim": [{"size": "2"}]}}}}}, {"name": "model/tf_detect/strided_slice_17/stack_2", "op": "Const", "attr": {"dtype": {"type": "DT_INT32"}, "value": {"tensor": {"dtype": "DT_INT32", "tensorShape": {"dim": [{"size": "2"}]}}}}}, {"name": "model/tf_detect/mul_16/y", "op": "Const", "attr": {"value": {"tensor": {"dtype": "DT_FLOAT", "tensorShape": {}}}, "dtype": {"type": "DT_FLOAT"}}}, {"name": "model/tf_detect/sub_2", "op": "Const", "attr": {"dtype": {"type": "DT_FLOAT"}, "value": {"tensor": {"dtype": "DT_FLOAT", "tensorShape": {"dim": [{"size": "1"}, {"size": "400"}, {"size": "1"}, {"size": "2"}]}}}}}, {"name": "model/tf_detect/mul_17", "op": "Const", "attr": {"dtype": {"type": "DT_FLOAT"}, "value": {"tensor": {"dtype": "DT_FLOAT", "tensorShape": {"dim": [{"size": "1"}, {"size": "2"}]}}}}}, {"name": "model/tf_detect/strided_slice_19/stack", "op": "Const", "attr": {"dtype": {"type": "DT_INT32"}, "value": {"tensor": {"dtype": "DT_INT32", "tensorShape": {"dim": [{"size": "2"}]}}}}}, {"name": "model/tf_detect/strided_slice_19/stack_1", "op": "Const", "attr": {"value": {"tensor": {"dtype": "DT_INT32", "tensorShape": {"dim": [{"size": "2"}]}}}, "dtype": {"type": "DT_INT32"}}}, {"name": "model/tf_detect/strided_slice_19/stack_2", "op": "Const", "attr": {"dtype": {"type": "DT_INT32"}, "value": {"tensor": {"dtype": "DT_INT32", "tensorShape": {"dim": [{"size": "2"}]}}}}}, {"name": "model/tf_detect/mul_18", "op": "Const", "attr": {"dtype": {"type": "DT_FLOAT"}, "value": {"tensor": {"dtype": "DT_FLOAT", "tensorShape": {"dim": [{"size": "1"}, {"size": "1"}, {"size": "3"}, {"size": "2"}]}}}}}, {"name": "model/tf_bottleneck_csp_7/tf_conv_113/conv2d_127/Conv2D/ReadVariableOp", "op": "Const", "attr": {"dtype": {"type": "DT_FLOAT"}, "value": {"tensor": {"dtype": "DT_FLOAT", "tensorShape": {"dim": [{"size": "1"}, {"size": "1"}, {"size": "1280"}, {"size": "640"}]}}}}}, {"name": "model/tf_bottleneck_csp_7/tf_conv_113/conv2d_127/BiasAdd/ReadVariableOp", "op": "Const", "attr": {"value": {"tensor": {"dtype": "DT_FLOAT", "tensorShape": {"dim": [{"size": "640"}]}}}, "dtype": {"type": "DT_FLOAT"}}}, {"name": "model/tf_bottleneck_csp_7/sequential_13/tf_bottleneck_44/tf_conv_115/conv2d_131/Conv2D/ReadVariableOp", "op": "Const", "attr": {"dtype": {"type": "DT_FLOAT"}, "value": {"tensor": {"dtype": "DT_FLOAT", "tensorShape": {"dim": [{"size": "1"}, {"size": "1"}, {"size": "640"}, {"size": "640"}]}}}}}, {"name": "model/tf_bottleneck_csp_7/sequential_13/tf_bottleneck_44/tf_conv_115/conv2d_131/BiasAdd/ReadVariableOp", "op": "Const", "attr": {"dtype": {"type": "DT_FLOAT"}, "value": {"tensor": {"dtype": "DT_FLOAT", "tensorShape": {"dim": [{"size": "640"}]}}}}}, {"name": "model/tf_bottleneck_csp_7/sequential_13/tf_bottleneck_44/tf_conv_116/conv2d_132/Conv2D/ReadVariableOp", "op": "Const", "attr": {"value": {"tensor": {"dtype": "DT_FLOAT", "tensorShape": {"dim": [{"size": "3"}, {"size": "3"}, {"size": "640"}, {"size": "640"}]}}}, "dtype": {"type": "DT_FLOAT"}}}, {"name": "model/tf_bottleneck_csp_7/sequential_13/tf_bottleneck_44/tf_conv_116/conv2d_132/BiasAdd/ReadVariableOp", "op": "Const", "attr": {"dtype": {"type": "DT_FLOAT"}, "value": {"tensor": {"dtype": "DT_FLOAT", "tensorShape": {"dim": [{"size": "640"}]}}}}}, {"name": "model/tf_bottleneck_csp_7/sequential_13/tf_bottleneck_45/tf_conv_117/conv2d_133/Conv2D/ReadVariableOp", "op": "Const", "attr": {"dtype": {"type": "DT_FLOAT"}, "value": {"tensor": {"dtype": "DT_FLOAT", "tensorShape": {"dim": [{"size": "1"}, {"size": "1"}, {"size": "640"}, {"size": "640"}]}}}}}, {"name": "model/tf_bottleneck_csp_7/sequential_13/tf_bottleneck_45/tf_conv_117/conv2d_133/BiasAdd/ReadVariableOp", "op": "Const", "attr": {"value": {"tensor": {"dtype": "DT_FLOAT", "tensorShape": {"dim": [{"size": "640"}]}}}, "dtype": {"type": "DT_FLOAT"}}}, {"name": "model/tf_bottleneck_csp_7/sequential_13/tf_bottleneck_45/tf_conv_118/conv2d_134/Conv2D/ReadVariableOp", "op": "Const", "attr": {"value": {"tensor": {"dtype": "DT_FLOAT", "tensorShape": {"dim": [{"size": "3"}, {"size": "3"}, {"size": "640"}, {"size": "640"}]}}}, "dtype": {"type": "DT_FLOAT"}}}, {"name": "model/tf_bottleneck_csp_7/sequential_13/tf_bottleneck_45/tf_conv_118/conv2d_134/BiasAdd/ReadVariableOp", "op": "Const", "attr": {"value": {"tensor": {"dtype": "DT_FLOAT", "tensorShape": {"dim": [{"size": "640"}]}}}, "dtype": {"type": "DT_FLOAT"}}}, {"name": "model/tf_bottleneck_csp_7/sequential_13/tf_bottleneck_46/tf_conv_119/conv2d_135/Conv2D/ReadVariableOp", "op": "Const", "attr": {"dtype": {"type": "DT_FLOAT"}, "value": {"tensor": {"dtype": "DT_FLOAT", "tensorShape": {"dim": [{"size": "1"}, {"size": "1"}, {"size": "640"}, {"size": "640"}]}}}}}, {"name": "model/tf_bottleneck_csp_7/sequential_13/tf_bottleneck_46/tf_conv_119/conv2d_135/BiasAdd/ReadVariableOp", "op": "Const", "attr": {"value": {"tensor": {"dtype": "DT_FLOAT", "tensorShape": {"dim": [{"size": "640"}]}}}, "dtype": {"type": "DT_FLOAT"}}}, {"name": "model/tf_bottleneck_csp_7/sequential_13/tf_bottleneck_46/tf_conv_120/conv2d_136/Conv2D/ReadVariableOp", "op": "Const", "attr": {"dtype": {"type": "DT_FLOAT"}, "value": {"tensor": {"dtype": "DT_FLOAT", "tensorShape": {"dim": [{"size": "3"}, {"size": "3"}, {"size": "640"}, {"size": "640"}]}}}}}, {"name": "model/tf_bottleneck_csp_7/sequential_13/tf_bottleneck_46/tf_conv_120/conv2d_136/BiasAdd/ReadVariableOp", "op": "Const", "attr": {"value": {"tensor": {"dtype": "DT_FLOAT", "tensorShape": {"dim": [{"size": "640"}]}}}, "dtype": {"type": "DT_FLOAT"}}}, {"name": "model/tf_bottleneck_csp_7/sequential_13/tf_bottleneck_47/tf_conv_121/conv2d_137/Conv2D/ReadVariableOp", "op": "Const", "attr": {"value": {"tensor": {"dtype": "DT_FLOAT", "tensorShape": {"dim": [{"size": "1"}, {"size": "1"}, {"size": "640"}, {"size": "640"}]}}}, "dtype": {"type": "DT_FLOAT"}}}, {"name": "model/tf_bottleneck_csp_7/sequential_13/tf_bottleneck_47/tf_conv_121/conv2d_137/BiasAdd/ReadVariableOp", "op": "Const", "attr": {"dtype": {"type": "DT_FLOAT"}, "value": {"tensor": {"dtype": "DT_FLOAT", "tensorShape": {"dim": [{"size": "640"}]}}}}}, {"name": "model/tf_bottleneck_csp_7/sequential_13/tf_bottleneck_47/tf_conv_122/conv2d_138/Conv2D/ReadVariableOp", "op": "Const", "attr": {"dtype": {"type": "DT_FLOAT"}, "value": {"tensor": {"dtype": "DT_FLOAT", "tensorShape": {"dim": [{"size": "3"}, {"size": "3"}, {"size": "640"}, {"size": "640"}]}}}}}, {"name": "model/tf_bottleneck_csp_7/sequential_13/tf_bottleneck_47/tf_conv_122/conv2d_138/BiasAdd/ReadVariableOp", "op": "Const", "attr": {"dtype": {"type": "DT_FLOAT"}, "value": {"tensor": {"dtype": "DT_FLOAT", "tensorShape": {"dim": [{"size": "640"}]}}}}}, {"name": "model/tf_bottleneck_csp_7/tf_conv2d_15/conv2d_129/Conv2D/ReadVariableOp", "op": "Const", "attr": {"value": {"tensor": {"dtype": "DT_FLOAT", "tensorShape": {"dim": [{"size": "1"}, {"size": "1"}, {"size": "640"}, {"size": "640"}]}}}, "dtype": {"type": "DT_FLOAT"}}}, {"name": "model/tf_bottleneck_csp_6/tf_conv_102/conv2d_114/Conv2D/ReadVariableOp", "op": "Const", "attr": {"value": {"tensor": {"dtype": "DT_FLOAT", "tensorShape": {"dim": [{"size": "1"}, {"size": "1"}, {"size": "640"}, {"size": "320"}]}}}, "dtype": {"type": "DT_FLOAT"}}}, {"name": "model/tf_bottleneck_csp_6/tf_conv_102/conv2d_114/BiasAdd/ReadVariableOp", "op": "Const", "attr": {"dtype": {"type": "DT_FLOAT"}, "value": {"tensor": {"dtype": "DT_FLOAT", "tensorShape": {"dim": [{"size": "320"}]}}}}}, {"name": "model/tf_bottleneck_csp_6/sequential_11/tf_bottleneck_40/tf_conv_104/conv2d_118/Conv2D/ReadVariableOp", "op": "Const", "attr": {"value": {"tensor": {"dtype": "DT_FLOAT", "tensorShape": {"dim": [{"size": "1"}, {"size": "1"}, {"size": "320"}, {"size": "320"}]}}}, "dtype": {"type": "DT_FLOAT"}}}, {"name": "model/tf_bottleneck_csp_6/sequential_11/tf_bottleneck_40/tf_conv_104/conv2d_118/BiasAdd/ReadVariableOp", "op": "Const", "attr": {"value": {"tensor": {"dtype": "DT_FLOAT", "tensorShape": {"dim": [{"size": "320"}]}}}, "dtype": {"type": "DT_FLOAT"}}}, {"name": "model/tf_bottleneck_csp_6/sequential_11/tf_bottleneck_40/tf_conv_105/conv2d_119/Conv2D/ReadVariableOp", "op": "Const", "attr": {"value": {"tensor": {"dtype": "DT_FLOAT", "tensorShape": {"dim": [{"size": "3"}, {"size": "3"}, {"size": "320"}, {"size": "320"}]}}}, "dtype": {"type": "DT_FLOAT"}}}, {"name": "model/tf_bottleneck_csp_6/sequential_11/tf_bottleneck_40/tf_conv_105/conv2d_119/BiasAdd/ReadVariableOp", "op": "Const", "attr": {"value": {"tensor": {"dtype": "DT_FLOAT", "tensorShape": {"dim": [{"size": "320"}]}}}, "dtype": {"type": "DT_FLOAT"}}}, {"name": "model/tf_bottleneck_csp_6/sequential_11/tf_bottleneck_41/tf_conv_106/conv2d_120/Conv2D/ReadVariableOp", "op": "Const", "attr": {"dtype": {"type": "DT_FLOAT"}, "value": {"tensor": {"dtype": "DT_FLOAT", "tensorShape": {"dim": [{"size": "1"}, {"size": "1"}, {"size": "320"}, {"size": "320"}]}}}}}, {"name": "model/tf_bottleneck_csp_6/sequential_11/tf_bottleneck_41/tf_conv_106/conv2d_120/BiasAdd/ReadVariableOp", "op": "Const", "attr": {"value": {"tensor": {"dtype": "DT_FLOAT", "tensorShape": {"dim": [{"size": "320"}]}}}, "dtype": {"type": "DT_FLOAT"}}}, {"name": "model/tf_bottleneck_csp_6/sequential_11/tf_bottleneck_41/tf_conv_107/conv2d_121/Conv2D/ReadVariableOp", "op": "Const", "attr": {"value": {"tensor": {"dtype": "DT_FLOAT", "tensorShape": {"dim": [{"size": "3"}, {"size": "3"}, {"size": "320"}, {"size": "320"}]}}}, "dtype": {"type": "DT_FLOAT"}}}, {"name": "model/tf_bottleneck_csp_6/sequential_11/tf_bottleneck_41/tf_conv_107/conv2d_121/BiasAdd/ReadVariableOp", "op": "Const", "attr": {"dtype": {"type": "DT_FLOAT"}, "value": {"tensor": {"dtype": "DT_FLOAT", "tensorShape": {"dim": [{"size": "320"}]}}}}}, {"name": "model/tf_bottleneck_csp_6/sequential_11/tf_bottleneck_42/tf_conv_108/conv2d_122/Conv2D/ReadVariableOp", "op": "Const", "attr": {"value": {"tensor": {"dtype": "DT_FLOAT", "tensorShape": {"dim": [{"size": "1"}, {"size": "1"}, {"size": "320"}, {"size": "320"}]}}}, "dtype": {"type": "DT_FLOAT"}}}, {"name": "model/tf_bottleneck_csp_6/sequential_11/tf_bottleneck_42/tf_conv_108/conv2d_122/BiasAdd/ReadVariableOp", "op": "Const", "attr": {"dtype": {"type": "DT_FLOAT"}, "value": {"tensor": {"dtype": "DT_FLOAT", "tensorShape": {"dim": [{"size": "320"}]}}}}}, {"name": "model/tf_bottleneck_csp_6/sequential_11/tf_bottleneck_42/tf_conv_109/conv2d_123/Conv2D/ReadVariableOp", "op": "Const", "attr": {"dtype": {"type": "DT_FLOAT"}, "value": {"tensor": {"dtype": "DT_FLOAT", "tensorShape": {"dim": [{"size": "3"}, {"size": "3"}, {"size": "320"}, {"size": "320"}]}}}}}, {"name": "model/tf_bottleneck_csp_6/sequential_11/tf_bottleneck_42/tf_conv_109/conv2d_123/BiasAdd/ReadVariableOp", "op": "Const", "attr": {"value": {"tensor": {"dtype": "DT_FLOAT", "tensorShape": {"dim": [{"size": "320"}]}}}, "dtype": {"type": "DT_FLOAT"}}}, {"name": "model/tf_bottleneck_csp_6/sequential_11/tf_bottleneck_43/tf_conv_110/conv2d_124/Conv2D/ReadVariableOp", "op": "Const", "attr": {"value": {"tensor": {"dtype": "DT_FLOAT", "tensorShape": {"dim": [{"size": "1"}, {"size": "1"}, {"size": "320"}, {"size": "320"}]}}}, "dtype": {"type": "DT_FLOAT"}}}, {"name": "model/tf_bottleneck_csp_6/sequential_11/tf_bottleneck_43/tf_conv_110/conv2d_124/BiasAdd/ReadVariableOp", "op": "Const", "attr": {"value": {"tensor": {"dtype": "DT_FLOAT", "tensorShape": {"dim": [{"size": "320"}]}}}, "dtype": {"type": "DT_FLOAT"}}}, {"name": "model/tf_bottleneck_csp_6/sequential_11/tf_bottleneck_43/tf_conv_111/conv2d_125/Conv2D/ReadVariableOp", "op": "Const", "attr": {"value": {"tensor": {"dtype": "DT_FLOAT", "tensorShape": {"dim": [{"size": "3"}, {"size": "3"}, {"size": "320"}, {"size": "320"}]}}}, "dtype": {"type": "DT_FLOAT"}}}, {"name": "model/tf_bottleneck_csp_6/sequential_11/tf_bottleneck_43/tf_conv_111/conv2d_125/BiasAdd/ReadVariableOp", "op": "Const", "attr": {"dtype": {"type": "DT_FLOAT"}, "value": {"tensor": {"dtype": "DT_FLOAT", "tensorShape": {"dim": [{"size": "320"}]}}}}}, {"name": "model/tf_bottleneck_csp_6/tf_conv2d_13/conv2d_116/Conv2D/ReadVariableOp", "op": "Const", "attr": {"value": {"tensor": {"dtype": "DT_FLOAT", "tensorShape": {"dim": [{"size": "1"}, {"size": "1"}, {"size": "320"}, {"size": "320"}]}}}, "dtype": {"type": "DT_FLOAT"}}}, {"name": "model/tf_bottleneck_csp_5/tf_conv_91/conv2d_101/Conv2D/ReadVariableOp", "op": "Const", "attr": {"dtype": {"type": "DT_FLOAT"}, "value": {"tensor": {"dtype": "DT_FLOAT", "tensorShape": {"dim": [{"size": "1"}, {"size": "1"}, {"size": "640"}, {"size": "160"}]}}}}}, {"name": "model/tf_bottleneck_csp_5/tf_conv_91/conv2d_101/BiasAdd/ReadVariableOp", "op": "Const", "attr": {"dtype": {"type": "DT_FLOAT"}, "value": {"tensor": {"dtype": "DT_FLOAT", "tensorShape": {"dim": [{"size": "160"}]}}}}}, {"name": "model/tf_bottleneck_csp_5/sequential_9/tf_bottleneck_36/tf_conv_93/conv2d_105/Conv2D/ReadVariableOp", "op": "Const", "attr": {"value": {"tensor": {"dtype": "DT_FLOAT", "tensorShape": {"dim": [{"size": "1"}, {"size": "1"}, {"size": "160"}, {"size": "160"}]}}}, "dtype": {"type": "DT_FLOAT"}}}, {"name": "model/tf_bottleneck_csp_5/sequential_9/tf_bottleneck_36/tf_conv_93/conv2d_105/BiasAdd/ReadVariableOp", "op": "Const", "attr": {"dtype": {"type": "DT_FLOAT"}, "value": {"tensor": {"dtype": "DT_FLOAT", "tensorShape": {"dim": [{"size": "160"}]}}}}}, {"name": "model/tf_bottleneck_csp_5/sequential_9/tf_bottleneck_36/tf_conv_94/conv2d_106/Conv2D/ReadVariableOp", "op": "Const", "attr": {"dtype": {"type": "DT_FLOAT"}, "value": {"tensor": {"dtype": "DT_FLOAT", "tensorShape": {"dim": [{"size": "3"}, {"size": "3"}, {"size": "160"}, {"size": "160"}]}}}}}, {"name": "model/tf_bottleneck_csp_5/sequential_9/tf_bottleneck_36/tf_conv_94/conv2d_106/BiasAdd/ReadVariableOp", "op": "Const", "attr": {"dtype": {"type": "DT_FLOAT"}, "value": {"tensor": {"dtype": "DT_FLOAT", "tensorShape": {"dim": [{"size": "160"}]}}}}}, {"name": "model/tf_bottleneck_csp_5/sequential_9/tf_bottleneck_37/tf_conv_95/conv2d_107/Conv2D/ReadVariableOp", "op": "Const", "attr": {"value": {"tensor": {"dtype": "DT_FLOAT", "tensorShape": {"dim": [{"size": "1"}, {"size": "1"}, {"size": "160"}, {"size": "160"}]}}}, "dtype": {"type": "DT_FLOAT"}}}, {"name": "model/tf_bottleneck_csp_5/sequential_9/tf_bottleneck_37/tf_conv_95/conv2d_107/BiasAdd/ReadVariableOp", "op": "Const", "attr": {"value": {"tensor": {"dtype": "DT_FLOAT", "tensorShape": {"dim": [{"size": "160"}]}}}, "dtype": {"type": "DT_FLOAT"}}}, {"name": "model/tf_bottleneck_csp_5/sequential_9/tf_bottleneck_37/tf_conv_96/conv2d_108/Conv2D/ReadVariableOp", "op": "Const", "attr": {"dtype": {"type": "DT_FLOAT"}, "value": {"tensor": {"dtype": "DT_FLOAT", "tensorShape": {"dim": [{"size": "3"}, {"size": "3"}, {"size": "160"}, {"size": "160"}]}}}}}, {"name": "model/tf_bottleneck_csp_5/sequential_9/tf_bottleneck_37/tf_conv_96/conv2d_108/BiasAdd/ReadVariableOp", "op": "Const", "attr": {"dtype": {"type": "DT_FLOAT"}, "value": {"tensor": {"dtype": "DT_FLOAT", "tensorShape": {"dim": [{"size": "160"}]}}}}}, {"name": "model/tf_bottleneck_csp_5/sequential_9/tf_bottleneck_38/tf_conv_97/conv2d_109/Conv2D/ReadVariableOp", "op": "Const", "attr": {"dtype": {"type": "DT_FLOAT"}, "value": {"tensor": {"dtype": "DT_FLOAT", "tensorShape": {"dim": [{"size": "1"}, {"size": "1"}, {"size": "160"}, {"size": "160"}]}}}}}, {"name": "model/tf_bottleneck_csp_5/sequential_9/tf_bottleneck_38/tf_conv_97/conv2d_109/BiasAdd/ReadVariableOp", "op": "Const", "attr": {"dtype": {"type": "DT_FLOAT"}, "value": {"tensor": {"dtype": "DT_FLOAT", "tensorShape": {"dim": [{"size": "160"}]}}}}}, {"name": "model/tf_bottleneck_csp_5/sequential_9/tf_bottleneck_38/tf_conv_98/conv2d_110/Conv2D/ReadVariableOp", "op": "Const", "attr": {"value": {"tensor": {"dtype": "DT_FLOAT", "tensorShape": {"dim": [{"size": "3"}, {"size": "3"}, {"size": "160"}, {"size": "160"}]}}}, "dtype": {"type": "DT_FLOAT"}}}, {"name": "model/tf_bottleneck_csp_5/sequential_9/tf_bottleneck_38/tf_conv_98/conv2d_110/BiasAdd/ReadVariableOp", "op": "Const", "attr": {"value": {"tensor": {"dtype": "DT_FLOAT", "tensorShape": {"dim": [{"size": "160"}]}}}, "dtype": {"type": "DT_FLOAT"}}}, {"name": "model/tf_bottleneck_csp_5/sequential_9/tf_bottleneck_39/tf_conv_99/conv2d_111/Conv2D/ReadVariableOp", "op": "Const", "attr": {"dtype": {"type": "DT_FLOAT"}, "value": {"tensor": {"dtype": "DT_FLOAT", "tensorShape": {"dim": [{"size": "1"}, {"size": "1"}, {"size": "160"}, {"size": "160"}]}}}}}, {"name": "model/tf_bottleneck_csp_5/sequential_9/tf_bottleneck_39/tf_conv_99/conv2d_111/BiasAdd/ReadVariableOp", "op": "Const", "attr": {"value": {"tensor": {"dtype": "DT_FLOAT", "tensorShape": {"dim": [{"size": "160"}]}}}, "dtype": {"type": "DT_FLOAT"}}}, {"name": "model/tf_bottleneck_csp_5/sequential_9/tf_bottleneck_39/tf_conv_100/conv2d_112/Conv2D/ReadVariableOp", "op": "Const", "attr": {"value": {"tensor": {"dtype": "DT_FLOAT", "tensorShape": {"dim": [{"size": "3"}, {"size": "3"}, {"size": "160"}, {"size": "160"}]}}}, "dtype": {"type": "DT_FLOAT"}}}, {"name": "model/tf_bottleneck_csp_5/sequential_9/tf_bottleneck_39/tf_conv_100/conv2d_112/BiasAdd/ReadVariableOp", "op": "Const", "attr": {"value": {"tensor": {"dtype": "DT_FLOAT", "tensorShape": {"dim": [{"size": "160"}]}}}, "dtype": {"type": "DT_FLOAT"}}}, {"name": "model/tf_bottleneck_csp_5/tf_conv2d_11/conv2d_103/Conv2D/ReadVariableOp", "op": "Const", "attr": {"dtype": {"type": "DT_FLOAT"}, "value": {"tensor": {"dtype": "DT_FLOAT", "tensorShape": {"dim": [{"size": "1"}, {"size": "1"}, {"size": "160"}, {"size": "160"}]}}}}}, {"name": "model/tf_upsample_1/resize/size", "op": "Const", "attr": {"dtype": {"type": "DT_INT32"}, "value": {"tensor": {"dtype": "DT_INT32", "tensorShape": {"dim": [{"size": "2"}]}}}}}, {"name": "model/tf_concat_1/concat/axis", "op": "Const", "attr": {"value": {"tensor": {"dtype": "DT_INT32", "tensorShape": {}}}, "dtype": {"type": "DT_INT32"}}}, {"name": "model/tf_bottleneck_csp_5/tf_conv2d_10/conv2d_102/Conv2D/ReadVariableOp", "op": "Const", "attr": {"dtype": {"type": "DT_FLOAT"}, "value": {"tensor": {"dtype": "DT_FLOAT", "tensorShape": {"dim": [{"size": "1"}, {"size": "1"}, {"size": "640"}, {"size": "160"}]}}}}}, {"name": "model/tf_bottleneck_csp_5/concat/axis", "op": "Const", "attr": {"value": {"tensor": {"dtype": "DT_INT32", "tensorShape": {}}}, "dtype": {"type": "DT_INT32"}}}, {"name": "model/tf_bottleneck_csp_5/tf_conv_92/conv2d_104/Conv2D/ReadVariableOp", "op": "Const", "attr": {"value": {"tensor": {"dtype": "DT_FLOAT", "tensorShape": {"dim": [{"size": "1"}, {"size": "1"}, {"size": "320"}, {"size": "320"}]}}}, "dtype": {"type": "DT_FLOAT"}}}, {"name": "model/tf_bottleneck_csp_5/tf_conv_92/conv2d_104/BiasAdd/ReadVariableOp", "op": "Const", "attr": {"value": {"tensor": {"dtype": "DT_FLOAT", "tensorShape": {"dim": [{"size": "320"}]}}}, "dtype": {"type": "DT_FLOAT"}}}, {"name": "model/tf_conv_101/sequential_10/tf_pad_4/Pad/paddings", "op": "Const", "attr": {"dtype": {"type": "DT_INT32"}, "value": {"tensor": {"dtype": "DT_INT32", "tensorShape": {"dim": [{"size": "4"}, {"size": "2"}]}}}}}, {"name": "model/tf_conv_101/sequential_10/conv2d_113/Conv2D/ReadVariableOp", "op": "Const", "attr": {"dtype": {"type": "DT_FLOAT"}, "value": {"tensor": {"dtype": "DT_FLOAT", "tensorShape": {"dim": [{"size": "3"}, {"size": "3"}, {"size": "320"}, {"size": "320"}]}}}}}, {"name": "model/tf_conv_101/sequential_10/conv2d_113/BiasAdd/ReadVariableOp", "op": "Const", "attr": {"value": {"tensor": {"dtype": "DT_FLOAT", "tensorShape": {"dim": [{"size": "320"}]}}}, "dtype": {"type": "DT_FLOAT"}}}, {"name": "model/tf_bottleneck_csp_4/tf_conv_80/conv2d_88/Conv2D/ReadVariableOp", "op": "Const", "attr": {"dtype": {"type": "DT_FLOAT"}, "value": {"tensor": {"dtype": "DT_FLOAT", "tensorShape": {"dim": [{"size": "1"}, {"size": "1"}, {"size": "1280"}, {"size": "320"}]}}}}}, {"name": "model/tf_bottleneck_csp_4/tf_conv_80/conv2d_88/BiasAdd/ReadVariableOp", "op": "Const", "attr": {"dtype": {"type": "DT_FLOAT"}, "value": {"tensor": {"dtype": "DT_FLOAT", "tensorShape": {"dim": [{"size": "320"}]}}}}}, {"name": "model/tf_bottleneck_csp_4/sequential_8/tf_bottleneck_32/tf_conv_82/conv2d_92/Conv2D/ReadVariableOp", "op": "Const", "attr": {"dtype": {"type": "DT_FLOAT"}, "value": {"tensor": {"dtype": "DT_FLOAT", "tensorShape": {"dim": [{"size": "1"}, {"size": "1"}, {"size": "320"}, {"size": "320"}]}}}}}, {"name": "model/tf_bottleneck_csp_4/sequential_8/tf_bottleneck_32/tf_conv_82/conv2d_92/BiasAdd/ReadVariableOp", "op": "Const", "attr": {"value": {"tensor": {"dtype": "DT_FLOAT", "tensorShape": {"dim": [{"size": "320"}]}}}, "dtype": {"type": "DT_FLOAT"}}}, {"name": "model/tf_bottleneck_csp_4/sequential_8/tf_bottleneck_32/tf_conv_83/conv2d_93/Conv2D/ReadVariableOp", "op": "Const", "attr": {"value": {"tensor": {"dtype": "DT_FLOAT", "tensorShape": {"dim": [{"size": "3"}, {"size": "3"}, {"size": "320"}, {"size": "320"}]}}}, "dtype": {"type": "DT_FLOAT"}}}, {"name": "model/tf_bottleneck_csp_4/sequential_8/tf_bottleneck_32/tf_conv_83/conv2d_93/BiasAdd/ReadVariableOp", "op": "Const", "attr": {"value": {"tensor": {"dtype": "DT_FLOAT", "tensorShape": {"dim": [{"size": "320"}]}}}, "dtype": {"type": "DT_FLOAT"}}}, {"name": "model/tf_bottleneck_csp_4/sequential_8/tf_bottleneck_33/tf_conv_84/conv2d_94/Conv2D/ReadVariableOp", "op": "Const", "attr": {"value": {"tensor": {"dtype": "DT_FLOAT", "tensorShape": {"dim": [{"size": "1"}, {"size": "1"}, {"size": "320"}, {"size": "320"}]}}}, "dtype": {"type": "DT_FLOAT"}}}, {"name": "model/tf_bottleneck_csp_4/sequential_8/tf_bottleneck_33/tf_conv_84/conv2d_94/BiasAdd/ReadVariableOp", "op": "Const", "attr": {"value": {"tensor": {"dtype": "DT_FLOAT", "tensorShape": {"dim": [{"size": "320"}]}}}, "dtype": {"type": "DT_FLOAT"}}}, {"name": "model/tf_bottleneck_csp_4/sequential_8/tf_bottleneck_33/tf_conv_85/conv2d_95/Conv2D/ReadVariableOp", "op": "Const", "attr": {"dtype": {"type": "DT_FLOAT"}, "value": {"tensor": {"dtype": "DT_FLOAT", "tensorShape": {"dim": [{"size": "3"}, {"size": "3"}, {"size": "320"}, {"size": "320"}]}}}}}, {"name": "model/tf_bottleneck_csp_4/sequential_8/tf_bottleneck_33/tf_conv_85/conv2d_95/BiasAdd/ReadVariableOp", "op": "Const", "attr": {"dtype": {"type": "DT_FLOAT"}, "value": {"tensor": {"dtype": "DT_FLOAT", "tensorShape": {"dim": [{"size": "320"}]}}}}}, {"name": "model/tf_bottleneck_csp_4/sequential_8/tf_bottleneck_34/tf_conv_86/conv2d_96/Conv2D/ReadVariableOp", "op": "Const", "attr": {"value": {"tensor": {"dtype": "DT_FLOAT", "tensorShape": {"dim": [{"size": "1"}, {"size": "1"}, {"size": "320"}, {"size": "320"}]}}}, "dtype": {"type": "DT_FLOAT"}}}, {"name": "model/tf_bottleneck_csp_4/sequential_8/tf_bottleneck_34/tf_conv_86/conv2d_96/BiasAdd/ReadVariableOp", "op": "Const", "attr": {"value": {"tensor": {"dtype": "DT_FLOAT", "tensorShape": {"dim": [{"size": "320"}]}}}, "dtype": {"type": "DT_FLOAT"}}}, {"name": "model/tf_bottleneck_csp_4/sequential_8/tf_bottleneck_34/tf_conv_87/conv2d_97/Conv2D/ReadVariableOp", "op": "Const", "attr": {"dtype": {"type": "DT_FLOAT"}, "value": {"tensor": {"dtype": "DT_FLOAT", "tensorShape": {"dim": [{"size": "3"}, {"size": "3"}, {"size": "320"}, {"size": "320"}]}}}}}, {"name": "model/tf_bottleneck_csp_4/sequential_8/tf_bottleneck_34/tf_conv_87/conv2d_97/BiasAdd/ReadVariableOp", "op": "Const", "attr": {"dtype": {"type": "DT_FLOAT"}, "value": {"tensor": {"dtype": "DT_FLOAT", "tensorShape": {"dim": [{"size": "320"}]}}}}}, {"name": "model/tf_bottleneck_csp_4/sequential_8/tf_bottleneck_35/tf_conv_88/conv2d_98/Conv2D/ReadVariableOp", "op": "Const", "attr": {"dtype": {"type": "DT_FLOAT"}, "value": {"tensor": {"dtype": "DT_FLOAT", "tensorShape": {"dim": [{"size": "1"}, {"size": "1"}, {"size": "320"}, {"size": "320"}]}}}}}, {"name": "model/tf_bottleneck_csp_4/sequential_8/tf_bottleneck_35/tf_conv_88/conv2d_98/BiasAdd/ReadVariableOp", "op": "Const", "attr": {"value": {"tensor": {"dtype": "DT_FLOAT", "tensorShape": {"dim": [{"size": "320"}]}}}, "dtype": {"type": "DT_FLOAT"}}}, {"name": "model/tf_bottleneck_csp_4/sequential_8/tf_bottleneck_35/tf_conv_89/conv2d_99/Conv2D/ReadVariableOp", "op": "Const", "attr": {"value": {"tensor": {"dtype": "DT_FLOAT", "tensorShape": {"dim": [{"size": "3"}, {"size": "3"}, {"size": "320"}, {"size": "320"}]}}}, "dtype": {"type": "DT_FLOAT"}}}, {"name": "model/tf_bottleneck_csp_4/sequential_8/tf_bottleneck_35/tf_conv_89/conv2d_99/BiasAdd/ReadVariableOp", "op": "Const", "attr": {"value": {"tensor": {"dtype": "DT_FLOAT", "tensorShape": {"dim": [{"size": "320"}]}}}, "dtype": {"type": "DT_FLOAT"}}}, {"name": "model/tf_bottleneck_csp_4/tf_conv2d_9/conv2d_90/Conv2D/ReadVariableOp", "op": "Const", "attr": {"value": {"tensor": {"dtype": "DT_FLOAT", "tensorShape": {"dim": [{"size": "1"}, {"size": "1"}, {"size": "320"}, {"size": "320"}]}}}, "dtype": {"type": "DT_FLOAT"}}}, {"name": "model/tf_upsample/resize/size", "op": "Const", "attr": {"value": {"tensor": {"dtype": "DT_INT32", "tensorShape": {"dim": [{"size": "2"}]}}}, "dtype": {"type": "DT_INT32"}}}, {"name": "model/tf_concat/concat/axis", "op": "Const", "attr": {"value": {"tensor": {"dtype": "DT_INT32", "tensorShape": {}}}, "dtype": {"type": "DT_INT32"}}}, {"name": "model/tf_bottleneck_csp_4/tf_conv2d_8/conv2d_89/Conv2D/ReadVariableOp", "op": "Const", "attr": {"dtype": {"type": "DT_FLOAT"}, "value": {"tensor": {"dtype": "DT_FLOAT", "tensorShape": {"dim": [{"size": "1"}, {"size": "1"}, {"size": "1280"}, {"size": "320"}]}}}}}, {"name": "model/tf_bottleneck_csp_4/concat/axis", "op": "Const", "attr": {"dtype": {"type": "DT_INT32"}, "value": {"tensor": {"dtype": "DT_INT32", "tensorShape": {}}}}}, {"name": "model/tf_bottleneck_csp_4/tf_conv_81/conv2d_91/Conv2D/ReadVariableOp", "op": "Const", "attr": {"dtype": {"type": "DT_FLOAT"}, "value": {"tensor": {"dtype": "DT_FLOAT", "tensorShape": {"dim": [{"size": "1"}, {"size": "1"}, {"size": "640"}, {"size": "640"}]}}}}}, {"name": "model/tf_bottleneck_csp_4/tf_conv_81/conv2d_91/BiasAdd/ReadVariableOp", "op": "Const", "attr": {"value": {"tensor": {"dtype": "DT_FLOAT", "tensorShape": {"dim": [{"size": "640"}]}}}, "dtype": {"type": "DT_FLOAT"}}}, {"name": "model/tf_conv_90/conv2d_100/Conv2D/ReadVariableOp", "op": "Const", "attr": {"dtype": {"type": "DT_FLOAT"}, "value": {"tensor": {"dtype": "DT_FLOAT", "tensorShape": {"dim": [{"size": "1"}, {"size": "1"}, {"size": "640"}, {"size": "320"}]}}}}}, {"name": "model/tf_conv_90/conv2d_100/BiasAdd/ReadVariableOp", "op": "Const", "attr": {"dtype": {"type": "DT_FLOAT"}, "value": {"tensor": {"dtype": "DT_FLOAT", "tensorShape": {"dim": [{"size": "320"}]}}}}}, {"name": "model/tf_concat_2/concat/axis", "op": "Const", "attr": {"value": {"tensor": {"dtype": "DT_INT32", "tensorShape": {}}}, "dtype": {"type": "DT_INT32"}}}, {"name": "model/tf_bottleneck_csp_6/tf_conv2d_12/conv2d_115/Conv2D/ReadVariableOp", "op": "Const", "attr": {"value": {"tensor": {"dtype": "DT_FLOAT", "tensorShape": {"dim": [{"size": "1"}, {"size": "1"}, {"size": "640"}, {"size": "320"}]}}}, "dtype": {"type": "DT_FLOAT"}}}, {"name": "model/tf_bottleneck_csp_6/concat/axis", "op": "Const", "attr": {"dtype": {"type": "DT_INT32"}, "value": {"tensor": {"dtype": "DT_INT32", "tensorShape": {}}}}}, {"name": "model/tf_bottleneck_csp_6/tf_conv_103/conv2d_117/Conv2D/ReadVariableOp", "op": "Const", "attr": {"value": {"tensor": {"dtype": "DT_FLOAT", "tensorShape": {"dim": [{"size": "1"}, {"size": "1"}, {"size": "640"}, {"size": "640"}]}}}, "dtype": {"type": "DT_FLOAT"}}}, {"name": "model/tf_bottleneck_csp_6/tf_conv_103/conv2d_117/BiasAdd/ReadVariableOp", "op": "Const", "attr": {"value": {"tensor": {"dtype": "DT_FLOAT", "tensorShape": {"dim": [{"size": "640"}]}}}, "dtype": {"type": "DT_FLOAT"}}}, {"name": "model/tf_conv_112/sequential_12/tf_pad_5/Pad/paddings", "op": "Const", "attr": {"value": {"tensor": {"dtype": "DT_INT32", "tensorShape": {"dim": [{"size": "4"}, {"size": "2"}]}}}, "dtype": {"type": "DT_INT32"}}}, {"name": "model/tf_conv_112/sequential_12/conv2d_126/Conv2D/ReadVariableOp", "op": "Const", "attr": {"dtype": {"type": "DT_FLOAT"}, "value": {"tensor": {"dtype": "DT_FLOAT", "tensorShape": {"dim": [{"size": "3"}, {"size": "3"}, {"size": "640"}, {"size": "640"}]}}}}}, {"name": "model/tf_conv_112/sequential_12/conv2d_126/BiasAdd/ReadVariableOp", "op": "Const", "attr": {"dtype": {"type": "DT_FLOAT"}, "value": {"tensor": {"dtype": "DT_FLOAT", "tensorShape": {"dim": [{"size": "640"}]}}}}}, {"name": "model/tf_bottleneck_csp_3/tf_conv_69/conv2d_75/Conv2D/ReadVariableOp", "op": "Const", "attr": {"value": {"tensor": {"dtype": "DT_FLOAT", "tensorShape": {"dim": [{"size": "1"}, {"size": "1"}, {"size": "1280"}, {"size": "640"}]}}}, "dtype": {"type": "DT_FLOAT"}}}, {"name": "model/tf_bottleneck_csp_3/tf_conv_69/conv2d_75/BiasAdd/ReadVariableOp", "op": "Const", "attr": {"value": {"tensor": {"dtype": "DT_FLOAT", "tensorShape": {"dim": [{"size": "640"}]}}}, "dtype": {"type": "DT_FLOAT"}}}, {"name": "model/tf_bottleneck_csp_3/sequential_7/tf_bottleneck_28/tf_conv_71/conv2d_79/Conv2D/ReadVariableOp", "op": "Const", "attr": {"dtype": {"type": "DT_FLOAT"}, "value": {"tensor": {"dtype": "DT_FLOAT", "tensorShape": {"dim": [{"size": "1"}, {"size": "1"}, {"size": "640"}, {"size": "640"}]}}}}}, {"name": "model/tf_bottleneck_csp_3/sequential_7/tf_bottleneck_28/tf_conv_71/conv2d_79/BiasAdd/ReadVariableOp", "op": "Const", "attr": {"value": {"tensor": {"dtype": "DT_FLOAT", "tensorShape": {"dim": [{"size": "640"}]}}}, "dtype": {"type": "DT_FLOAT"}}}, {"name": "model/tf_bottleneck_csp_3/sequential_7/tf_bottleneck_28/tf_conv_72/conv2d_80/Conv2D/ReadVariableOp", "op": "Const", "attr": {"value": {"tensor": {"dtype": "DT_FLOAT", "tensorShape": {"dim": [{"size": "3"}, {"size": "3"}, {"size": "640"}, {"size": "640"}]}}}, "dtype": {"type": "DT_FLOAT"}}}, {"name": "model/tf_bottleneck_csp_3/sequential_7/tf_bottleneck_28/tf_conv_72/conv2d_80/BiasAdd/ReadVariableOp", "op": "Const", "attr": {"value": {"tensor": {"dtype": "DT_FLOAT", "tensorShape": {"dim": [{"size": "640"}]}}}, "dtype": {"type": "DT_FLOAT"}}}, {"name": "model/tf_bottleneck_csp_3/sequential_7/tf_bottleneck_29/tf_conv_73/conv2d_81/Conv2D/ReadVariableOp", "op": "Const", "attr": {"dtype": {"type": "DT_FLOAT"}, "value": {"tensor": {"dtype": "DT_FLOAT", "tensorShape": {"dim": [{"size": "1"}, {"size": "1"}, {"size": "640"}, {"size": "640"}]}}}}}, {"name": "model/tf_bottleneck_csp_3/sequential_7/tf_bottleneck_29/tf_conv_73/conv2d_81/BiasAdd/ReadVariableOp", "op": "Const", "attr": {"dtype": {"type": "DT_FLOAT"}, "value": {"tensor": {"dtype": "DT_FLOAT", "tensorShape": {"dim": [{"size": "640"}]}}}}}, {"name": "model/tf_bottleneck_csp_3/sequential_7/tf_bottleneck_29/tf_conv_74/conv2d_82/Conv2D/ReadVariableOp", "op": "Const", "attr": {"dtype": {"type": "DT_FLOAT"}, "value": {"tensor": {"dtype": "DT_FLOAT", "tensorShape": {"dim": [{"size": "3"}, {"size": "3"}, {"size": "640"}, {"size": "640"}]}}}}}, {"name": "model/tf_bottleneck_csp_3/sequential_7/tf_bottleneck_29/tf_conv_74/conv2d_82/BiasAdd/ReadVariableOp", "op": "Const", "attr": {"dtype": {"type": "DT_FLOAT"}, "value": {"tensor": {"dtype": "DT_FLOAT", "tensorShape": {"dim": [{"size": "640"}]}}}}}, {"name": "model/tf_bottleneck_csp_3/sequential_7/tf_bottleneck_30/tf_conv_75/conv2d_83/Conv2D/ReadVariableOp", "op": "Const", "attr": {"dtype": {"type": "DT_FLOAT"}, "value": {"tensor": {"dtype": "DT_FLOAT", "tensorShape": {"dim": [{"size": "1"}, {"size": "1"}, {"size": "640"}, {"size": "640"}]}}}}}, {"name": "model/tf_bottleneck_csp_3/sequential_7/tf_bottleneck_30/tf_conv_75/conv2d_83/BiasAdd/ReadVariableOp", "op": "Const", "attr": {"dtype": {"type": "DT_FLOAT"}, "value": {"tensor": {"dtype": "DT_FLOAT", "tensorShape": {"dim": [{"size": "640"}]}}}}}, {"name": "model/tf_bottleneck_csp_3/sequential_7/tf_bottleneck_30/tf_conv_76/conv2d_84/Conv2D/ReadVariableOp", "op": "Const", "attr": {"dtype": {"type": "DT_FLOAT"}, "value": {"tensor": {"dtype": "DT_FLOAT", "tensorShape": {"dim": [{"size": "3"}, {"size": "3"}, {"size": "640"}, {"size": "640"}]}}}}}, {"name": "model/tf_bottleneck_csp_3/sequential_7/tf_bottleneck_30/tf_conv_76/conv2d_84/BiasAdd/ReadVariableOp", "op": "Const", "attr": {"value": {"tensor": {"dtype": "DT_FLOAT", "tensorShape": {"dim": [{"size": "640"}]}}}, "dtype": {"type": "DT_FLOAT"}}}, {"name": "model/tf_bottleneck_csp_3/sequential_7/tf_bottleneck_31/tf_conv_77/conv2d_85/Conv2D/ReadVariableOp", "op": "Const", "attr": {"value": {"tensor": {"dtype": "DT_FLOAT", "tensorShape": {"dim": [{"size": "1"}, {"size": "1"}, {"size": "640"}, {"size": "640"}]}}}, "dtype": {"type": "DT_FLOAT"}}}, {"name": "model/tf_bottleneck_csp_3/sequential_7/tf_bottleneck_31/tf_conv_77/conv2d_85/BiasAdd/ReadVariableOp", "op": "Const", "attr": {"value": {"tensor": {"dtype": "DT_FLOAT", "tensorShape": {"dim": [{"size": "640"}]}}}, "dtype": {"type": "DT_FLOAT"}}}, {"name": "model/tf_bottleneck_csp_3/sequential_7/tf_bottleneck_31/tf_conv_78/conv2d_86/Conv2D/ReadVariableOp", "op": "Const", "attr": {"value": {"tensor": {"dtype": "DT_FLOAT", "tensorShape": {"dim": [{"size": "3"}, {"size": "3"}, {"size": "640"}, {"size": "640"}]}}}, "dtype": {"type": "DT_FLOAT"}}}, {"name": "model/tf_bottleneck_csp_3/sequential_7/tf_bottleneck_31/tf_conv_78/conv2d_86/BiasAdd/ReadVariableOp", "op": "Const", "attr": {"dtype": {"type": "DT_FLOAT"}, "value": {"tensor": {"dtype": "DT_FLOAT", "tensorShape": {"dim": [{"size": "640"}]}}}}}, {"name": "model/tf_bottleneck_csp_3/tf_conv2d_7/conv2d_77/Conv2D/ReadVariableOp", "op": "Const", "attr": {"value": {"tensor": {"dtype": "DT_FLOAT", "tensorShape": {"dim": [{"size": "1"}, {"size": "1"}, {"size": "640"}, {"size": "640"}]}}}, "dtype": {"type": "DT_FLOAT"}}}, {"name": "model/tf_bottleneck_csp_2/tf_conv_40/conv2d_44/Conv2D/ReadVariableOp", "op": "Const", "attr": {"dtype": {"type": "DT_FLOAT"}, "value": {"tensor": {"dtype": "DT_FLOAT", "tensorShape": {"dim": [{"size": "1"}, {"size": "1"}, {"size": "640"}, {"size": "320"}]}}}}}, {"name": "model/tf_bottleneck_csp_2/tf_conv_40/conv2d_44/BiasAdd/ReadVariableOp", "op": "Const", "attr": {"dtype": {"type": "DT_FLOAT"}, "value": {"tensor": {"dtype": "DT_FLOAT", "tensorShape": {"dim": [{"size": "320"}]}}}}}, {"name": "model/tf_bottleneck_csp_2/sequential_5/tf_bottleneck_16/tf_conv_42/conv2d_48/Conv2D/ReadVariableOp", "op": "Const", "attr": {"dtype": {"type": "DT_FLOAT"}, "value": {"tensor": {"dtype": "DT_FLOAT", "tensorShape": {"dim": [{"size": "1"}, {"size": "1"}, {"size": "320"}, {"size": "320"}]}}}}}, {"name": "model/tf_bottleneck_csp_2/sequential_5/tf_bottleneck_16/tf_conv_42/conv2d_48/BiasAdd/ReadVariableOp", "op": "Const", "attr": {"value": {"tensor": {"dtype": "DT_FLOAT", "tensorShape": {"dim": [{"size": "320"}]}}}, "dtype": {"type": "DT_FLOAT"}}}, {"name": "model/tf_bottleneck_csp_2/sequential_5/tf_bottleneck_16/tf_conv_43/conv2d_49/Conv2D/ReadVariableOp", "op": "Const", "attr": {"value": {"tensor": {"dtype": "DT_FLOAT", "tensorShape": {"dim": [{"size": "3"}, {"size": "3"}, {"size": "320"}, {"size": "320"}]}}}, "dtype": {"type": "DT_FLOAT"}}}, {"name": "model/tf_bottleneck_csp_2/sequential_5/tf_bottleneck_16/tf_conv_43/conv2d_49/BiasAdd/ReadVariableOp", "op": "Const", "attr": {"value": {"tensor": {"dtype": "DT_FLOAT", "tensorShape": {"dim": [{"size": "320"}]}}}, "dtype": {"type": "DT_FLOAT"}}}, {"name": "model/tf_bottleneck_csp_2/sequential_5/tf_bottleneck_17/tf_conv_44/conv2d_50/Conv2D/ReadVariableOp", "op": "Const", "attr": {"value": {"tensor": {"dtype": "DT_FLOAT", "tensorShape": {"dim": [{"size": "1"}, {"size": "1"}, {"size": "320"}, {"size": "320"}]}}}, "dtype": {"type": "DT_FLOAT"}}}, {"name": "model/tf_bottleneck_csp_2/sequential_5/tf_bottleneck_17/tf_conv_44/conv2d_50/BiasAdd/ReadVariableOp", "op": "Const", "attr": {"dtype": {"type": "DT_FLOAT"}, "value": {"tensor": {"dtype": "DT_FLOAT", "tensorShape": {"dim": [{"size": "320"}]}}}}}, {"name": "model/tf_bottleneck_csp_2/sequential_5/tf_bottleneck_17/tf_conv_45/conv2d_51/Conv2D/ReadVariableOp", "op": "Const", "attr": {"dtype": {"type": "DT_FLOAT"}, "value": {"tensor": {"dtype": "DT_FLOAT", "tensorShape": {"dim": [{"size": "3"}, {"size": "3"}, {"size": "320"}, {"size": "320"}]}}}}}, {"name": "model/tf_bottleneck_csp_2/sequential_5/tf_bottleneck_17/tf_conv_45/conv2d_51/BiasAdd/ReadVariableOp", "op": "Const", "attr": {"value": {"tensor": {"dtype": "DT_FLOAT", "tensorShape": {"dim": [{"size": "320"}]}}}, "dtype": {"type": "DT_FLOAT"}}}, {"name": "model/tf_bottleneck_csp_2/sequential_5/tf_bottleneck_18/tf_conv_46/conv2d_52/Conv2D/ReadVariableOp", "op": "Const", "attr": {"dtype": {"type": "DT_FLOAT"}, "value": {"tensor": {"dtype": "DT_FLOAT", "tensorShape": {"dim": [{"size": "1"}, {"size": "1"}, {"size": "320"}, {"size": "320"}]}}}}}, {"name": "model/tf_bottleneck_csp_2/sequential_5/tf_bottleneck_18/tf_conv_46/conv2d_52/BiasAdd/ReadVariableOp", "op": "Const", "attr": {"value": {"tensor": {"dtype": "DT_FLOAT", "tensorShape": {"dim": [{"size": "320"}]}}}, "dtype": {"type": "DT_FLOAT"}}}, {"name": "model/tf_bottleneck_csp_2/sequential_5/tf_bottleneck_18/tf_conv_47/conv2d_53/Conv2D/ReadVariableOp", "op": "Const", "attr": {"dtype": {"type": "DT_FLOAT"}, "value": {"tensor": {"dtype": "DT_FLOAT", "tensorShape": {"dim": [{"size": "3"}, {"size": "3"}, {"size": "320"}, {"size": "320"}]}}}}}, {"name": "model/tf_bottleneck_csp_2/sequential_5/tf_bottleneck_18/tf_conv_47/conv2d_53/BiasAdd/ReadVariableOp", "op": "Const", "attr": {"dtype": {"type": "DT_FLOAT"}, "value": {"tensor": {"dtype": "DT_FLOAT", "tensorShape": {"dim": [{"size": "320"}]}}}}}, {"name": "model/tf_bottleneck_csp_2/sequential_5/tf_bottleneck_19/tf_conv_48/conv2d_54/Conv2D/ReadVariableOp", "op": "Const", "attr": {"dtype": {"type": "DT_FLOAT"}, "value": {"tensor": {"dtype": "DT_FLOAT", "tensorShape": {"dim": [{"size": "1"}, {"size": "1"}, {"size": "320"}, {"size": "320"}]}}}}}, {"name": "model/tf_bottleneck_csp_2/sequential_5/tf_bottleneck_19/tf_conv_48/conv2d_54/BiasAdd/ReadVariableOp", "op": "Const", "attr": {"dtype": {"type": "DT_FLOAT"}, "value": {"tensor": {"dtype": "DT_FLOAT", "tensorShape": {"dim": [{"size": "320"}]}}}}}, {"name": "model/tf_bottleneck_csp_2/sequential_5/tf_bottleneck_19/tf_conv_49/conv2d_55/Conv2D/ReadVariableOp", "op": "Const", "attr": {"dtype": {"type": "DT_FLOAT"}, "value": {"tensor": {"dtype": "DT_FLOAT", "tensorShape": {"dim": [{"size": "3"}, {"size": "3"}, {"size": "320"}, {"size": "320"}]}}}}}, {"name": "model/tf_bottleneck_csp_2/sequential_5/tf_bottleneck_19/tf_conv_49/conv2d_55/BiasAdd/ReadVariableOp", "op": "Const", "attr": {"dtype": {"type": "DT_FLOAT"}, "value": {"tensor": {"dtype": "DT_FLOAT", "tensorShape": {"dim": [{"size": "320"}]}}}}}, {"name": "model/tf_bottleneck_csp_2/sequential_5/tf_bottleneck_20/tf_conv_50/conv2d_56/Conv2D/ReadVariableOp", "op": "Const", "attr": {"dtype": {"type": "DT_FLOAT"}, "value": {"tensor": {"dtype": "DT_FLOAT", "tensorShape": {"dim": [{"size": "1"}, {"size": "1"}, {"size": "320"}, {"size": "320"}]}}}}}, {"name": "model/tf_bottleneck_csp_2/sequential_5/tf_bottleneck_20/tf_conv_50/conv2d_56/BiasAdd/ReadVariableOp", "op": "Const", "attr": {"value": {"tensor": {"dtype": "DT_FLOAT", "tensorShape": {"dim": [{"size": "320"}]}}}, "dtype": {"type": "DT_FLOAT"}}}, {"name": "model/tf_bottleneck_csp_2/sequential_5/tf_bottleneck_20/tf_conv_51/conv2d_57/Conv2D/ReadVariableOp", "op": "Const", "attr": {"value": {"tensor": {"dtype": "DT_FLOAT", "tensorShape": {"dim": [{"size": "3"}, {"size": "3"}, {"size": "320"}, {"size": "320"}]}}}, "dtype": {"type": "DT_FLOAT"}}}, {"name": "model/tf_bottleneck_csp_2/sequential_5/tf_bottleneck_20/tf_conv_51/conv2d_57/BiasAdd/ReadVariableOp", "op": "Const", "attr": {"value": {"tensor": {"dtype": "DT_FLOAT", "tensorShape": {"dim": [{"size": "320"}]}}}, "dtype": {"type": "DT_FLOAT"}}}, {"name": "model/tf_bottleneck_csp_2/sequential_5/tf_bottleneck_21/tf_conv_52/conv2d_58/Conv2D/ReadVariableOp", "op": "Const", "attr": {"value": {"tensor": {"dtype": "DT_FLOAT", "tensorShape": {"dim": [{"size": "1"}, {"size": "1"}, {"size": "320"}, {"size": "320"}]}}}, "dtype": {"type": "DT_FLOAT"}}}, {"name": "model/tf_bottleneck_csp_2/sequential_5/tf_bottleneck_21/tf_conv_52/conv2d_58/BiasAdd/ReadVariableOp", "op": "Const", "attr": {"value": {"tensor": {"dtype": "DT_FLOAT", "tensorShape": {"dim": [{"size": "320"}]}}}, "dtype": {"type": "DT_FLOAT"}}}, {"name": "model/tf_bottleneck_csp_2/sequential_5/tf_bottleneck_21/tf_conv_53/conv2d_59/Conv2D/ReadVariableOp", "op": "Const", "attr": {"value": {"tensor": {"dtype": "DT_FLOAT", "tensorShape": {"dim": [{"size": "3"}, {"size": "3"}, {"size": "320"}, {"size": "320"}]}}}, "dtype": {"type": "DT_FLOAT"}}}, {"name": "model/tf_bottleneck_csp_2/sequential_5/tf_bottleneck_21/tf_conv_53/conv2d_59/BiasAdd/ReadVariableOp", "op": "Const", "attr": {"dtype": {"type": "DT_FLOAT"}, "value": {"tensor": {"dtype": "DT_FLOAT", "tensorShape": {"dim": [{"size": "320"}]}}}}}, {"name": "model/tf_bottleneck_csp_2/sequential_5/tf_bottleneck_22/tf_conv_54/conv2d_60/Conv2D/ReadVariableOp", "op": "Const", "attr": {"value": {"tensor": {"dtype": "DT_FLOAT", "tensorShape": {"dim": [{"size": "1"}, {"size": "1"}, {"size": "320"}, {"size": "320"}]}}}, "dtype": {"type": "DT_FLOAT"}}}, {"name": "model/tf_bottleneck_csp_2/sequential_5/tf_bottleneck_22/tf_conv_54/conv2d_60/BiasAdd/ReadVariableOp", "op": "Const", "attr": {"dtype": {"type": "DT_FLOAT"}, "value": {"tensor": {"dtype": "DT_FLOAT", "tensorShape": {"dim": [{"size": "320"}]}}}}}, {"name": "model/tf_bottleneck_csp_2/sequential_5/tf_bottleneck_22/tf_conv_55/conv2d_61/Conv2D/ReadVariableOp", "op": "Const", "attr": {"value": {"tensor": {"dtype": "DT_FLOAT", "tensorShape": {"dim": [{"size": "3"}, {"size": "3"}, {"size": "320"}, {"size": "320"}]}}}, "dtype": {"type": "DT_FLOAT"}}}, {"name": "model/tf_bottleneck_csp_2/sequential_5/tf_bottleneck_22/tf_conv_55/conv2d_61/BiasAdd/ReadVariableOp", "op": "Const", "attr": {"dtype": {"type": "DT_FLOAT"}, "value": {"tensor": {"dtype": "DT_FLOAT", "tensorShape": {"dim": [{"size": "320"}]}}}}}, {"name": "model/tf_bottleneck_csp_2/sequential_5/tf_bottleneck_23/tf_conv_56/conv2d_62/Conv2D/ReadVariableOp", "op": "Const", "attr": {"dtype": {"type": "DT_FLOAT"}, "value": {"tensor": {"dtype": "DT_FLOAT", "tensorShape": {"dim": [{"size": "1"}, {"size": "1"}, {"size": "320"}, {"size": "320"}]}}}}}, {"name": "model/tf_bottleneck_csp_2/sequential_5/tf_bottleneck_23/tf_conv_56/conv2d_62/BiasAdd/ReadVariableOp", "op": "Const", "attr": {"value": {"tensor": {"dtype": "DT_FLOAT", "tensorShape": {"dim": [{"size": "320"}]}}}, "dtype": {"type": "DT_FLOAT"}}}, {"name": "model/tf_bottleneck_csp_2/sequential_5/tf_bottleneck_23/tf_conv_57/conv2d_63/Conv2D/ReadVariableOp", "op": "Const", "attr": {"value": {"tensor": {"dtype": "DT_FLOAT", "tensorShape": {"dim": [{"size": "3"}, {"size": "3"}, {"size": "320"}, {"size": "320"}]}}}, "dtype": {"type": "DT_FLOAT"}}}, {"name": "model/tf_bottleneck_csp_2/sequential_5/tf_bottleneck_23/tf_conv_57/conv2d_63/BiasAdd/ReadVariableOp", "op": "Const", "attr": {"dtype": {"type": "DT_FLOAT"}, "value": {"tensor": {"dtype": "DT_FLOAT", "tensorShape": {"dim": [{"size": "320"}]}}}}}, {"name": "model/tf_bottleneck_csp_2/sequential_5/tf_bottleneck_24/tf_conv_58/conv2d_64/Conv2D/ReadVariableOp", "op": "Const", "attr": {"dtype": {"type": "DT_FLOAT"}, "value": {"tensor": {"dtype": "DT_FLOAT", "tensorShape": {"dim": [{"size": "1"}, {"size": "1"}, {"size": "320"}, {"size": "320"}]}}}}}, {"name": "model/tf_bottleneck_csp_2/sequential_5/tf_bottleneck_24/tf_conv_58/conv2d_64/BiasAdd/ReadVariableOp", "op": "Const", "attr": {"dtype": {"type": "DT_FLOAT"}, "value": {"tensor": {"dtype": "DT_FLOAT", "tensorShape": {"dim": [{"size": "320"}]}}}}}, {"name": "model/tf_bottleneck_csp_2/sequential_5/tf_bottleneck_24/tf_conv_59/conv2d_65/Conv2D/ReadVariableOp", "op": "Const", "attr": {"dtype": {"type": "DT_FLOAT"}, "value": {"tensor": {"dtype": "DT_FLOAT", "tensorShape": {"dim": [{"size": "3"}, {"size": "3"}, {"size": "320"}, {"size": "320"}]}}}}}, {"name": "model/tf_bottleneck_csp_2/sequential_5/tf_bottleneck_24/tf_conv_59/conv2d_65/BiasAdd/ReadVariableOp", "op": "Const", "attr": {"value": {"tensor": {"dtype": "DT_FLOAT", "tensorShape": {"dim": [{"size": "320"}]}}}, "dtype": {"type": "DT_FLOAT"}}}, {"name": "model/tf_bottleneck_csp_2/sequential_5/tf_bottleneck_25/tf_conv_60/conv2d_66/Conv2D/ReadVariableOp", "op": "Const", "attr": {"value": {"tensor": {"dtype": "DT_FLOAT", "tensorShape": {"dim": [{"size": "1"}, {"size": "1"}, {"size": "320"}, {"size": "320"}]}}}, "dtype": {"type": "DT_FLOAT"}}}, {"name": "model/tf_bottleneck_csp_2/sequential_5/tf_bottleneck_25/tf_conv_60/conv2d_66/BiasAdd/ReadVariableOp", "op": "Const", "attr": {"dtype": {"type": "DT_FLOAT"}, "value": {"tensor": {"dtype": "DT_FLOAT", "tensorShape": {"dim": [{"size": "320"}]}}}}}, {"name": "model/tf_bottleneck_csp_2/sequential_5/tf_bottleneck_25/tf_conv_61/conv2d_67/Conv2D/ReadVariableOp", "op": "Const", "attr": {"dtype": {"type": "DT_FLOAT"}, "value": {"tensor": {"dtype": "DT_FLOAT", "tensorShape": {"dim": [{"size": "3"}, {"size": "3"}, {"size": "320"}, {"size": "320"}]}}}}}, {"name": "model/tf_bottleneck_csp_2/sequential_5/tf_bottleneck_25/tf_conv_61/conv2d_67/BiasAdd/ReadVariableOp", "op": "Const", "attr": {"dtype": {"type": "DT_FLOAT"}, "value": {"tensor": {"dtype": "DT_FLOAT", "tensorShape": {"dim": [{"size": "320"}]}}}}}, {"name": "model/tf_bottleneck_csp_2/sequential_5/tf_bottleneck_26/tf_conv_62/conv2d_68/Conv2D/ReadVariableOp", "op": "Const", "attr": {"value": {"tensor": {"dtype": "DT_FLOAT", "tensorShape": {"dim": [{"size": "1"}, {"size": "1"}, {"size": "320"}, {"size": "320"}]}}}, "dtype": {"type": "DT_FLOAT"}}}, {"name": "model/tf_bottleneck_csp_2/sequential_5/tf_bottleneck_26/tf_conv_62/conv2d_68/BiasAdd/ReadVariableOp", "op": "Const", "attr": {"dtype": {"type": "DT_FLOAT"}, "value": {"tensor": {"dtype": "DT_FLOAT", "tensorShape": {"dim": [{"size": "320"}]}}}}}, {"name": "model/tf_bottleneck_csp_2/sequential_5/tf_bottleneck_26/tf_conv_63/conv2d_69/Conv2D/ReadVariableOp", "op": "Const", "attr": {"value": {"tensor": {"dtype": "DT_FLOAT", "tensorShape": {"dim": [{"size": "3"}, {"size": "3"}, {"size": "320"}, {"size": "320"}]}}}, "dtype": {"type": "DT_FLOAT"}}}, {"name": "model/tf_bottleneck_csp_2/sequential_5/tf_bottleneck_26/tf_conv_63/conv2d_69/BiasAdd/ReadVariableOp", "op": "Const", "attr": {"value": {"tensor": {"dtype": "DT_FLOAT", "tensorShape": {"dim": [{"size": "320"}]}}}, "dtype": {"type": "DT_FLOAT"}}}, {"name": "model/tf_bottleneck_csp_2/sequential_5/tf_bottleneck_27/tf_conv_64/conv2d_70/Conv2D/ReadVariableOp", "op": "Const", "attr": {"value": {"tensor": {"dtype": "DT_FLOAT", "tensorShape": {"dim": [{"size": "1"}, {"size": "1"}, {"size": "320"}, {"size": "320"}]}}}, "dtype": {"type": "DT_FLOAT"}}}, {"name": "model/tf_bottleneck_csp_2/sequential_5/tf_bottleneck_27/tf_conv_64/conv2d_70/BiasAdd/ReadVariableOp", "op": "Const", "attr": {"value": {"tensor": {"dtype": "DT_FLOAT", "tensorShape": {"dim": [{"size": "320"}]}}}, "dtype": {"type": "DT_FLOAT"}}}, {"name": "model/tf_bottleneck_csp_2/sequential_5/tf_bottleneck_27/tf_conv_65/conv2d_71/Conv2D/ReadVariableOp", "op": "Const", "attr": {"value": {"tensor": {"dtype": "DT_FLOAT", "tensorShape": {"dim": [{"size": "3"}, {"size": "3"}, {"size": "320"}, {"size": "320"}]}}}, "dtype": {"type": "DT_FLOAT"}}}, {"name": "model/tf_bottleneck_csp_2/sequential_5/tf_bottleneck_27/tf_conv_65/conv2d_71/BiasAdd/ReadVariableOp", "op": "Const", "attr": {"dtype": {"type": "DT_FLOAT"}, "value": {"tensor": {"dtype": "DT_FLOAT", "tensorShape": {"dim": [{"size": "320"}]}}}}}, {"name": "model/tf_bottleneck_csp_2/tf_conv2d_5/conv2d_46/Conv2D/ReadVariableOp", "op": "Const", "attr": {"dtype": {"type": "DT_FLOAT"}, "value": {"tensor": {"dtype": "DT_FLOAT", "tensorShape": {"dim": [{"size": "1"}, {"size": "1"}, {"size": "320"}, {"size": "320"}]}}}}}, {"name": "model/tf_bottleneck_csp_1/tf_conv_13/conv2d_15/Conv2D/ReadVariableOp", "op": "Const", "attr": {"value": {"tensor": {"dtype": "DT_FLOAT", "tensorShape": {"dim": [{"size": "1"}, {"size": "1"}, {"size": "320"}, {"size": "160"}]}}}, "dtype": {"type": "DT_FLOAT"}}}, {"name": "model/tf_bottleneck_csp_1/tf_conv_13/conv2d_15/BiasAdd/ReadVariableOp", "op": "Const", "attr": {"value": {"tensor": {"dtype": "DT_FLOAT", "tensorShape": {"dim": [{"size": "160"}]}}}, "dtype": {"type": "DT_FLOAT"}}}, {"name": "model/tf_bottleneck_csp_1/sequential_3/tf_bottleneck_4/tf_conv_15/conv2d_19/Conv2D/ReadVariableOp", "op": "Const", "attr": {"dtype": {"type": "DT_FLOAT"}, "value": {"tensor": {"dtype": "DT_FLOAT", "tensorShape": {"dim": [{"size": "1"}, {"size": "1"}, {"size": "160"}, {"size": "160"}]}}}}}, {"name": "model/tf_bottleneck_csp_1/sequential_3/tf_bottleneck_4/tf_conv_15/conv2d_19/BiasAdd/ReadVariableOp", "op": "Const", "attr": {"value": {"tensor": {"dtype": "DT_FLOAT", "tensorShape": {"dim": [{"size": "160"}]}}}, "dtype": {"type": "DT_FLOAT"}}}, {"name": "model/tf_bottleneck_csp_1/sequential_3/tf_bottleneck_4/tf_conv_16/conv2d_20/Conv2D/ReadVariableOp", "op": "Const", "attr": {"value": {"tensor": {"dtype": "DT_FLOAT", "tensorShape": {"dim": [{"size": "3"}, {"size": "3"}, {"size": "160"}, {"size": "160"}]}}}, "dtype": {"type": "DT_FLOAT"}}}, {"name": "model/tf_bottleneck_csp_1/sequential_3/tf_bottleneck_4/tf_conv_16/conv2d_20/BiasAdd/ReadVariableOp", "op": "Const", "attr": {"value": {"tensor": {"dtype": "DT_FLOAT", "tensorShape": {"dim": [{"size": "160"}]}}}, "dtype": {"type": "DT_FLOAT"}}}, {"name": "model/tf_bottleneck_csp_1/sequential_3/tf_bottleneck_5/tf_conv_17/conv2d_21/Conv2D/ReadVariableOp", "op": "Const", "attr": {"value": {"tensor": {"dtype": "DT_FLOAT", "tensorShape": {"dim": [{"size": "1"}, {"size": "1"}, {"size": "160"}, {"size": "160"}]}}}, "dtype": {"type": "DT_FLOAT"}}}, {"name": "model/tf_bottleneck_csp_1/sequential_3/tf_bottleneck_5/tf_conv_17/conv2d_21/BiasAdd/ReadVariableOp", "op": "Const", "attr": {"value": {"tensor": {"dtype": "DT_FLOAT", "tensorShape": {"dim": [{"size": "160"}]}}}, "dtype": {"type": "DT_FLOAT"}}}, {"name": "model/tf_bottleneck_csp_1/sequential_3/tf_bottleneck_5/tf_conv_18/conv2d_22/Conv2D/ReadVariableOp", "op": "Const", "attr": {"value": {"tensor": {"dtype": "DT_FLOAT", "tensorShape": {"dim": [{"size": "3"}, {"size": "3"}, {"size": "160"}, {"size": "160"}]}}}, "dtype": {"type": "DT_FLOAT"}}}, {"name": "model/tf_bottleneck_csp_1/sequential_3/tf_bottleneck_5/tf_conv_18/conv2d_22/BiasAdd/ReadVariableOp", "op": "Const", "attr": {"value": {"tensor": {"dtype": "DT_FLOAT", "tensorShape": {"dim": [{"size": "160"}]}}}, "dtype": {"type": "DT_FLOAT"}}}, {"name": "model/tf_bottleneck_csp_1/sequential_3/tf_bottleneck_6/tf_conv_19/conv2d_23/Conv2D/ReadVariableOp", "op": "Const", "attr": {"dtype": {"type": "DT_FLOAT"}, "value": {"tensor": {"dtype": "DT_FLOAT", "tensorShape": {"dim": [{"size": "1"}, {"size": "1"}, {"size": "160"}, {"size": "160"}]}}}}}, {"name": "model/tf_bottleneck_csp_1/sequential_3/tf_bottleneck_6/tf_conv_19/conv2d_23/BiasAdd/ReadVariableOp", "op": "Const", "attr": {"dtype": {"type": "DT_FLOAT"}, "value": {"tensor": {"dtype": "DT_FLOAT", "tensorShape": {"dim": [{"size": "160"}]}}}}}, {"name": "model/tf_bottleneck_csp_1/sequential_3/tf_bottleneck_6/tf_conv_20/conv2d_24/Conv2D/ReadVariableOp", "op": "Const", "attr": {"dtype": {"type": "DT_FLOAT"}, "value": {"tensor": {"dtype": "DT_FLOAT", "tensorShape": {"dim": [{"size": "3"}, {"size": "3"}, {"size": "160"}, {"size": "160"}]}}}}}, {"name": "model/tf_bottleneck_csp_1/sequential_3/tf_bottleneck_6/tf_conv_20/conv2d_24/BiasAdd/ReadVariableOp", "op": "Const", "attr": {"value": {"tensor": {"dtype": "DT_FLOAT", "tensorShape": {"dim": [{"size": "160"}]}}}, "dtype": {"type": "DT_FLOAT"}}}, {"name": "model/tf_bottleneck_csp_1/sequential_3/tf_bottleneck_7/tf_conv_21/conv2d_25/Conv2D/ReadVariableOp", "op": "Const", "attr": {"value": {"tensor": {"dtype": "DT_FLOAT", "tensorShape": {"dim": [{"size": "1"}, {"size": "1"}, {"size": "160"}, {"size": "160"}]}}}, "dtype": {"type": "DT_FLOAT"}}}, {"name": "model/tf_bottleneck_csp_1/sequential_3/tf_bottleneck_7/tf_conv_21/conv2d_25/BiasAdd/ReadVariableOp", "op": "Const", "attr": {"dtype": {"type": "DT_FLOAT"}, "value": {"tensor": {"dtype": "DT_FLOAT", "tensorShape": {"dim": [{"size": "160"}]}}}}}, {"name": "model/tf_bottleneck_csp_1/sequential_3/tf_bottleneck_7/tf_conv_22/conv2d_26/Conv2D/ReadVariableOp", "op": "Const", "attr": {"dtype": {"type": "DT_FLOAT"}, "value": {"tensor": {"dtype": "DT_FLOAT", "tensorShape": {"dim": [{"size": "3"}, {"size": "3"}, {"size": "160"}, {"size": "160"}]}}}}}, {"name": "model/tf_bottleneck_csp_1/sequential_3/tf_bottleneck_7/tf_conv_22/conv2d_26/BiasAdd/ReadVariableOp", "op": "Const", "attr": {"dtype": {"type": "DT_FLOAT"}, "value": {"tensor": {"dtype": "DT_FLOAT", "tensorShape": {"dim": [{"size": "160"}]}}}}}, {"name": "model/tf_bottleneck_csp_1/sequential_3/tf_bottleneck_8/tf_conv_23/conv2d_27/Conv2D/ReadVariableOp", "op": "Const", "attr": {"dtype": {"type": "DT_FLOAT"}, "value": {"tensor": {"dtype": "DT_FLOAT", "tensorShape": {"dim": [{"size": "1"}, {"size": "1"}, {"size": "160"}, {"size": "160"}]}}}}}, {"name": "model/tf_bottleneck_csp_1/sequential_3/tf_bottleneck_8/tf_conv_23/conv2d_27/BiasAdd/ReadVariableOp", "op": "Const", "attr": {"dtype": {"type": "DT_FLOAT"}, "value": {"tensor": {"dtype": "DT_FLOAT", "tensorShape": {"dim": [{"size": "160"}]}}}}}, {"name": "model/tf_bottleneck_csp_1/sequential_3/tf_bottleneck_8/tf_conv_24/conv2d_28/Conv2D/ReadVariableOp", "op": "Const", "attr": {"value": {"tensor": {"dtype": "DT_FLOAT", "tensorShape": {"dim": [{"size": "3"}, {"size": "3"}, {"size": "160"}, {"size": "160"}]}}}, "dtype": {"type": "DT_FLOAT"}}}, {"name": "model/tf_bottleneck_csp_1/sequential_3/tf_bottleneck_8/tf_conv_24/conv2d_28/BiasAdd/ReadVariableOp", "op": "Const", "attr": {"dtype": {"type": "DT_FLOAT"}, "value": {"tensor": {"dtype": "DT_FLOAT", "tensorShape": {"dim": [{"size": "160"}]}}}}}, {"name": "model/tf_bottleneck_csp_1/sequential_3/tf_bottleneck_9/tf_conv_25/conv2d_29/Conv2D/ReadVariableOp", "op": "Const", "attr": {"dtype": {"type": "DT_FLOAT"}, "value": {"tensor": {"dtype": "DT_FLOAT", "tensorShape": {"dim": [{"size": "1"}, {"size": "1"}, {"size": "160"}, {"size": "160"}]}}}}}, {"name": "model/tf_bottleneck_csp_1/sequential_3/tf_bottleneck_9/tf_conv_25/conv2d_29/BiasAdd/ReadVariableOp", "op": "Const", "attr": {"dtype": {"type": "DT_FLOAT"}, "value": {"tensor": {"dtype": "DT_FLOAT", "tensorShape": {"dim": [{"size": "160"}]}}}}}, {"name": "model/tf_bottleneck_csp_1/sequential_3/tf_bottleneck_9/tf_conv_26/conv2d_30/Conv2D/ReadVariableOp", "op": "Const", "attr": {"value": {"tensor": {"dtype": "DT_FLOAT", "tensorShape": {"dim": [{"size": "3"}, {"size": "3"}, {"size": "160"}, {"size": "160"}]}}}, "dtype": {"type": "DT_FLOAT"}}}, {"name": "model/tf_bottleneck_csp_1/sequential_3/tf_bottleneck_9/tf_conv_26/conv2d_30/BiasAdd/ReadVariableOp", "op": "Const", "attr": {"dtype": {"type": "DT_FLOAT"}, "value": {"tensor": {"dtype": "DT_FLOAT", "tensorShape": {"dim": [{"size": "160"}]}}}}}, {"name": "model/tf_bottleneck_csp_1/sequential_3/tf_bottleneck_10/tf_conv_27/conv2d_31/Conv2D/ReadVariableOp", "op": "Const", "attr": {"dtype": {"type": "DT_FLOAT"}, "value": {"tensor": {"dtype": "DT_FLOAT", "tensorShape": {"dim": [{"size": "1"}, {"size": "1"}, {"size": "160"}, {"size": "160"}]}}}}}, {"name": "model/tf_bottleneck_csp_1/sequential_3/tf_bottleneck_10/tf_conv_27/conv2d_31/BiasAdd/ReadVariableOp", "op": "Const", "attr": {"dtype": {"type": "DT_FLOAT"}, "value": {"tensor": {"dtype": "DT_FLOAT", "tensorShape": {"dim": [{"size": "160"}]}}}}}, {"name": "model/tf_bottleneck_csp_1/sequential_3/tf_bottleneck_10/tf_conv_28/conv2d_32/Conv2D/ReadVariableOp", "op": "Const", "attr": {"value": {"tensor": {"dtype": "DT_FLOAT", "tensorShape": {"dim": [{"size": "3"}, {"size": "3"}, {"size": "160"}, {"size": "160"}]}}}, "dtype": {"type": "DT_FLOAT"}}}, {"name": "model/tf_bottleneck_csp_1/sequential_3/tf_bottleneck_10/tf_conv_28/conv2d_32/BiasAdd/ReadVariableOp", "op": "Const", "attr": {"dtype": {"type": "DT_FLOAT"}, "value": {"tensor": {"dtype": "DT_FLOAT", "tensorShape": {"dim": [{"size": "160"}]}}}}}, {"name": "model/tf_bottleneck_csp_1/sequential_3/tf_bottleneck_11/tf_conv_29/conv2d_33/Conv2D/ReadVariableOp", "op": "Const", "attr": {"dtype": {"type": "DT_FLOAT"}, "value": {"tensor": {"dtype": "DT_FLOAT", "tensorShape": {"dim": [{"size": "1"}, {"size": "1"}, {"size": "160"}, {"size": "160"}]}}}}}, {"name": "model/tf_bottleneck_csp_1/sequential_3/tf_bottleneck_11/tf_conv_29/conv2d_33/BiasAdd/ReadVariableOp", "op": "Const", "attr": {"value": {"tensor": {"dtype": "DT_FLOAT", "tensorShape": {"dim": [{"size": "160"}]}}}, "dtype": {"type": "DT_FLOAT"}}}, {"name": "model/tf_bottleneck_csp_1/sequential_3/tf_bottleneck_11/tf_conv_30/conv2d_34/Conv2D/ReadVariableOp", "op": "Const", "attr": {"dtype": {"type": "DT_FLOAT"}, "value": {"tensor": {"dtype": "DT_FLOAT", "tensorShape": {"dim": [{"size": "3"}, {"size": "3"}, {"size": "160"}, {"size": "160"}]}}}}}, {"name": "model/tf_bottleneck_csp_1/sequential_3/tf_bottleneck_11/tf_conv_30/conv2d_34/BiasAdd/ReadVariableOp", "op": "Const", "attr": {"dtype": {"type": "DT_FLOAT"}, "value": {"tensor": {"dtype": "DT_FLOAT", "tensorShape": {"dim": [{"size": "160"}]}}}}}, {"name": "model/tf_bottleneck_csp_1/sequential_3/tf_bottleneck_12/tf_conv_31/conv2d_35/Conv2D/ReadVariableOp", "op": "Const", "attr": {"dtype": {"type": "DT_FLOAT"}, "value": {"tensor": {"dtype": "DT_FLOAT", "tensorShape": {"dim": [{"size": "1"}, {"size": "1"}, {"size": "160"}, {"size": "160"}]}}}}}, {"name": "model/tf_bottleneck_csp_1/sequential_3/tf_bottleneck_12/tf_conv_31/conv2d_35/BiasAdd/ReadVariableOp", "op": "Const", "attr": {"dtype": {"type": "DT_FLOAT"}, "value": {"tensor": {"dtype": "DT_FLOAT", "tensorShape": {"dim": [{"size": "160"}]}}}}}, {"name": "model/tf_bottleneck_csp_1/sequential_3/tf_bottleneck_12/tf_conv_32/conv2d_36/Conv2D/ReadVariableOp", "op": "Const", "attr": {"dtype": {"type": "DT_FLOAT"}, "value": {"tensor": {"dtype": "DT_FLOAT", "tensorShape": {"dim": [{"size": "3"}, {"size": "3"}, {"size": "160"}, {"size": "160"}]}}}}}, {"name": "model/tf_bottleneck_csp_1/sequential_3/tf_bottleneck_12/tf_conv_32/conv2d_36/BiasAdd/ReadVariableOp", "op": "Const", "attr": {"dtype": {"type": "DT_FLOAT"}, "value": {"tensor": {"dtype": "DT_FLOAT", "tensorShape": {"dim": [{"size": "160"}]}}}}}, {"name": "model/tf_bottleneck_csp_1/sequential_3/tf_bottleneck_13/tf_conv_33/conv2d_37/Conv2D/ReadVariableOp", "op": "Const", "attr": {"dtype": {"type": "DT_FLOAT"}, "value": {"tensor": {"dtype": "DT_FLOAT", "tensorShape": {"dim": [{"size": "1"}, {"size": "1"}, {"size": "160"}, {"size": "160"}]}}}}}, {"name": "model/tf_bottleneck_csp_1/sequential_3/tf_bottleneck_13/tf_conv_33/conv2d_37/BiasAdd/ReadVariableOp", "op": "Const", "attr": {"value": {"tensor": {"dtype": "DT_FLOAT", "tensorShape": {"dim": [{"size": "160"}]}}}, "dtype": {"type": "DT_FLOAT"}}}, {"name": "model/tf_bottleneck_csp_1/sequential_3/tf_bottleneck_13/tf_conv_34/conv2d_38/Conv2D/ReadVariableOp", "op": "Const", "attr": {"dtype": {"type": "DT_FLOAT"}, "value": {"tensor": {"dtype": "DT_FLOAT", "tensorShape": {"dim": [{"size": "3"}, {"size": "3"}, {"size": "160"}, {"size": "160"}]}}}}}, {"name": "model/tf_bottleneck_csp_1/sequential_3/tf_bottleneck_13/tf_conv_34/conv2d_38/BiasAdd/ReadVariableOp", "op": "Const", "attr": {"value": {"tensor": {"dtype": "DT_FLOAT", "tensorShape": {"dim": [{"size": "160"}]}}}, "dtype": {"type": "DT_FLOAT"}}}, {"name": "model/tf_bottleneck_csp_1/sequential_3/tf_bottleneck_14/tf_conv_35/conv2d_39/Conv2D/ReadVariableOp", "op": "Const", "attr": {"dtype": {"type": "DT_FLOAT"}, "value": {"tensor": {"dtype": "DT_FLOAT", "tensorShape": {"dim": [{"size": "1"}, {"size": "1"}, {"size": "160"}, {"size": "160"}]}}}}}, {"name": "model/tf_bottleneck_csp_1/sequential_3/tf_bottleneck_14/tf_conv_35/conv2d_39/BiasAdd/ReadVariableOp", "op": "Const", "attr": {"value": {"tensor": {"dtype": "DT_FLOAT", "tensorShape": {"dim": [{"size": "160"}]}}}, "dtype": {"type": "DT_FLOAT"}}}, {"name": "model/tf_bottleneck_csp_1/sequential_3/tf_bottleneck_14/tf_conv_36/conv2d_40/Conv2D/ReadVariableOp", "op": "Const", "attr": {"dtype": {"type": "DT_FLOAT"}, "value": {"tensor": {"dtype": "DT_FLOAT", "tensorShape": {"dim": [{"size": "3"}, {"size": "3"}, {"size": "160"}, {"size": "160"}]}}}}}, {"name": "model/tf_bottleneck_csp_1/sequential_3/tf_bottleneck_14/tf_conv_36/conv2d_40/BiasAdd/ReadVariableOp", "op": "Const", "attr": {"value": {"tensor": {"dtype": "DT_FLOAT", "tensorShape": {"dim": [{"size": "160"}]}}}, "dtype": {"type": "DT_FLOAT"}}}, {"name": "model/tf_bottleneck_csp_1/sequential_3/tf_bottleneck_15/tf_conv_37/conv2d_41/Conv2D/ReadVariableOp", "op": "Const", "attr": {"dtype": {"type": "DT_FLOAT"}, "value": {"tensor": {"dtype": "DT_FLOAT", "tensorShape": {"dim": [{"size": "1"}, {"size": "1"}, {"size": "160"}, {"size": "160"}]}}}}}, {"name": "model/tf_bottleneck_csp_1/sequential_3/tf_bottleneck_15/tf_conv_37/conv2d_41/BiasAdd/ReadVariableOp", "op": "Const", "attr": {"dtype": {"type": "DT_FLOAT"}, "value": {"tensor": {"dtype": "DT_FLOAT", "tensorShape": {"dim": [{"size": "160"}]}}}}}, {"name": "model/tf_bottleneck_csp_1/sequential_3/tf_bottleneck_15/tf_conv_38/conv2d_42/Conv2D/ReadVariableOp", "op": "Const", "attr": {"value": {"tensor": {"dtype": "DT_FLOAT", "tensorShape": {"dim": [{"size": "3"}, {"size": "3"}, {"size": "160"}, {"size": "160"}]}}}, "dtype": {"type": "DT_FLOAT"}}}, {"name": "model/tf_bottleneck_csp_1/sequential_3/tf_bottleneck_15/tf_conv_38/conv2d_42/BiasAdd/ReadVariableOp", "op": "Const", "attr": {"value": {"tensor": {"dtype": "DT_FLOAT", "tensorShape": {"dim": [{"size": "160"}]}}}, "dtype": {"type": "DT_FLOAT"}}}, {"name": "model/tf_bottleneck_csp_1/tf_conv2d_3/conv2d_17/Conv2D/ReadVariableOp", "op": "Const", "attr": {"value": {"tensor": {"dtype": "DT_FLOAT", "tensorShape": {"dim": [{"size": "1"}, {"size": "1"}, {"size": "160"}, {"size": "160"}]}}}, "dtype": {"type": "DT_FLOAT"}}}, {"name": "model/tf_bottleneck_csp/tf_conv_2/conv2d_2/Conv2D/ReadVariableOp", "op": "Const", "attr": {"dtype": {"type": "DT_FLOAT"}, "value": {"tensor": {"dtype": "DT_FLOAT", "tensorShape": {"dim": [{"size": "1"}, {"size": "1"}, {"size": "160"}, {"size": "80"}]}}}}}, {"name": "model/tf_bottleneck_csp/tf_conv_2/conv2d_2/BiasAdd/ReadVariableOp", "op": "Const", "attr": {"dtype": {"type": "DT_FLOAT"}, "value": {"tensor": {"dtype": "DT_FLOAT", "tensorShape": {"dim": [{"size": "80"}]}}}}}, {"name": "model/tf_bottleneck_csp/sequential_1/tf_bottleneck/tf_conv_4/conv2d_6/Conv2D/ReadVariableOp", "op": "Const", "attr": {"value": {"tensor": {"dtype": "DT_FLOAT", "tensorShape": {"dim": [{"size": "1"}, {"size": "1"}, {"size": "80"}, {"size": "80"}]}}}, "dtype": {"type": "DT_FLOAT"}}}, {"name": "model/tf_bottleneck_csp/sequential_1/tf_bottleneck/tf_conv_4/conv2d_6/BiasAdd/ReadVariableOp", "op": "Const", "attr": {"value": {"tensor": {"dtype": "DT_FLOAT", "tensorShape": {"dim": [{"size": "80"}]}}}, "dtype": {"type": "DT_FLOAT"}}}, {"name": "model/tf_bottleneck_csp/sequential_1/tf_bottleneck/tf_conv_5/conv2d_7/Conv2D/ReadVariableOp", "op": "Const", "attr": {"dtype": {"type": "DT_FLOAT"}, "value": {"tensor": {"dtype": "DT_FLOAT", "tensorShape": {"dim": [{"size": "3"}, {"size": "3"}, {"size": "80"}, {"size": "80"}]}}}}}, {"name": "model/tf_bottleneck_csp/sequential_1/tf_bottleneck/tf_conv_5/conv2d_7/BiasAdd/ReadVariableOp", "op": "Const", "attr": {"dtype": {"type": "DT_FLOAT"}, "value": {"tensor": {"dtype": "DT_FLOAT", "tensorShape": {"dim": [{"size": "80"}]}}}}}, {"name": "model/tf_bottleneck_csp/sequential_1/tf_bottleneck_1/tf_conv_6/conv2d_8/Conv2D/ReadVariableOp", "op": "Const", "attr": {"value": {"tensor": {"dtype": "DT_FLOAT", "tensorShape": {"dim": [{"size": "1"}, {"size": "1"}, {"size": "80"}, {"size": "80"}]}}}, "dtype": {"type": "DT_FLOAT"}}}, {"name": "model/tf_bottleneck_csp/sequential_1/tf_bottleneck_1/tf_conv_6/conv2d_8/BiasAdd/ReadVariableOp", "op": "Const", "attr": {"value": {"tensor": {"dtype": "DT_FLOAT", "tensorShape": {"dim": [{"size": "80"}]}}}, "dtype": {"type": "DT_FLOAT"}}}, {"name": "model/tf_bottleneck_csp/sequential_1/tf_bottleneck_1/tf_conv_7/conv2d_9/Conv2D/ReadVariableOp", "op": "Const", "attr": {"value": {"tensor": {"dtype": "DT_FLOAT", "tensorShape": {"dim": [{"size": "3"}, {"size": "3"}, {"size": "80"}, {"size": "80"}]}}}, "dtype": {"type": "DT_FLOAT"}}}, {"name": "model/tf_bottleneck_csp/sequential_1/tf_bottleneck_1/tf_conv_7/conv2d_9/BiasAdd/ReadVariableOp", "op": "Const", "attr": {"dtype": {"type": "DT_FLOAT"}, "value": {"tensor": {"dtype": "DT_FLOAT", "tensorShape": {"dim": [{"size": "80"}]}}}}}, {"name": "model/tf_bottleneck_csp/sequential_1/tf_bottleneck_2/tf_conv_8/conv2d_10/Conv2D/ReadVariableOp", "op": "Const", "attr": {"value": {"tensor": {"dtype": "DT_FLOAT", "tensorShape": {"dim": [{"size": "1"}, {"size": "1"}, {"size": "80"}, {"size": "80"}]}}}, "dtype": {"type": "DT_FLOAT"}}}, {"name": "model/tf_bottleneck_csp/sequential_1/tf_bottleneck_2/tf_conv_8/conv2d_10/BiasAdd/ReadVariableOp", "op": "Const", "attr": {"dtype": {"type": "DT_FLOAT"}, "value": {"tensor": {"dtype": "DT_FLOAT", "tensorShape": {"dim": [{"size": "80"}]}}}}}, {"name": "model/tf_bottleneck_csp/sequential_1/tf_bottleneck_2/tf_conv_9/conv2d_11/Conv2D/ReadVariableOp", "op": "Const", "attr": {"value": {"tensor": {"dtype": "DT_FLOAT", "tensorShape": {"dim": [{"size": "3"}, {"size": "3"}, {"size": "80"}, {"size": "80"}]}}}, "dtype": {"type": "DT_FLOAT"}}}, {"name": "model/tf_bottleneck_csp/sequential_1/tf_bottleneck_2/tf_conv_9/conv2d_11/BiasAdd/ReadVariableOp", "op": "Const", "attr": {"value": {"tensor": {"dtype": "DT_FLOAT", "tensorShape": {"dim": [{"size": "80"}]}}}, "dtype": {"type": "DT_FLOAT"}}}, {"name": "model/tf_bottleneck_csp/sequential_1/tf_bottleneck_3/tf_conv_10/conv2d_12/Conv2D/ReadVariableOp", "op": "Const", "attr": {"dtype": {"type": "DT_FLOAT"}, "value": {"tensor": {"dtype": "DT_FLOAT", "tensorShape": {"dim": [{"size": "1"}, {"size": "1"}, {"size": "80"}, {"size": "80"}]}}}}}, {"name": "model/tf_bottleneck_csp/sequential_1/tf_bottleneck_3/tf_conv_10/conv2d_12/BiasAdd/ReadVariableOp", "op": "Const", "attr": {"dtype": {"type": "DT_FLOAT"}, "value": {"tensor": {"dtype": "DT_FLOAT", "tensorShape": {"dim": [{"size": "80"}]}}}}}, {"name": "model/tf_bottleneck_csp/sequential_1/tf_bottleneck_3/tf_conv_11/conv2d_13/Conv2D/ReadVariableOp", "op": "Const", "attr": {"value": {"tensor": {"dtype": "DT_FLOAT", "tensorShape": {"dim": [{"size": "3"}, {"size": "3"}, {"size": "80"}, {"size": "80"}]}}}, "dtype": {"type": "DT_FLOAT"}}}, {"name": "model/tf_bottleneck_csp/sequential_1/tf_bottleneck_3/tf_conv_11/conv2d_13/BiasAdd/ReadVariableOp", "op": "Const", "attr": {"dtype": {"type": "DT_FLOAT"}, "value": {"tensor": {"dtype": "DT_FLOAT", "tensorShape": {"dim": [{"size": "80"}]}}}}}, {"name": "model/tf_bottleneck_csp/tf_conv2d_1/conv2d_4/Conv2D/ReadVariableOp", "op": "Const", "attr": {"dtype": {"type": "DT_FLOAT"}, "value": {"tensor": {"dtype": "DT_FLOAT", "tensorShape": {"dim": [{"size": "1"}, {"size": "1"}, {"size": "80"}, {"size": "80"}]}}}}}, {"name": "model/tf_focus/strided_slice/stack", "op": "Const", "attr": {"value": {"tensor": {"dtype": "DT_INT32", "tensorShape": {"dim": [{"size": "4"}]}}}, "dtype": {"type": "DT_INT32"}}}, {"name": "model/tf_focus/strided_slice/stack_1", "op": "Const", "attr": {"value": {"tensor": {"dtype": "DT_INT32", "tensorShape": {"dim": [{"size": "4"}]}}}, "dtype": {"type": "DT_INT32"}}}, {"name": "model/tf_focus/strided_slice/stack_2", "op": "Const", "attr": {"dtype": {"type": "DT_INT32"}, "value": {"tensor": {"dtype": "DT_INT32", "tensorShape": {"dim": [{"size": "4"}]}}}}}, {"name": "model/tf_focus/strided_slice_1/stack", "op": "Const", "attr": {"value": {"tensor": {"dtype": "DT_INT32", "tensorShape": {"dim": [{"size": "4"}]}}}, "dtype": {"type": "DT_INT32"}}}, {"name": "model/tf_focus/strided_slice_1/stack_1", "op": "Const", "attr": {"value": {"tensor": {"dtype": "DT_INT32", "tensorShape": {"dim": [{"size": "4"}]}}}, "dtype": {"type": "DT_INT32"}}}, {"name": "model/tf_focus/strided_slice_1/stack_2", "op": "Const", "attr": {"value": {"tensor": {"dtype": "DT_INT32", "tensorShape": {"dim": [{"size": "4"}]}}}, "dtype": {"type": "DT_INT32"}}}, {"name": "model/tf_focus/strided_slice_2/stack", "op": "Const", "attr": {"value": {"tensor": {"dtype": "DT_INT32", "tensorShape": {"dim": [{"size": "4"}]}}}, "dtype": {"type": "DT_INT32"}}}, {"name": "model/tf_focus/strided_slice_2/stack_1", "op": "Const", "attr": {"dtype": {"type": "DT_INT32"}, "value": {"tensor": {"dtype": "DT_INT32", "tensorShape": {"dim": [{"size": "4"}]}}}}}, {"name": "model/tf_focus/strided_slice_2/stack_2", "op": "Const", "attr": {"dtype": {"type": "DT_INT32"}, "value": {"tensor": {"dtype": "DT_INT32", "tensorShape": {"dim": [{"size": "4"}]}}}}}, {"name": "model/tf_focus/strided_slice_3/stack", "op": "Const", "attr": {"value": {"tensor": {"dtype": "DT_INT32", "tensorShape": {"dim": [{"size": "4"}]}}}, "dtype": {"type": "DT_INT32"}}}, {"name": "model/tf_focus/strided_slice_3/stack_1", "op": "Const", "attr": {"dtype": {"type": "DT_INT32"}, "value": {"tensor": {"dtype": "DT_INT32", "tensorShape": {"dim": [{"size": "4"}]}}}}}, {"name": "model/tf_focus/strided_slice_3/stack_2", "op": "Const", "attr": {"value": {"tensor": {"dtype": "DT_INT32", "tensorShape": {"dim": [{"size": "4"}]}}}, "dtype": {"type": "DT_INT32"}}}, {"name": "model/tf_focus/concat/axis", "op": "Const", "attr": {"dtype": {"type": "DT_INT32"}, "value": {"tensor": {"dtype": "DT_INT32", "tensorShape": {}}}}}, {"name": "model/tf_focus/tf_conv/conv2d/Conv2D/ReadVariableOp", "op": "Const", "attr": {"dtype": {"type": "DT_FLOAT"}, "value": {"tensor": {"dtype": "DT_FLOAT", "tensorShape": {"dim": [{"size": "3"}, {"size": "3"}, {"size": "12"}, {"size": "80"}]}}}}}, {"name": "model/tf_focus/tf_conv/conv2d/BiasAdd/ReadVariableOp", "op": "Const", "attr": {"value": {"tensor": {"dtype": "DT_FLOAT", "tensorShape": {"dim": [{"size": "80"}]}}}, "dtype": {"type": "DT_FLOAT"}}}, {"name": "model/tf_conv_1/sequential/tf_pad/Pad/paddings", "op": "Const", "attr": {"value": {"tensor": {"dtype": "DT_INT32", "tensorShape": {"dim": [{"size": "4"}, {"size": "2"}]}}}, "dtype": {"type": "DT_INT32"}}}, {"name": "model/tf_conv_1/sequential/conv2d_1/Conv2D/ReadVariableOp", "op": "Const", "attr": {"value": {"tensor": {"dtype": "DT_FLOAT", "tensorShape": {"dim": [{"size": "3"}, {"size": "3"}, {"size": "80"}, {"size": "160"}]}}}, "dtype": {"type": "DT_FLOAT"}}}, {"name": "model/tf_conv_1/sequential/conv2d_1/BiasAdd/ReadVariableOp", "op": "Const", "attr": {"dtype": {"type": "DT_FLOAT"}, "value": {"tensor": {"dtype": "DT_FLOAT", "tensorShape": {"dim": [{"size": "160"}]}}}}}, {"name": "model/tf_bottleneck_csp/tf_conv2d/conv2d_3/Conv2D/ReadVariableOp", "op": "Const", "attr": {"dtype": {"type": "DT_FLOAT"}, "value": {"tensor": {"dtype": "DT_FLOAT", "tensorShape": {"dim": [{"size": "1"}, {"size": "1"}, {"size": "160"}, {"size": "80"}]}}}}}, {"name": "model/tf_bottleneck_csp/concat/axis", "op": "Const", "attr": {"value": {"tensor": {"dtype": "DT_INT32", "tensorShape": {}}}, "dtype": {"type": "DT_INT32"}}}, {"name": "model/tf_bottleneck_csp/tf_conv_3/conv2d_5/Conv2D/ReadVariableOp", "op": "Const", "attr": {"value": {"tensor": {"dtype": "DT_FLOAT", "tensorShape": {"dim": [{"size": "1"}, {"size": "1"}, {"size": "160"}, {"size": "160"}]}}}, "dtype": {"type": "DT_FLOAT"}}}, {"name": "model/tf_bottleneck_csp/tf_conv_3/conv2d_5/BiasAdd/ReadVariableOp", "op": "Const", "attr": {"value": {"tensor": {"dtype": "DT_FLOAT", "tensorShape": {"dim": [{"size": "160"}]}}}, "dtype": {"type": "DT_FLOAT"}}}, {"name": "model/tf_conv_12/sequential_2/tf_pad_1/Pad/paddings", "op": "Const", "attr": {"dtype": {"type": "DT_INT32"}, "value": {"tensor": {"dtype": "DT_INT32", "tensorShape": {"dim": [{"size": "4"}, {"size": "2"}]}}}}}, {"name": "model/tf_conv_12/sequential_2/conv2d_14/Conv2D/ReadVariableOp", "op": "Const", "attr": {"dtype": {"type": "DT_FLOAT"}, "value": {"tensor": {"dtype": "DT_FLOAT", "tensorShape": {"dim": [{"size": "3"}, {"size": "3"}, {"size": "160"}, {"size": "320"}]}}}}}, {"name": "model/tf_conv_12/sequential_2/conv2d_14/BiasAdd/ReadVariableOp", "op": "Const", "attr": {"dtype": {"type": "DT_FLOAT"}, "value": {"tensor": {"dtype": "DT_FLOAT", "tensorShape": {"dim": [{"size": "320"}]}}}}}, {"name": "model/tf_bottleneck_csp_1/tf_conv2d_2/conv2d_16/Conv2D/ReadVariableOp", "op": "Const", "attr": {"dtype": {"type": "DT_FLOAT"}, "value": {"tensor": {"dtype": "DT_FLOAT", "tensorShape": {"dim": [{"size": "1"}, {"size": "1"}, {"size": "320"}, {"size": "160"}]}}}}}, {"name": "model/tf_bottleneck_csp_1/concat/axis", "op": "Const", "attr": {"value": {"tensor": {"dtype": "DT_INT32", "tensorShape": {}}}, "dtype": {"type": "DT_INT32"}}}, {"name": "model/tf_bottleneck_csp_1/tf_conv_14/conv2d_18/Conv2D/ReadVariableOp", "op": "Const", "attr": {"dtype": {"type": "DT_FLOAT"}, "value": {"tensor": {"dtype": "DT_FLOAT", "tensorShape": {"dim": [{"size": "1"}, {"size": "1"}, {"size": "320"}, {"size": "320"}]}}}}}, {"name": "model/tf_bottleneck_csp_1/tf_conv_14/conv2d_18/BiasAdd/ReadVariableOp", "op": "Const", "attr": {"dtype": {"type": "DT_FLOAT"}, "value": {"tensor": {"dtype": "DT_FLOAT", "tensorShape": {"dim": [{"size": "320"}]}}}}}, {"name": "model/tf_conv_39/sequential_4/tf_pad_2/Pad/paddings", "op": "Const", "attr": {"dtype": {"type": "DT_INT32"}, "value": {"tensor": {"dtype": "DT_INT32", "tensorShape": {"dim": [{"size": "4"}, {"size": "2"}]}}}}}, {"name": "model/tf_conv_39/sequential_4/conv2d_43/Conv2D/ReadVariableOp", "op": "Const", "attr": {"dtype": {"type": "DT_FLOAT"}, "value": {"tensor": {"dtype": "DT_FLOAT", "tensorShape": {"dim": [{"size": "3"}, {"size": "3"}, {"size": "320"}, {"size": "640"}]}}}}}, {"name": "model/tf_conv_39/sequential_4/conv2d_43/BiasAdd/ReadVariableOp", "op": "Const", "attr": {"value": {"tensor": {"dtype": "DT_FLOAT", "tensorShape": {"dim": [{"size": "640"}]}}}, "dtype": {"type": "DT_FLOAT"}}}, {"name": "model/tf_bottleneck_csp_2/tf_conv2d_4/conv2d_45/Conv2D/ReadVariableOp", "op": "Const", "attr": {"value": {"tensor": {"dtype": "DT_FLOAT", "tensorShape": {"dim": [{"size": "1"}, {"size": "1"}, {"size": "640"}, {"size": "320"}]}}}, "dtype": {"type": "DT_FLOAT"}}}, {"name": "model/tf_bottleneck_csp_2/concat/axis", "op": "Const", "attr": {"value": {"tensor": {"dtype": "DT_INT32", "tensorShape": {}}}, "dtype": {"type": "DT_INT32"}}}, {"name": "model/tf_bottleneck_csp_2/tf_conv_41/conv2d_47/Conv2D/ReadVariableOp", "op": "Const", "attr": {"dtype": {"type": "DT_FLOAT"}, "value": {"tensor": {"dtype": "DT_FLOAT", "tensorShape": {"dim": [{"size": "1"}, {"size": "1"}, {"size": "640"}, {"size": "640"}]}}}}}, {"name": "model/tf_bottleneck_csp_2/tf_conv_41/conv2d_47/BiasAdd/ReadVariableOp", "op": "Const", "attr": {"value": {"tensor": {"dtype": "DT_FLOAT", "tensorShape": {"dim": [{"size": "640"}]}}}, "dtype": {"type": "DT_FLOAT"}}}, {"name": "model/tf_conv_66/sequential_6/tf_pad_3/Pad/paddings", "op": "Const", "attr": {"value": {"tensor": {"dtype": "DT_INT32", "tensorShape": {"dim": [{"size": "4"}, {"size": "2"}]}}}, "dtype": {"type": "DT_INT32"}}}, {"name": "model/tf_conv_66/sequential_6/conv2d_72/Conv2D/ReadVariableOp", "op": "Const", "attr": {"dtype": {"type": "DT_FLOAT"}, "value": {"tensor": {"dtype": "DT_FLOAT", "tensorShape": {"dim": [{"size": "3"}, {"size": "3"}, {"size": "640"}, {"size": "1280"}]}}}}}, {"name": "model/tf_conv_66/sequential_6/conv2d_72/BiasAdd/ReadVariableOp", "op": "Const", "attr": {"dtype": {"type": "DT_FLOAT"}, "value": {"tensor": {"dtype": "DT_FLOAT", "tensorShape": {"dim": [{"size": "1280"}]}}}}}, {"name": "model/tfspp/tf_conv_67/conv2d_73/Conv2D/ReadVariableOp", "op": "Const", "attr": {"dtype": {"type": "DT_FLOAT"}, "value": {"tensor": {"dtype": "DT_FLOAT", "tensorShape": {"dim": [{"size": "1"}, {"size": "1"}, {"size": "1280"}, {"size": "640"}]}}}}}, {"name": "model/tfspp/tf_conv_67/conv2d_73/BiasAdd/ReadVariableOp", "op": "Const", "attr": {"value": {"tensor": {"dtype": "DT_FLOAT", "tensorShape": {"dim": [{"size": "640"}]}}}, "dtype": {"type": "DT_FLOAT"}}}, {"name": "model/tfspp/concat/axis", "op": "Const", "attr": {"value": {"tensor": {"dtype": "DT_INT32", "tensorShape": {}}}, "dtype": {"type": "DT_INT32"}}}, {"name": "model/tfspp/tf_conv_68/conv2d_74/Conv2D/ReadVariableOp", "op": "Const", "attr": {"value": {"tensor": {"dtype": "DT_FLOAT", "tensorShape": {"dim": [{"size": "1"}, {"size": "1"}, {"size": "2560"}, {"size": "1280"}]}}}, "dtype": {"type": "DT_FLOAT"}}}, {"name": "model/tfspp/tf_conv_68/conv2d_74/BiasAdd/ReadVariableOp", "op": "Const", "attr": {"value": {"tensor": {"dtype": "DT_FLOAT", "tensorShape": {"dim": [{"size": "1280"}]}}}, "dtype": {"type": "DT_FLOAT"}}}, {"name": "model/tf_bottleneck_csp_3/tf_conv2d_6/conv2d_76/Conv2D/ReadVariableOp", "op": "Const", "attr": {"value": {"tensor": {"dtype": "DT_FLOAT", "tensorShape": {"dim": [{"size": "1"}, {"size": "1"}, {"size": "1280"}, {"size": "640"}]}}}, "dtype": {"type": "DT_FLOAT"}}}, {"name": "model/tf_bottleneck_csp_3/concat/axis", "op": "Const", "attr": {"value": {"tensor": {"dtype": "DT_INT32", "tensorShape": {}}}, "dtype": {"type": "DT_INT32"}}}, {"name": "model/tf_bottleneck_csp_3/tf_conv_70/conv2d_78/Conv2D/ReadVariableOp", "op": "Const", "attr": {"value": {"tensor": {"dtype": "DT_FLOAT", "tensorShape": {"dim": [{"size": "1"}, {"size": "1"}, {"size": "1280"}, {"size": "1280"}]}}}, "dtype": {"type": "DT_FLOAT"}}}, {"name": "model/tf_bottleneck_csp_3/tf_conv_70/conv2d_78/BiasAdd/ReadVariableOp", "op": "Const", "attr": {"dtype": {"type": "DT_FLOAT"}, "value": {"tensor": {"dtype": "DT_FLOAT", "tensorShape": {"dim": [{"size": "1280"}]}}}}}, {"name": "model/tf_conv_79/conv2d_87/Conv2D/ReadVariableOp", "op": "Const", "attr": {"dtype": {"type": "DT_FLOAT"}, "value": {"tensor": {"dtype": "DT_FLOAT", "tensorShape": {"dim": [{"size": "1"}, {"size": "1"}, {"size": "1280"}, {"size": "640"}]}}}}}, {"name": "model/tf_conv_79/conv2d_87/BiasAdd/ReadVariableOp", "op": "Const", "attr": {"value": {"tensor": {"dtype": "DT_FLOAT", "tensorShape": {"dim": [{"size": "640"}]}}}, "dtype": {"type": "DT_FLOAT"}}}, {"name": "model/tf_concat_3/concat/axis", "op": "Const", "attr": {"value": {"tensor": {"dtype": "DT_INT32", "tensorShape": {}}}, "dtype": {"type": "DT_INT32"}}}, {"name": "model/tf_bottleneck_csp_7/tf_conv2d_14/conv2d_128/Conv2D/ReadVariableOp", "op": "Const", "attr": {"value": {"tensor": {"dtype": "DT_FLOAT", "tensorShape": {"dim": [{"size": "1"}, {"size": "1"}, {"size": "1280"}, {"size": "640"}]}}}, "dtype": {"type": "DT_FLOAT"}}}, {"name": "model/tf_bottleneck_csp_7/concat/axis", "op": "Const", "attr": {"value": {"tensor": {"dtype": "DT_INT32", "tensorShape": {}}}, "dtype": {"type": "DT_INT32"}}}, {"name": "model/tf_bottleneck_csp_7/tf_conv_114/conv2d_130/Conv2D/ReadVariableOp", "op": "Const", "attr": {"dtype": {"type": "DT_FLOAT"}, "value": {"tensor": {"dtype": "DT_FLOAT", "tensorShape": {"dim": [{"size": "1"}, {"size": "1"}, {"size": "1280"}, {"size": "1280"}]}}}}}, {"name": "model/tf_bottleneck_csp_7/tf_conv_114/conv2d_130/BiasAdd/ReadVariableOp", "op": "Const", "attr": {"value": {"tensor": {"dtype": "DT_FLOAT", "tensorShape": {"dim": [{"size": "1280"}]}}}, "dtype": {"type": "DT_FLOAT"}}}, {"name": "model/tf_detect/tf_conv2d_18/conv2d_141/Conv2D/ReadVariableOp", "op": "Const", "attr": {"value": {"tensor": {"dtype": "DT_FLOAT", "tensorShape": {"dim": [{"size": "1"}, {"size": "1"}, {"size": "1280"}, {"size": "255"}]}}}, "dtype": {"type": "DT_FLOAT"}}}, {"name": "model/tf_detect/tf_conv2d_18/conv2d_141/BiasAdd/ReadVariableOp", "op": "Const", "attr": {"value": {"tensor": {"dtype": "DT_FLOAT", "tensorShape": {"dim": [{"size": "255"}]}}}, "dtype": {"type": "DT_FLOAT"}}}, {"name": "model/tf_detect/Reshape_4/shape_1", "op": "Const", "attr": {"value": {"tensor": {"dtype": "DT_INT32", "tensorShape": {"dim": [{"size": "4"}]}}}, "dtype": {"type": "DT_INT32"}}}, {"name": "model/tf_detect/strided_slice_20/stack", "op": "Const", "attr": {"value": {"tensor": {"dtype": "DT_INT32", "tensorShape": {"dim": [{"size": "2"}]}}}, "dtype": {"type": "DT_INT32"}}}, {"name": "model/tf_detect/strided_slice_20/stack_1", "op": "Const", "attr": {"dtype": {"type": "DT_INT32"}, "value": {"tensor": {"dtype": "DT_INT32", "tensorShape": {"dim": [{"size": "2"}]}}}}}, {"name": "model/tf_detect/strided_slice_20/stack_2", "op": "Const", "attr": {"dtype": {"type": "DT_INT32"}, "value": {"tensor": {"dtype": "DT_INT32", "tensorShape": {"dim": [{"size": "2"}]}}}}}, {"name": "model/tf_detect/concat_2/axis", "op": "Const", "attr": {"value": {"tensor": {"dtype": "DT_INT32", "tensorShape": {}}}, "dtype": {"type": "DT_INT32"}}}, {"name": "model/tf_detect/Reshape_5/shape_1", "op": "Const", "attr": {"value": {"tensor": {"dtype": "DT_INT32", "tensorShape": {"dim": [{"size": "3"}]}}}, "dtype": {"type": "DT_INT32"}}}, {"name": "model/tf_detect/concat_3/axis", "op": "Const", "attr": {"value": {"tensor": {"dtype": "DT_INT32", "tensorShape": {}}}, "dtype": {"type": "DT_INT32"}}}, {"name": "model/tf.__operators__.getitem_2/strided_slice/stack", "op": "Const", "attr": {"value": {"tensor": {"dtype": "DT_INT32", "tensorShape": {"dim": [{"size": "3"}]}}}, "dtype": {"type": "DT_INT32"}}}, {"name": "model/tf.__operators__.getitem_2/strided_slice/stack_1", "op": "Const", "attr": {"value": {"tensor": {"dtype": "DT_INT32", "tensorShape": {"dim": [{"size": "3"}]}}}, "dtype": {"type": "DT_INT32"}}}, {"name": "model/tf.__operators__.getitem_2/strided_slice/stack_2", "op": "Const", "attr": {"dtype": {"type": "DT_INT32"}, "value": {"tensor": {"dtype": "DT_INT32", "tensorShape": {"dim": [{"size": "3"}]}}}}}, {"name": "model/agnostic_nms_1/agnostic_nms/TensorArrayUnstack_2/TensorListFromTensor/element_shape", "op": "Const", "attr": {"value": {"tensor": {"dtype": "DT_INT32", "tensorShape": {"dim": [{"size": "2"}]}}}, "dtype": {"type": "DT_INT32"}}}, {"name": "model/agnostic_nms_1/agnostic_nms/while/maximum_iterations", "op": "Const", "attr": {"value": {"tensor": {"dtype": "DT_INT32", "tensorShape": {}}}, "dtype": {"type": "DT_INT32"}}}, {"name": "model/agnostic_nms_1/agnostic_nms/Const", "op": "Const", "attr": {"value": {"tensor": {"dtype": "DT_INT32", "tensorShape": {}}}, "dtype": {"type": "DT_INT32"}}}, {"name": "model/agnostic_nms_1/agnostic_nms/while/loop_counter", "op": "Const", "attr": {"value": {"tensor": {"dtype": "DT_INT32", "tensorShape": {}}}, "dtype": {"type": "DT_INT32"}}}, {"name": "model/agnostic_nms_1/agnostic_nms/TensorArrayV2Stack_3/Const", "op": "Const", "attr": {"value": {"tensor": {"dtype": "DT_INT32", "tensorShape": {"dim": [{}]}}}, "dtype": {"type": "DT_INT32"}}}, {"name": "x", "op": "Placeholder", "attr": {"shape": {"shape": {"dim": [{"size": "1"}, {"size": "640"}, {"size": "640"}, {"size": "3"}]}}, "dtype": {"type": "DT_FLOAT"}}}, {"name": "model/tf_bottleneck_csp_6/tfbn_6/batch_normalization_6/FusedBatchNormV3/Scaled", "op": "Const", "attr": {"dtype": {"type": "DT_FLOAT"}, "value": {"tensor": {"dtype": "DT_FLOAT", "tensorShape": {"dim": [{"size": "640"}]}}}}}, {"name": "model/tf_bottleneck_csp_6/tfbn_6/batch_normalization_6/FusedBatchNormV3/Offset", "op": "Const", "attr": {"value": {"tensor": {"dtype": "DT_FLOAT", "tensorShape": {"dim": [{"size": "640"}]}}}, "dtype": {"type": "DT_FLOAT"}}}, {"name": "model/tf_bottleneck_csp_5/tfbn_5/batch_normalization_5/FusedBatchNormV3/Scaled", "op": "Const", "attr": {"value": {"tensor": {"dtype": "DT_FLOAT", "tensorShape": {"dim": [{"size": "320"}]}}}, "dtype": {"type": "DT_FLOAT"}}}, {"name": "model/tf_bottleneck_csp_5/tfbn_5/batch_normalization_5/FusedBatchNormV3/Offset", "op": "Const", "attr": {"value": {"tensor": {"dtype": "DT_FLOAT", "tensorShape": {"dim": [{"size": "320"}]}}}, "dtype": {"type": "DT_FLOAT"}}}, {"name": "model/tf_bottleneck_csp_4/tfbn_4/batch_normalization_4/FusedBatchNormV3/Scaled", "op": "Const", "attr": {"value": {"tensor": {"dtype": "DT_FLOAT", "tensorShape": {"dim": [{"size": "640"}]}}}, "dtype": {"type": "DT_FLOAT"}}}, {"name": "model/tf_bottleneck_csp_4/tfbn_4/batch_normalization_4/FusedBatchNormV3/Offset", "op": "Const", "attr": {"value": {"tensor": {"dtype": "DT_FLOAT", "tensorShape": {"dim": [{"size": "640"}]}}}, "dtype": {"type": "DT_FLOAT"}}}, {"name": "model/tf_bottleneck_csp_3/tfbn_3/batch_normalization_3/FusedBatchNormV3/Scaled", "op": "Const", "attr": {"value": {"tensor": {"dtype": "DT_FLOAT", "tensorShape": {"dim": [{"size": "1280"}]}}}, "dtype": {"type": "DT_FLOAT"}}}, {"name": "model/tf_bottleneck_csp_3/tfbn_3/batch_normalization_3/FusedBatchNormV3/Offset", "op": "Const", "attr": {"dtype": {"type": "DT_FLOAT"}, "value": {"tensor": {"dtype": "DT_FLOAT", "tensorShape": {"dim": [{"size": "1280"}]}}}}}, {"name": "model/tf_bottleneck_csp_2/tfbn_2/batch_normalization_2/FusedBatchNormV3/Scaled", "op": "Const", "attr": {"value": {"tensor": {"dtype": "DT_FLOAT", "tensorShape": {"dim": [{"size": "640"}]}}}, "dtype": {"type": "DT_FLOAT"}}}, {"name": "model/tf_bottleneck_csp_2/tfbn_2/batch_normalization_2/FusedBatchNormV3/Offset", "op": "Const", "attr": {"value": {"tensor": {"dtype": "DT_FLOAT", "tensorShape": {"dim": [{"size": "640"}]}}}, "dtype": {"type": "DT_FLOAT"}}}, {"name": "model/tf_bottleneck_csp_1/tfbn_1/batch_normalization_1/FusedBatchNormV3/Scaled", "op": "Const", "attr": {"dtype": {"type": "DT_FLOAT"}, "value": {"tensor": {"dtype": "DT_FLOAT", "tensorShape": {"dim": [{"size": "320"}]}}}}}, {"name": "model/tf_bottleneck_csp_1/tfbn_1/batch_normalization_1/FusedBatchNormV3/Offset", "op": "Const", "attr": {"value": {"tensor": {"dtype": "DT_FLOAT", "tensorShape": {"dim": [{"size": "320"}]}}}, "dtype": {"type": "DT_FLOAT"}}}, {"name": "model/tf_bottleneck_csp/tfbn/batch_normalization/FusedBatchNormV3/Scaled", "op": "Const", "attr": {"dtype": {"type": "DT_FLOAT"}, "value": {"tensor": {"dtype": "DT_FLOAT", "tensorShape": {"dim": [{"size": "160"}]}}}}}, {"name": "model/tf_bottleneck_csp/tfbn/batch_normalization/FusedBatchNormV3/Offset", "op": "Const", "attr": {"dtype": {"type": "DT_FLOAT"}, "value": {"tensor": {"dtype": "DT_FLOAT", "tensorShape": {"dim": [{"size": "160"}]}}}}}, {"name": "model/tf_bottleneck_csp_7/tfbn_7/batch_normalization_7/FusedBatchNormV3/Scaled", "op": "Const", "attr": {"dtype": {"type": "DT_FLOAT"}, "value": {"tensor": {"dtype": "DT_FLOAT", "tensorShape": {"dim": [{"size": "1280"}]}}}}}, {"name": "model/tf_bottleneck_csp_7/tfbn_7/batch_normalization_7/FusedBatchNormV3/Offset", "op": "Const", "attr": {"value": {"tensor": {"dtype": "DT_FLOAT", "tensorShape": {"dim": [{"size": "1280"}]}}}, "dtype": {"type": "DT_FLOAT"}}}, {"name": "model/agnostic_nms_1/agnostic_nms/TensorArrayV2_3", "op": "TensorListReserve", "input": ["model/agnostic_nms_1/agnostic_nms/TensorArrayV2_3/element_shape", "model/agnostic_nms_1/agnostic_nms/TensorArrayV2_3/num_elements"], "attr": {"element_dtype": {"type": "DT_FLOAT"}, "shape_type": {"type": "DT_INT32"}}, "experimentalType": {"typeId": "TFT_PRODUCT", "args": [{"typeId": "TFT_ARRAY", "args": [{"typeId": "TFT_TENSOR", "args": [{"typeId": "TFT_FLOAT"}]}]}, {"typeId": "TFT_ARRAY", "args": [{"typeId": "TFT_TENSOR", "args": [{"typeId": "TFT_FLOAT"}]}]}]}}, {"name": "model/agnostic_nms_1/agnostic_nms/TensorArrayV2_4", "op": "TensorListReserve", "input": ["model/agnostic_nms_1/agnostic_nms/TensorArrayV2_4/element_shape", "model/agnostic_nms_1/agnostic_nms/TensorArrayV2_4/num_elements"], "attr": {"element_dtype": {"type": "DT_FLOAT"}, "shape_type": {"type": "DT_INT32"}}, "experimentalType": {"typeId": "TFT_PRODUCT", "args": [{"typeId": "TFT_ARRAY", "args": [{"typeId": "TFT_TENSOR", "args": [{"typeId": "TFT_FLOAT"}]}]}, {"typeId": "TFT_ARRAY", "args": [{"typeId": "TFT_TENSOR", "args": [{"typeId": "TFT_FLOAT"}]}]}]}}, {"name": "model/agnostic_nms_1/agnostic_nms/TensorArrayV2_5", "op": "TensorListReserve", "input": ["model/agnostic_nms_1/agnostic_nms/TensorArrayV2_5/element_shape", "model/agnostic_nms_1/agnostic_nms/TensorArrayV2_5/num_elements"], "attr": {"element_dtype": {"type": "DT_FLOAT"}, "shape_type": {"type": "DT_INT32"}}, "experimentalType": {"typeId": "TFT_PRODUCT", "args": [{"typeId": "TFT_ARRAY", "args": [{"typeId": "TFT_TENSOR", "args": [{"typeId": "TFT_FLOAT"}]}]}, {"typeId": "TFT_ARRAY", "args": [{"typeId": "TFT_TENSOR", "args": [{"typeId": "TFT_FLOAT"}]}]}]}}, {"name": "model/agnostic_nms_1/agnostic_nms/TensorArrayV2_6", "op": "TensorListReserve", "input": ["model/agnostic_nms_1/agnostic_nms/TensorArrayV2_6/element_shape", "model/agnostic_nms_1/agnostic_nms/TensorArrayV2_6/num_elements"], "attr": {"shape_type": {"type": "DT_INT32"}, "element_dtype": {"type": "DT_INT32"}}, "experimentalType": {"typeId": "TFT_PRODUCT", "args": [{"typeId": "TFT_ARRAY", "args": [{"typeId": "TFT_TENSOR", "args": [{"typeId": "TFT_INT32"}]}]}, {"typeId": "TFT_ARRAY", "args": [{"typeId": "TFT_TENSOR", "args": [{"typeId": "TFT_INT32"}]}]}]}}, {"name": "model/agnostic_nms_1/agnostic_nms/while/enter/_3", "op": "Enter", "input": ["model/agnostic_nms_1/agnostic_nms/while/maximum_iterations"], "attr": {"frame_name": {"s": "bW9kZWwvYWdub3N0aWNfbm1zXzEvYWdub3N0aWNfbm1zL3doaWxl"}, "parallel_iterations": {"i": "10"}, "is_constant": {"b": false}, "T": {"type": "DT_INT32"}}}, {"name": "model/agnostic_nms_1/agnostic_nms/while/enter/_4", "op": "Enter", "input": ["model/agnostic_nms_1/agnostic_nms/Const"], "attr": {"T": {"type": "DT_INT32"}, "parallel_iterations": {"i": "10"}, "frame_name": {"s": "bW9kZWwvYWdub3N0aWNfbm1zXzEvYWdub3N0aWNfbm1zL3doaWxl"}, "is_constant": {"b": false}}}, {"name": "model/agnostic_nms_1/agnostic_nms/while/enter/_2", "op": "Enter", "input": ["model/agnostic_nms_1/agnostic_nms/while/loop_counter"], "attr": {"parallel_iterations": {"i": "10"}, "is_constant": {"b": false}, "T": {"type": "DT_INT32"}, "frame_name": {"s": "bW9kZWwvYWdub3N0aWNfbm1zXzEvYWdub3N0aWNfbm1zL3doaWxl"}}}, {"name": "model/tf_focus/strided_slice", "op": "StridedSlice", "input": ["x", "model/tf_focus/strided_slice/stack", "model/tf_focus/strided_slice/stack_1", "model/tf_focus/strided_slice/stack_2"], "attr": {"new_axis_mask": {"i": "0"}, "ellipsis_mask": {"i": "0"}, "begin_mask": {"i": "15"}, "end_mask": {"i": "15"}, "T": {"type": "DT_FLOAT"}, "Index": {"type": "DT_INT32"}, "shrink_axis_mask": {"i": "0"}}}, {"name": "model/tf_focus/strided_slice_1", "op": "StridedSlice", "input": ["x", "model/tf_focus/strided_slice_1/stack", "model/tf_focus/strided_slice_1/stack_1", "model/tf_focus/strided_slice_1/stack_2"], "attr": {"Index": {"type": "DT_INT32"}, "ellipsis_mask": {"i": "0"}, "new_axis_mask": {"i": "0"}, "T": {"type": "DT_FLOAT"}, "begin_mask": {"i": "13"}, "shrink_axis_mask": {"i": "0"}, "end_mask": {"i": "15"}}}, {"name": "model/tf_focus/strided_slice_2", "op": "StridedSlice", "input": ["x", "model/tf_focus/strided_slice_2/stack", "model/tf_focus/strided_slice_2/stack_1", "model/tf_focus/strided_slice_2/stack_2"], "attr": {"new_axis_mask": {"i": "0"}, "T": {"type": "DT_FLOAT"}, "shrink_axis_mask": {"i": "0"}, "end_mask": {"i": "15"}, "Index": {"type": "DT_INT32"}, "begin_mask": {"i": "11"}, "ellipsis_mask": {"i": "0"}}}, {"name": "model/tf_focus/strided_slice_3", "op": "StridedSlice", "input": ["x", "model/tf_focus/strided_slice_3/stack", "model/tf_focus/strided_slice_3/stack_1", "model/tf_focus/strided_slice_3/stack_2"], "attr": {"new_axis_mask": {"i": "0"}, "end_mask": {"i": "15"}, "shrink_axis_mask": {"i": "0"}, "T": {"type": "DT_FLOAT"}, "Index": {"type": "DT_INT32"}, "begin_mask": {"i": "9"}, "ellipsis_mask": {"i": "0"}}}, {"name": "model/agnostic_nms_1/agnostic_nms/while/enter/_5", "op": "Enter", "input": ["model/agnostic_nms_1/agnostic_nms/TensorArrayV2_3"], "attr": {"frame_name": {"s": "bW9kZWwvYWdub3N0aWNfbm1zXzEvYWdub3N0aWNfbm1zL3doaWxl"}, "parallel_iterations": {"i": "10"}, "is_constant": {"b": false}, "T": {"type": "DT_VARIANT"}}, "experimentalType": {"typeId": "TFT_PRODUCT", "args": [{"typeId": "TFT_ARRAY", "args": [{"typeId": "TFT_TENSOR", "args": [{"typeId": "TFT_FLOAT"}]}]}]}}, {"name": "model/agnostic_nms_1/agnostic_nms/while/enter/_6", "op": "Enter", "input": ["model/agnostic_nms_1/agnostic_nms/TensorArrayV2_4"], "attr": {"frame_name": {"s": "bW9kZWwvYWdub3N0aWNfbm1zXzEvYWdub3N0aWNfbm1zL3doaWxl"}, "is_constant": {"b": false}, "parallel_iterations": {"i": "10"}, "T": {"type": "DT_VARIANT"}}, "experimentalType": {"typeId": "TFT_PRODUCT", "args": [{"typeId": "TFT_ARRAY", "args": [{"typeId": "TFT_TENSOR", "args": [{"typeId": "TFT_FLOAT"}]}]}]}}, {"name": "model/agnostic_nms_1/agnostic_nms/while/enter/_7", "op": "Enter", "input": ["model/agnostic_nms_1/agnostic_nms/TensorArrayV2_5"], "attr": {"parallel_iterations": {"i": "10"}, "is_constant": {"b": false}, "T": {"type": "DT_VARIANT"}, "frame_name": {"s": "bW9kZWwvYWdub3N0aWNfbm1zXzEvYWdub3N0aWNfbm1zL3doaWxl"}}, "experimentalType": {"typeId": "TFT_PRODUCT", "args": [{"typeId": "TFT_ARRAY", "args": [{"typeId": "TFT_TENSOR", "args": [{"typeId": "TFT_FLOAT"}]}]}]}}, {"name": "model/agnostic_nms_1/agnostic_nms/while/enter/_8", "op": "Enter", "input": ["model/agnostic_nms_1/agnostic_nms/TensorArrayV2_6"], "attr": {"is_constant": {"b": false}, "T": {"type": "DT_VARIANT"}, "frame_name": {"s": "bW9kZWwvYWdub3N0aWNfbm1zXzEvYWdub3N0aWNfbm1zL3doaWxl"}, "parallel_iterations": {"i": "10"}}, "experimentalType": {"typeId": "TFT_PRODUCT", "args": [{"typeId": "TFT_ARRAY", "args": [{"typeId": "TFT_TENSOR", "args": [{"typeId": "TFT_INT32"}]}]}]}}, {"name": "model/agnostic_nms_1/agnostic_nms/while/merge/_13", "op": "Merge", "input": ["model/agnostic_nms_1/agnostic_nms/while/enter/_3", "model/agnostic_nms_1/agnostic_nms/while/next_iteration/_46"], "attr": {"N": {"i": "2"}, "T": {"type": "DT_INT32"}}}, {"name": "model/agnostic_nms_1/agnostic_nms/while/merge/_14", "op": "Merge", "input": ["model/agnostic_nms_1/agnostic_nms/while/enter/_4", "model/agnostic_nms_1/agnostic_nms/while/next_iteration/_47"], "attr": {"N": {"i": "2"}, "T": {"type": "DT_INT32"}}}, {"name": "model/agnostic_nms_1/agnostic_nms/while/merge/_12", "op": "Merge", "input": ["model/agnostic_nms_1/agnostic_nms/while/enter/_2", "model/agnostic_nms_1/agnostic_nms/while/next_iteration/_45"], "attr": {"T": {"type": "DT_INT32"}, "N": {"i": "2"}}}, {"name": "model/tf_focus/concat", "op": "ConcatV2", "input": ["model/tf_focus/strided_slice", "model/tf_focus/strided_slice_1", "model/tf_focus/strided_slice_2", "model/tf_focus/strided_slice_3", "model/tf_focus/concat/axis"], "attr": {"N": {"i": "4"}, "T": {"type": "DT_FLOAT"}, "Tidx": {"type": "DT_INT32"}}}, {"name": "model/agnostic_nms_1/agnostic_nms/while/merge/_15", "op": "Merge", "input": ["model/agnostic_nms_1/agnostic_nms/while/enter/_5", "model/agnostic_nms_1/agnostic_nms/while/next_iteration/_48"], "attr": {"T": {"type": "DT_VARIANT"}, "N": {"i": "2"}}, "experimentalType": {"typeId": "TFT_PRODUCT", "args": [{"typeId": "TFT_ARRAY", "args": [{"typeId": "TFT_TENSOR", "args": [{"typeId": "TFT_FLOAT"}]}]}]}}, {"name": "model/agnostic_nms_1/agnostic_nms/while/merge/_16", "op": "Merge", "input": ["model/agnostic_nms_1/agnostic_nms/while/enter/_6", "model/agnostic_nms_1/agnostic_nms/while/next_iteration/_49"], "attr": {"N": {"i": "2"}, "T": {"type": "DT_VARIANT"}}, "experimentalType": {"typeId": "TFT_PRODUCT", "args": [{"typeId": "TFT_ARRAY", "args": [{"typeId": "TFT_TENSOR", "args": [{"typeId": "TFT_FLOAT"}]}]}]}}, {"name": "model/agnostic_nms_1/agnostic_nms/while/merge/_17", "op": "Merge", "input": ["model/agnostic_nms_1/agnostic_nms/while/enter/_7", "model/agnostic_nms_1/agnostic_nms/while/next_iteration/_50"], "attr": {"N": {"i": "2"}, "T": {"type": "DT_VARIANT"}}, "experimentalType": {"typeId": "TFT_PRODUCT", "args": [{"typeId": "TFT_ARRAY", "args": [{"typeId": "TFT_TENSOR", "args": [{"typeId": "TFT_FLOAT"}]}]}]}}, {"name": "model/agnostic_nms_1/agnostic_nms/while/merge/_18", "op": "Merge", "input": ["model/agnostic_nms_1/agnostic_nms/while/enter/_8", "model/agnostic_nms_1/agnostic_nms/while/next_iteration/_51"], "attr": {"N": {"i": "2"}, "T": {"type": "DT_VARIANT"}}, "experimentalType": {"typeId": "TFT_PRODUCT", "args": [{"typeId": "TFT_ARRAY", "args": [{"typeId": "TFT_TENSOR", "args": [{"typeId": "TFT_INT32"}]}]}]}}, {"name": "model/agnostic_nms_1/agnostic_nms/while/cond/_0/model/agnostic_nms_1/agnostic_nms/while/Less_1", "op": "Less", "input": ["model/agnostic_nms_1/agnostic_nms/while/merge/_12", "model/agnostic_nms_1/agnostic_nms/while/merge/_13"], "attr": {"T": {"type": "DT_INT32"}}}, {"name": "model/agnostic_nms_1/agnostic_nms/while/cond/_0/model/agnostic_nms_1/agnostic_nms/while/Less/y", "op": "Const", "input": ["^model/agnostic_nms_1/agnostic_nms/while/merge/_12"], "attr": {"value": {"tensor": {"dtype": "DT_INT32", "tensorShape": {}}}, "dtype": {"type": "DT_INT32"}}}, {"name": "model/tf_focus/tf_conv/LeakyRelu", "op": "_FusedConv2D", "input": ["model/tf_focus/concat", "model/tf_focus/tf_conv/conv2d/Conv2D/ReadVariableOp", "model/tf_focus/tf_conv/conv2d/BiasAdd/ReadVariableOp"], "device": "/device:CPU:0", "attr": {"T": {"type": "DT_FLOAT"}, "data_format": {"s": "TkhXQw=="}, "num_args": {"i": "1"}, "fused_ops": {"list": {"s": ["Qmlhc0FkZA==", "TGVha3lSZWx1"]}}, "padding": {"s": "U0FNRQ=="}, "explicit_paddings": {"list": {}}, "epsilon": {"f": 0.0}, "leakyrelu_alpha": {"f": 0.1}, "use_cudnn_on_gpu": {"b": true}, "strides": {"list": {"i": ["1", "1", "1", "1"]}}, "dilations": {"list": {"i": ["1", "1", "1", "1"]}}}}, {"name": "model/agnostic_nms_1/agnostic_nms/while/cond/_0/model/agnostic_nms_1/agnostic_nms/while/Less", "op": "Less", "input": ["model/agnostic_nms_1/agnostic_nms/while/merge/_14", "model/agnostic_nms_1/agnostic_nms/while/cond/_0/model/agnostic_nms_1/agnostic_nms/while/Less/y", "^model/agnostic_nms_1/agnostic_nms/while/merge/_12"], "attr": {"T": {"type": "DT_INT32"}}}, {"name": "model/tf_conv_1/sequential/tf_pad/Pad", "op": "Pad", "input": ["model/tf_focus/tf_conv/LeakyRelu", "model/tf_conv_1/sequential/tf_pad/Pad/paddings"], "attr": {"Tpaddings": {"type": "DT_INT32"}, "T": {"type": "DT_FLOAT"}}}, {"name": "model/agnostic_nms_1/agnostic_nms/while/cond/_0/model/agnostic_nms_1/agnostic_nms/while/LogicalAnd", "op": "LogicalAnd", "input": ["model/agnostic_nms_1/agnostic_nms/while/cond/_0/model/agnostic_nms_1/agnostic_nms/while/Less_1", "model/agnostic_nms_1/agnostic_nms/while/cond/_0/model/agnostic_nms_1/agnostic_nms/while/Less"]}, {"name": "model/tf_conv_1/LeakyRelu", "op": "_FusedConv2D", "input": ["model/tf_conv_1/sequential/tf_pad/Pad", "model/tf_conv_1/sequential/conv2d_1/Conv2D/ReadVariableOp", "model/tf_conv_1/sequential/conv2d_1/BiasAdd/ReadVariableOp"], "device": "/device:CPU:0", "attr": {"leakyrelu_alpha": {"f": 0.1}, "use_cudnn_on_gpu": {"b": true}, "dilations": {"list": {"i": ["1", "1", "1", "1"]}}, "padding": {"s": "VkFMSUQ="}, "strides": {"list": {"i": ["1", "2", "2", "1"]}}, "data_format": {"s": "TkhXQw=="}, "fused_ops": {"list": {"s": ["Qmlhc0FkZA==", "TGVha3lSZWx1"]}}, "num_args": {"i": "1"}, "explicit_paddings": {"list": {}}, "epsilon": {"f": 0.0}, "T": {"type": "DT_FLOAT"}}}, {"name": "model/agnostic_nms_1/agnostic_nms/while/LoopCond/_22", "op": "LoopCond", "input": ["model/agnostic_nms_1/agnostic_nms/while/cond/_0/model/agnostic_nms_1/agnostic_nms/while/LogicalAnd"]}, {"name": "model/tf_bottleneck_csp/tf_conv_2/LeakyRelu", "op": "_FusedConv2D", "input": ["model/tf_conv_1/LeakyRelu", "model/tf_bottleneck_csp/tf_conv_2/conv2d_2/Conv2D/ReadVariableOp", "model/tf_bottleneck_csp/tf_conv_2/conv2d_2/BiasAdd/ReadVariableOp"], "device": "/device:CPU:0", "attr": {"use_cudnn_on_gpu": {"b": true}, "fused_ops": {"list": {"s": ["Qmlhc0FkZA==", "TGVha3lSZWx1"]}}, "data_format": {"s": "TkhXQw=="}, "T": {"type": "DT_FLOAT"}, "explicit_paddings": {"list": {}}, "padding": {"s": "U0FNRQ=="}, "num_args": {"i": "1"}, "dilations": {"list": {"i": ["1", "1", "1", "1"]}}, "leakyrelu_alpha": {"f": 0.1}, "epsilon": {"f": 0.0}, "strides": {"list": {"i": ["1", "1", "1", "1"]}}}}, {"name": "model/tf_bottleneck_csp/tf_conv2d/conv2d_3/Conv2D", "op": "Conv2D", "input": ["model/tf_conv_1/LeakyRelu", "model/tf_bottleneck_csp/tf_conv2d/conv2d_3/Conv2D/ReadVariableOp"], "device": "/device:CPU:0", "attr": {"strides": {"list": {"i": ["1", "1", "1", "1"]}}, "use_cudnn_on_gpu": {"b": true}, "T": {"type": "DT_FLOAT"}, "padding": {"s": "VkFMSUQ="}, "data_format": {"s": "TkhXQw=="}, "explicit_paddings": {"list": {}}, "dilations": {"list": {"i": ["1", "1", "1", "1"]}}}}, {"name": "model/agnostic_nms_1/agnostic_nms/while/model/agnostic_nms_1/agnostic_nms/TensorArrayV2_3_switch/_26", "op": "Switch", "input": ["model/agnostic_nms_1/agnostic_nms/while/merge/_15", "model/agnostic_nms_1/agnostic_nms/while/LoopCond/_22"], "attr": {"T": {"type": "DT_VARIANT"}}}, {"name": "model/agnostic_nms_1/agnostic_nms/while/model/agnostic_nms_1/agnostic_nms/TensorArrayV2_4_switch/_27", "op": "Switch", "input": ["model/agnostic_nms_1/agnostic_nms/while/merge/_16", "model/agnostic_nms_1/agnostic_nms/while/LoopCond/_22"], "attr": {"T": {"type": "DT_VARIANT"}}}, {"name": "model/agnostic_nms_1/agnostic_nms/while/model/agnostic_nms_1/agnostic_nms/TensorArrayV2_5_switch/_28", "op": "Switch", "input": ["model/agnostic_nms_1/agnostic_nms/while/merge/_17", "model/agnostic_nms_1/agnostic_nms/while/LoopCond/_22"], "attr": {"T": {"type": "DT_VARIANT"}}}, {"name": "model/agnostic_nms_1/agnostic_nms/while/model/agnostic_nms_1/agnostic_nms/while/maximum_iterations_switch/_24", "op": "Switch", "input": ["model/agnostic_nms_1/agnostic_nms/while/merge/_13", "model/agnostic_nms_1/agnostic_nms/while/LoopCond/_22"], "attr": {"T": {"type": "DT_INT32"}}}, {"name": "model/agnostic_nms_1/agnostic_nms/while/model/agnostic_nms_1/agnostic_nms/Const_switch/_25", "op": "Switch", "input": ["model/agnostic_nms_1/agnostic_nms/while/merge/_14", "model/agnostic_nms_1/agnostic_nms/while/LoopCond/_22"], "attr": {"T": {"type": "DT_INT32"}}}, {"name": "model/agnostic_nms_1/agnostic_nms/while/model/agnostic_nms_1/agnostic_nms/while/loop_counter_switch/_23", "op": "Switch", "input": ["model/agnostic_nms_1/agnostic_nms/while/merge/_12", "model/agnostic_nms_1/agnostic_nms/while/LoopCond/_22"], "attr": {"T": {"type": "DT_INT32"}}}, {"name": "model/agnostic_nms_1/agnostic_nms/while/model/agnostic_nms_1/agnostic_nms/TensorArrayV2_6_switch/_29", "op": "Switch", "input": ["model/agnostic_nms_1/agnostic_nms/while/merge/_18", "model/agnostic_nms_1/agnostic_nms/while/LoopCond/_22"], "attr": {"T": {"type": "DT_VARIANT"}}}, {"name": "model/tf_bottleneck_csp/sequential_1/tf_bottleneck/tf_conv_4/LeakyRelu", "op": "_FusedConv2D", "input": ["model/tf_bottleneck_csp/tf_conv_2/LeakyRelu", "model/tf_bottleneck_csp/sequential_1/tf_bottleneck/tf_conv_4/conv2d_6/Conv2D/ReadVariableOp", "model/tf_bottleneck_csp/sequential_1/tf_bottleneck/tf_conv_4/conv2d_6/BiasAdd/ReadVariableOp"], "device": "/device:CPU:0", "attr": {"dilations": {"list": {"i": ["1", "1", "1", "1"]}}, "use_cudnn_on_gpu": {"b": true}, "data_format": {"s": "TkhXQw=="}, "T": {"type": "DT_FLOAT"}, "fused_ops": {"list": {"s": ["Qmlhc0FkZA==", "TGVha3lSZWx1"]}}, "epsilon": {"f": 0.0}, "padding": {"s": "U0FNRQ=="}, "num_args": {"i": "1"}, "explicit_paddings": {"list": {}}, "leakyrelu_alpha": {"f": 0.1}, "strides": {"list": {"i": ["1", "1", "1", "1"]}}}}, {"name": "model/agnostic_nms_1/agnostic_nms/while/exit/_37", "op": "Exit", "input": ["model/agnostic_nms_1/agnostic_nms/while/model/agnostic_nms_1/agnostic_nms/TensorArrayV2_3_switch/_26"], "attr": {"T": {"type": "DT_VARIANT"}}}, {"name": "model/agnostic_nms_1/agnostic_nms/while/exit/_38", "op": "Exit", "input": ["model/agnostic_nms_1/agnostic_nms/while/model/agnostic_nms_1/agnostic_nms/TensorArrayV2_4_switch/_27"], "attr": {"T": {"type": "DT_VARIANT"}}}, {"name": "model/agnostic_nms_1/agnostic_nms/while/exit/_39", "op": "Exit", "input": ["model/agnostic_nms_1/agnostic_nms/while/model/agnostic_nms_1/agnostic_nms/TensorArrayV2_5_switch/_28"], "attr": {"T": {"type": "DT_VARIANT"}}}, {"name": "model/agnostic_nms_1/agnostic_nms/while/loop_body_control/_33", "op": "Identity", "input": ["model/agnostic_nms_1/agnostic_nms/while/model/agnostic_nms_1/agnostic_nms/while/loop_counter_switch/_23:1"], "attr": {"T": {"type": "DT_INT32"}}}, {"name": "model/agnostic_nms_1/agnostic_nms/while/exit/_40", "op": "Exit", "input": ["model/agnostic_nms_1/agnostic_nms/while/model/agnostic_nms_1/agnostic_nms/TensorArrayV2_6_switch/_29"], "attr": {"T": {"type": "DT_VARIANT"}}}, {"name": "model/tf_bottleneck_csp/sequential_1/tf_bottleneck/tf_conv_5/LeakyRelu", "op": "_FusedConv2D", "input": ["model/tf_bottleneck_csp/sequential_1/tf_bottleneck/tf_conv_4/LeakyRelu", "model/tf_bottleneck_csp/sequential_1/tf_bottleneck/tf_conv_5/conv2d_7/Conv2D/ReadVariableOp", "model/tf_bottleneck_csp/sequential_1/tf_bottleneck/tf_conv_5/conv2d_7/BiasAdd/ReadVariableOp"], "device": "/device:CPU:0", "attr": {"epsilon": {"f": 0.0}, "strides": {"list": {"i": ["1", "1", "1", "1"]}}, "padding": {"s": "U0FNRQ=="}, "explicit_paddings": {"list": {}}, "dilations": {"list": {"i": ["1", "1", "1", "1"]}}, "leakyrelu_alpha": {"f": 0.1}, "fused_ops": {"list": {"s": ["Qmlhc0FkZA==", "TGVha3lSZWx1"]}}, "use_cudnn_on_gpu": {"b": true}, "data_format": {"s": "TkhXQw=="}, "T": {"type": "DT_FLOAT"}, "num_args": {"i": "1"}}}, {"name": "model/agnostic_nms_1/agnostic_nms/TensorArrayV2Stack/TensorListStack", "op": "TensorListStack", "input": ["model/agnostic_nms_1/agnostic_nms/while/exit/_37", "model/agnostic_nms_1/agnostic_nms/TensorArrayV2Stack/TensorListStack/element_shape"], "attr": {"element_dtype": {"type": "DT_FLOAT"}, "num_elements": {"i": "1"}}}, {"name": "model/agnostic_nms_1/agnostic_nms/TensorArrayV2Stack_1/TensorListStack", "op": "TensorListStack", "input": ["model/agnostic_nms_1/agnostic_nms/while/exit/_38", "model/agnostic_nms_1/agnostic_nms/TensorArrayV2Stack_1/TensorListStack/element_shape"], "attr": {"num_elements": {"i": "1"}, "element_dtype": {"type": "DT_FLOAT"}}}, {"name": "model/agnostic_nms_1/agnostic_nms/TensorArrayV2Stack_2/TensorListStack", "op": "TensorListStack", "input": ["model/agnostic_nms_1/agnostic_nms/while/exit/_39", "model/agnostic_nms_1/agnostic_nms/TensorArrayV2Stack_2/TensorListStack/element_shape"], "attr": {"num_elements": {"i": "1"}, "element_dtype": {"type": "DT_FLOAT"}}}, {"name": "model/agnostic_nms_1/agnostic_nms/while/body/_1/model/agnostic_nms_1/agnostic_nms/while/Pad/paddings/0/0", "op": "Const", "input": ["^model/agnostic_nms_1/agnostic_nms/while/loop_body_control/_33"], "attr": {"value": {"tensor": {"dtype": "DT_INT32", "tensorShape": {}}}, "dtype": {"type": "DT_INT32"}}}, {"name": "model/agnostic_nms_1/agnostic_nms/while/body/_1/model/agnostic_nms_1/agnostic_nms/while/sub/x", "op": "Const", "input": ["^model/agnostic_nms_1/agnostic_nms/while/loop_body_control/_33"], "attr": {"value": {"tensor": {"dtype": "DT_INT32", "tensorShape": {}}}, "dtype": {"type": "DT_INT32"}}}, {"name": "model/agnostic_nms_1/agnostic_nms/while/body/_1/model/agnostic_nms_1/agnostic_nms/while/strided_slice/stack", "op": "Const", "input": ["^model/agnostic_nms_1/agnostic_nms/while/loop_body_control/_33"], "attr": {"value": {"tensor": {"dtype": "DT_INT32", "tensorShape": {"dim": [{"size": "1"}]}}}, "dtype": {"type": "DT_INT32"}}}, {"name": "model/agnostic_nms_1/agnostic_nms/while/body/_1/model/agnostic_nms_1/agnostic_nms/while/strided_slice/stack_1", "op": "Const", "input": ["^model/agnostic_nms_1/agnostic_nms/while/loop_body_control/_33"], "attr": {"dtype": {"type": "DT_INT32"}, "value": {"tensor": {"dtype": "DT_INT32", "tensorShape": {"dim": [{"size": "1"}]}}}}}, {"name": "model/agnostic_nms_1/agnostic_nms/while/body/_1/model/agnostic_nms_1/agnostic_nms/while/strided_slice/stack_2", "op": "Const", "input": ["^model/agnostic_nms_1/agnostic_nms/while/loop_body_control/_33"], "attr": {"dtype": {"type": "DT_INT32"}, "value": {"tensor": {"dtype": "DT_INT32", "tensorShape": {"dim": [{"size": "1"}]}}}}}, {"name": "model/agnostic_nms_1/agnostic_nms/while/body/_1/model/agnostic_nms_1/agnostic_nms/while/Pad/paddings/1_1", "op": "Const", "input": ["^model/agnostic_nms_1/agnostic_nms/while/loop_body_control/_33"], "attr": {"dtype": {"type": "DT_INT32"}, "value": {"tensor": {"dtype": "DT_INT32", "tensorShape": {"dim": [{"size": "2"}]}}}}}, {"name": "model/agnostic_nms_1/agnostic_nms/while/body/_1/model/agnostic_nms_1/agnostic_nms/while/GatherV2_1/axis", "op": "Const", "input": ["^model/agnostic_nms_1/agnostic_nms/while/loop_body_control/_33"], "attr": {"value": {"tensor": {"dtype": "DT_INT32", "tensorShape": {}}}, "dtype": {"type": "DT_INT32"}}}, {"name": "model/agnostic_nms_1/agnostic_nms/while/body/_1/model/agnostic_nms_1/agnostic_nms/while/PadV2/paddings/0/0", "op": "Const", "input": ["^model/agnostic_nms_1/agnostic_nms/while/loop_body_control/_33"], "attr": {"value": {"tensor": {"dtype": "DT_INT32", "tensorShape": {}}}, "dtype": {"type": "DT_INT32"}}}, {"name": "model/agnostic_nms_1/agnostic_nms/while/body/_1/model/agnostic_nms_1/agnostic_nms/while/sub_1/x", "op": "Const", "input": ["^model/agnostic_nms_1/agnostic_nms/while/loop_body_control/_33"], "attr": {"dtype": {"type": "DT_INT32"}, "value": {"tensor": {"dtype": "DT_INT32", "tensorShape": {}}}}}, {"name": "model/agnostic_nms_1/agnostic_nms/while/body/_1/model/agnostic_nms_1/agnostic_nms/while/strided_slice_1/stack", "op": "Const", "input": ["^model/agnostic_nms_1/agnostic_nms/while/loop_body_control/_33"], "attr": {"dtype": {"type": "DT_INT32"}, "value": {"tensor": {"dtype": "DT_INT32", "tensorShape": {"dim": [{"size": "1"}]}}}}}, {"name": "model/agnostic_nms_1/agnostic_nms/while/body/_1/model/agnostic_nms_1/agnostic_nms/while/strided_slice_1/stack_1", "op": "Const", "input": ["^model/agnostic_nms_1/agnostic_nms/while/loop_body_control/_33"], "attr": {"value": {"tensor": {"dtype": "DT_INT32", "tensorShape": {"dim": [{"size": "1"}]}}}, "dtype": {"type": "DT_INT32"}}}, {"name": "model/agnostic_nms_1/agnostic_nms/while/body/_1/model/agnostic_nms_1/agnostic_nms/while/strided_slice_1/stack_2", "op": "Const", "input": ["^model/agnostic_nms_1/agnostic_nms/while/loop_body_control/_33"], "attr": {"value": {"tensor": {"dtype": "DT_INT32", "tensorShape": {"dim": [{"size": "1"}]}}}, "dtype": {"type": "DT_INT32"}}}, {"name": "model/agnostic_nms_1/agnostic_nms/while/body/_1/model/agnostic_nms_1/agnostic_nms/while/PadV2/constant_values", "op": "Const", "input": ["^model/agnostic_nms_1/agnostic_nms/while/loop_body_control/_33"], "attr": {"value": {"tensor": {"dtype": "DT_FLOAT", "tensorShape": {}}}, "dtype": {"type": "DT_FLOAT"}}}, {"name": "model/agnostic_nms_1/agnostic_nms/while/body/_1/model/agnostic_nms_1/agnostic_nms/while/TensorArrayV2Read_1/TensorListGetItem/element_shape", "op": "Const", "input": ["^model/agnostic_nms_1/agnostic_nms/while/loop_body_control/_33"], "attr": {"value": {"tensor": {"dtype": "DT_INT32", "tensorShape": {"dim": [{"size": "2"}]}}}, "dtype": {"type": "DT_INT32"}}}, {"name": "model/agnostic_nms_1/agnostic_nms/while/body/_1/model/agnostic_nms_1/agnostic_nms/while/ArgMax/dimension", "op": "Const", "input": ["^model/agnostic_nms_1/agnostic_nms/while/loop_body_control/_33"], "attr": {"value": {"tensor": {"dtype": "DT_INT32", "tensorShape": {}}}, "dtype": {"type": "DT_INT32"}}}, {"name": "model/agnostic_nms_1/agnostic_nms/while/body/_1/model/agnostic_nms_1/agnostic_nms/while/GatherV2_2/axis", "op": "Const", "input": ["^model/agnostic_nms_1/agnostic_nms/while/loop_body_control/_33"], "attr": {"value": {"tensor": {"dtype": "DT_INT32", "tensorShape": {}}}, "dtype": {"type": "DT_INT32"}}}, {"name": "model/agnostic_nms_1/agnostic_nms/while/body/_1/model/agnostic_nms_1/agnostic_nms/while/PadV2_1/paddings/0/0", "op": "Const", "input": ["^model/agnostic_nms_1/agnostic_nms/while/loop_body_control/_33"], "attr": {"value": {"tensor": {"dtype": "DT_INT32", "tensorShape": {}}}, "dtype": {"type": "DT_INT32"}}}, {"name": "model/agnostic_nms_1/agnostic_nms/while/body/_1/model/agnostic_nms_1/agnostic_nms/while/sub_2/x", "op": "Const", "input": ["^model/agnostic_nms_1/agnostic_nms/while/loop_body_control/_33"], "attr": {"dtype": {"type": "DT_INT32"}, "value": {"tensor": {"dtype": "DT_INT32", "tensorShape": {}}}}}, {"name": "model/agnostic_nms_1/agnostic_nms/while/body/_1/model/agnostic_nms_1/agnostic_nms/while/GatherV2/axis", "op": "Const", "input": ["^model/agnostic_nms_1/agnostic_nms/while/loop_body_control/_33"], "attr": {"value": {"tensor": {"dtype": "DT_INT32", "tensorShape": {}}}, "dtype": {"type": "DT_INT32"}}}, {"name": "model/agnostic_nms_1/agnostic_nms/while/body/_1/model/agnostic_nms_1/agnostic_nms/while/strided_slice_2/stack", "op": "Const", "input": ["^model/agnostic_nms_1/agnostic_nms/while/loop_body_control/_33"], "attr": {"dtype": {"type": "DT_INT32"}, "value": {"tensor": {"dtype": "DT_INT32", "tensorShape": {"dim": [{"size": "1"}]}}}}}, {"name": "model/agnostic_nms_1/agnostic_nms/while/body/_1/model/agnostic_nms_1/agnostic_nms/while/strided_slice_2/stack_1", "op": "Const", "input": ["^model/agnostic_nms_1/agnostic_nms/while/loop_body_control/_33"], "attr": {"dtype": {"type": "DT_INT32"}, "value": {"tensor": {"dtype": "DT_INT32", "tensorShape": {"dim": [{"size": "1"}]}}}}}, {"name": "model/agnostic_nms_1/agnostic_nms/while/body/_1/model/agnostic_nms_1/agnostic_nms/while/strided_slice_2/stack_2", "op": "Const", "input": ["^model/agnostic_nms_1/agnostic_nms/while/loop_body_control/_33"], "attr": {"dtype": {"type": "DT_INT32"}, "value": {"tensor": {"dtype": "DT_INT32", "tensorShape": {"dim": [{"size": "1"}]}}}}}, {"name": "model/agnostic_nms_1/agnostic_nms/while/body/_1/model/agnostic_nms_1/agnostic_nms/while/PadV2_1/constant_values", "op": "Const", "input": ["^model/agnostic_nms_1/agnostic_nms/while/loop_body_control/_33"], "attr": {"dtype": {"type": "DT_FLOAT"}, "value": {"tensor": {"dtype": "DT_FLOAT", "tensorShape": {}}}}}, {"name": "model/agnostic_nms_1/agnostic_nms/while/body/_1/model/agnostic_nms_1/agnostic_nms/while/TensorArrayV2Read/TensorListGetItem/element_shape", "op": "Const", "input": ["^model/agnostic_nms_1/agnostic_nms/while/loop_body_control/_33"], "attr": {"dtype": {"type": "DT_INT32"}, "value": {"tensor": {"dtype": "DT_INT32", "tensorShape": {"dim": [{"size": "2"}]}}}}}, {"name": "model/agnostic_nms_1/agnostic_nms/while/body/_1/model/agnostic_nms_1/agnostic_nms/while/TensorArrayV2Read_2/TensorListGetItem/element_shape", "op": "Const", "input": ["^model/agnostic_nms_1/agnostic_nms/while/loop_body_control/_33"], "attr": {"dtype": {"type": "DT_INT32"}, "value": {"tensor": {"dtype": "DT_INT32", "tensorShape": {"dim": [{"size": "2"}]}}}}}, {"name": "model/agnostic_nms_1/agnostic_nms/while/body/_1/model/agnostic_nms_1/agnostic_nms/while/Max/reduction_indices", "op": "Const", "input": ["^model/agnostic_nms_1/agnostic_nms/while/loop_body_control/_33"], "attr": {"dtype": {"type": "DT_INT32"}, "value": {"tensor": {"dtype": "DT_INT32", "tensorShape": {}}}}}, {"name": "model/agnostic_nms_1/agnostic_nms/while/body/_1/model/agnostic_nms_1/agnostic_nms/while/non_max_suppression/NonMaxSuppressionV3/max_output_size", "op": "Const", "input": ["^model/agnostic_nms_1/agnostic_nms/while/loop_body_control/_33"], "attr": {"dtype": {"type": "DT_INT32"}, "value": {"tensor": {"dtype": "DT_INT32", "tensorShape": {}}}}}, {"name": "model/agnostic_nms_1/agnostic_nms/while/body/_1/model/agnostic_nms_1/agnostic_nms/while/non_max_suppression/iou_threshold", "op": "Const", "input": ["^model/agnostic_nms_1/agnostic_nms/while/loop_body_control/_33"], "attr": {"dtype": {"type": "DT_FLOAT"}, "value": {"tensor": {"dtype": "DT_FLOAT", "tensorShape": {}}}}}, {"name": "model/agnostic_nms_1/agnostic_nms/while/body/_1/model/agnostic_nms_1/agnostic_nms/while/non_max_suppression/score_threshold", "op": "Const", "input": ["^model/agnostic_nms_1/agnostic_nms/while/loop_body_control/_33"], "attr": {"dtype": {"type": "DT_FLOAT"}, "value": {"tensor": {"dtype": "DT_FLOAT", "tensorShape": {}}}}}, {"name": "model/agnostic_nms_1/agnostic_nms/while/body/_1/model/agnostic_nms_1/agnostic_nms/while/strided_slice_3/stack", "op": "Const", "input": ["^model/agnostic_nms_1/agnostic_nms/while/loop_body_control/_33"], "attr": {"dtype": {"type": "DT_INT32"}, "value": {"tensor": {"dtype": "DT_INT32", "tensorShape": {"dim": [{"size": "1"}]}}}}}, {"name": "model/agnostic_nms_1/agnostic_nms/while/body/_1/model/agnostic_nms_1/agnostic_nms/while/strided_slice_3/stack_1", "op": "Const", "input": ["^model/agnostic_nms_1/agnostic_nms/while/loop_body_control/_33"], "attr": {"dtype": {"type": "DT_INT32"}, "value": {"tensor": {"dtype": "DT_INT32", "tensorShape": {"dim": [{"size": "1"}]}}}}}, {"name": "model/agnostic_nms_1/agnostic_nms/while/body/_1/model/agnostic_nms_1/agnostic_nms/while/strided_slice_3/stack_2", "op": "Const", "input": ["^model/agnostic_nms_1/agnostic_nms/while/loop_body_control/_33"], "attr": {"dtype": {"type": "DT_INT32"}, "value": {"tensor": {"dtype": "DT_INT32", "tensorShape": {"dim": [{"size": "1"}]}}}}}, {"name": "model/agnostic_nms_1/agnostic_nms/while/next_iteration/_46", "op": "NextIteration", "input": ["model/agnostic_nms_1/agnostic_nms/while/model/agnostic_nms_1/agnostic_nms/while/maximum_iterations_switch/_24:1", "^model/agnostic_nms_1/agnostic_nms/while/loop_body_control/_33"], "attr": {"T": {"type": "DT_INT32"}}}, {"name": "Func/model/agnostic_nms_1/agnostic_nms/while/body/_1/input/_70", "op": "Identity", "input": ["model/agnostic_nms_1/agnostic_nms/while/model/agnostic_nms_1/agnostic_nms/Const_switch/_25:1", "^model/agnostic_nms_1/agnostic_nms/while/loop_body_control/_33"], "attr": {"T": {"type": "DT_INT32"}}}, {"name": "model/agnostic_nms_1/agnostic_nms/while/body/_1/model/agnostic_nms_1/agnostic_nms/while/add/y", "op": "Const", "input": ["^model/agnostic_nms_1/agnostic_nms/while/loop_body_control/_33"], "attr": {"dtype": {"type": "DT_INT32"}, "value": {"tensor": {"dtype": "DT_INT32", "tensorShape": {}}}}}, {"name": "model/agnostic_nms_1/agnostic_nms/while/body/_1/model/agnostic_nms_1/agnostic_nms/while/add_1/y", "op": "Const", "input": ["^model/agnostic_nms_1/agnostic_nms/while/loop_body_control/_33"], "attr": {"dtype": {"type": "DT_INT32"}, "value": {"tensor": {"dtype": "DT_INT32", "tensorShape": {}}}}}, {"name": "model/agnostic_nms_1/agnostic_nms/TensorArrayV2Stack_3/TensorListStack", "op": "TensorListStack", "input": ["model/agnostic_nms_1/agnostic_nms/while/exit/_40", "model/agnostic_nms_1/agnostic_nms/TensorArrayV2Stack_3/Const"], "attr": {"element_dtype": {"type": "DT_INT32"}, "num_elements": {"i": "1"}}}, {"name": "model/tf_bottleneck_csp/sequential_1/tf_bottleneck/add", "op": "AddV2", "input": ["model/tf_bottleneck_csp/tf_conv_2/LeakyRelu", "model/tf_bottleneck_csp/sequential_1/tf_bottleneck/tf_conv_5/LeakyRelu"], "attr": {"T": {"type": "DT_FLOAT"}}}, {"name": "Identity", "op": "Identity", "input": ["model/agnostic_nms_1/agnostic_nms/TensorArrayV2Stack/TensorListStack"], "attr": {"T": {"type": "DT_FLOAT"}}}, {"name": "Identity_1", "op": "Identity", "input": ["model/agnostic_nms_1/agnostic_nms/TensorArrayV2Stack_1/TensorListStack"], "attr": {"T": {"type": "DT_FLOAT"}}}, {"name": "Identity_2", "op": "Identity", "input": ["model/agnostic_nms_1/agnostic_nms/TensorArrayV2Stack_2/TensorListStack"], "attr": {"T": {"type": "DT_FLOAT"}}}, {"name": "model/agnostic_nms_1/agnostic_nms/while/body/_1/model/agnostic_nms_1/agnostic_nms/while/add", "op": "AddV2", "input": ["Func/model/agnostic_nms_1/agnostic_nms/while/body/_1/input/_70", "model/agnostic_nms_1/agnostic_nms/while/body/_1/model/agnostic_nms_1/agnostic_nms/while/add/y"], "attr": {"T": {"type": "DT_INT32"}}}, {"name": "model/agnostic_nms_1/agnostic_nms/while/body/_1/model/agnostic_nms_1/agnostic_nms/while/add_1", "op": "AddV2", "input": ["model/agnostic_nms_1/agnostic_nms/while/model/agnostic_nms_1/agnostic_nms/while/loop_counter_switch/_23:1", "model/agnostic_nms_1/agnostic_nms/while/body/_1/model/agnostic_nms_1/agnostic_nms/while/add_1/y"], "attr": {"T": {"type": "DT_INT32"}}}, {"name": "Identity_3", "op": "Identity", "input": ["model/agnostic_nms_1/agnostic_nms/TensorArrayV2Stack_3/TensorListStack"], "attr": {"T": {"type": "DT_INT32"}}}, {"name": "model/tf_bottleneck_csp/sequential_1/tf_bottleneck_1/tf_conv_6/LeakyRelu", "op": "_FusedConv2D", "input": ["model/tf_bottleneck_csp/sequential_1/tf_bottleneck/add", "model/tf_bottleneck_csp/sequential_1/tf_bottleneck_1/tf_conv_6/conv2d_8/Conv2D/ReadVariableOp", "model/tf_bottleneck_csp/sequential_1/tf_bottleneck_1/tf_conv_6/conv2d_8/BiasAdd/ReadVariableOp"], "device": "/device:CPU:0", "attr": {"dilations": {"list": {"i": ["1", "1", "1", "1"]}}, "leakyrelu_alpha": {"f": 0.1}, "padding": {"s": "U0FNRQ=="}, "use_cudnn_on_gpu": {"b": true}, "strides": {"list": {"i": ["1", "1", "1", "1"]}}, "epsilon": {"f": 0.0}, "fused_ops": {"list": {"s": ["Qmlhc0FkZA==", "TGVha3lSZWx1"]}}, "T": {"type": "DT_FLOAT"}, "data_format": {"s": "TkhXQw=="}, "num_args": {"i": "1"}, "explicit_paddings": {"list": {}}}}, {"name": "model/agnostic_nms_1/agnostic_nms/while/next_iteration/_47", "op": "NextIteration", "input": ["model/agnostic_nms_1/agnostic_nms/while/body/_1/model/agnostic_nms_1/agnostic_nms/while/add", "^model/agnostic_nms_1/agnostic_nms/while/loop_body_control/_33"], "attr": {"T": {"type": "DT_INT32"}}}, {"name": "model/agnostic_nms_1/agnostic_nms/while/next_iteration/_45", "op": "NextIteration", "input": ["model/agnostic_nms_1/agnostic_nms/while/body/_1/model/agnostic_nms_1/agnostic_nms/while/add_1", "^model/agnostic_nms_1/agnostic_nms/while/loop_body_control/_33"], "attr": {"T": {"type": "DT_INT32"}}}, {"name": "model/tf_bottleneck_csp/sequential_1/tf_bottleneck_1/tf_conv_7/LeakyRelu", "op": "_FusedConv2D", "input": ["model/tf_bottleneck_csp/sequential_1/tf_bottleneck_1/tf_conv_6/LeakyRelu", "model/tf_bottleneck_csp/sequential_1/tf_bottleneck_1/tf_conv_7/conv2d_9/Conv2D/ReadVariableOp", "model/tf_bottleneck_csp/sequential_1/tf_bottleneck_1/tf_conv_7/conv2d_9/BiasAdd/ReadVariableOp"], "device": "/device:CPU:0", "attr": {"padding": {"s": "U0FNRQ=="}, "fused_ops": {"list": {"s": ["Qmlhc0FkZA==", "TGVha3lSZWx1"]}}, "data_format": {"s": "TkhXQw=="}, "T": {"type": "DT_FLOAT"}, "strides": {"list": {"i": ["1", "1", "1", "1"]}}, "explicit_paddings": {"list": {}}, "num_args": {"i": "1"}, "epsilon": {"f": 0.0}, "leakyrelu_alpha": {"f": 0.1}, "dilations": {"list": {"i": ["1", "1", "1", "1"]}}, "use_cudnn_on_gpu": {"b": true}}}, {"name": "model/tf_bottleneck_csp/sequential_1/tf_bottleneck_1/add", "op": "AddV2", "input": ["model/tf_bottleneck_csp/sequential_1/tf_bottleneck/add", "model/tf_bottleneck_csp/sequential_1/tf_bottleneck_1/tf_conv_7/LeakyRelu"], "attr": {"T": {"type": "DT_FLOAT"}}}, {"name": "model/tf_bottleneck_csp/sequential_1/tf_bottleneck_2/tf_conv_8/LeakyRelu", "op": "_FusedConv2D", "input": ["model/tf_bottleneck_csp/sequential_1/tf_bottleneck_1/add", "model/tf_bottleneck_csp/sequential_1/tf_bottleneck_2/tf_conv_8/conv2d_10/Conv2D/ReadVariableOp", "model/tf_bottleneck_csp/sequential_1/tf_bottleneck_2/tf_conv_8/conv2d_10/BiasAdd/ReadVariableOp"], "device": "/device:CPU:0", "attr": {"leakyrelu_alpha": {"f": 0.1}, "epsilon": {"f": 0.0}, "T": {"type": "DT_FLOAT"}, "padding": {"s": "U0FNRQ=="}, "use_cudnn_on_gpu": {"b": true}, "fused_ops": {"list": {"s": ["Qmlhc0FkZA==", "TGVha3lSZWx1"]}}, "data_format": {"s": "TkhXQw=="}, "explicit_paddings": {"list": {}}, "strides": {"list": {"i": ["1", "1", "1", "1"]}}, "num_args": {"i": "1"}, "dilations": {"list": {"i": ["1", "1", "1", "1"]}}}}, {"name": "model/tf_bottleneck_csp/sequential_1/tf_bottleneck_2/tf_conv_9/LeakyRelu", "op": "_FusedConv2D", "input": ["model/tf_bottleneck_csp/sequential_1/tf_bottleneck_2/tf_conv_8/LeakyRelu", "model/tf_bottleneck_csp/sequential_1/tf_bottleneck_2/tf_conv_9/conv2d_11/Conv2D/ReadVariableOp", "model/tf_bottleneck_csp/sequential_1/tf_bottleneck_2/tf_conv_9/conv2d_11/BiasAdd/ReadVariableOp"], "device": "/device:CPU:0", "attr": {"num_args": {"i": "1"}, "epsilon": {"f": 0.0}, "leakyrelu_alpha": {"f": 0.1}, "padding": {"s": "U0FNRQ=="}, "fused_ops": {"list": {"s": ["Qmlhc0FkZA==", "TGVha3lSZWx1"]}}, "dilations": {"list": {"i": ["1", "1", "1", "1"]}}, "use_cudnn_on_gpu": {"b": true}, "T": {"type": "DT_FLOAT"}, "data_format": {"s": "TkhXQw=="}, "explicit_paddings": {"list": {}}, "strides": {"list": {"i": ["1", "1", "1", "1"]}}}}, {"name": "model/tf_bottleneck_csp/sequential_1/tf_bottleneck_2/add", "op": "AddV2", "input": ["model/tf_bottleneck_csp/sequential_1/tf_bottleneck_1/add", "model/tf_bottleneck_csp/sequential_1/tf_bottleneck_2/tf_conv_9/LeakyRelu"], "attr": {"T": {"type": "DT_FLOAT"}}}, {"name": "model/tf_bottleneck_csp/sequential_1/tf_bottleneck_3/tf_conv_10/LeakyRelu", "op": "_FusedConv2D", "input": ["model/tf_bottleneck_csp/sequential_1/tf_bottleneck_2/add", "model/tf_bottleneck_csp/sequential_1/tf_bottleneck_3/tf_conv_10/conv2d_12/Conv2D/ReadVariableOp", "model/tf_bottleneck_csp/sequential_1/tf_bottleneck_3/tf_conv_10/conv2d_12/BiasAdd/ReadVariableOp"], "device": "/device:CPU:0", "attr": {"fused_ops": {"list": {"s": ["Qmlhc0FkZA==", "TGVha3lSZWx1"]}}, "T": {"type": "DT_FLOAT"}, "explicit_paddings": {"list": {}}, "data_format": {"s": "TkhXQw=="}, "num_args": {"i": "1"}, "padding": {"s": "U0FNRQ=="}, "leakyrelu_alpha": {"f": 0.1}, "dilations": {"list": {"i": ["1", "1", "1", "1"]}}, "strides": {"list": {"i": ["1", "1", "1", "1"]}}, "use_cudnn_on_gpu": {"b": true}, "epsilon": {"f": 0.0}}}, {"name": "model/tf_bottleneck_csp/sequential_1/tf_bottleneck_3/tf_conv_11/LeakyRelu", "op": "_FusedConv2D", "input": ["model/tf_bottleneck_csp/sequential_1/tf_bottleneck_3/tf_conv_10/LeakyRelu", "model/tf_bottleneck_csp/sequential_1/tf_bottleneck_3/tf_conv_11/conv2d_13/Conv2D/ReadVariableOp", "model/tf_bottleneck_csp/sequential_1/tf_bottleneck_3/tf_conv_11/conv2d_13/BiasAdd/ReadVariableOp"], "device": "/device:CPU:0", "attr": {"dilations": {"list": {"i": ["1", "1", "1", "1"]}}, "leakyrelu_alpha": {"f": 0.1}, "fused_ops": {"list": {"s": ["Qmlhc0FkZA==", "TGVha3lSZWx1"]}}, "strides": {"list": {"i": ["1", "1", "1", "1"]}}, "use_cudnn_on_gpu": {"b": true}, "padding": {"s": "U0FNRQ=="}, "data_format": {"s": "TkhXQw=="}, "epsilon": {"f": 0.0}, "explicit_paddings": {"list": {}}, "num_args": {"i": "1"}, "T": {"type": "DT_FLOAT"}}}, {"name": "model/tf_bottleneck_csp/sequential_1/tf_bottleneck_3/add", "op": "AddV2", "input": ["model/tf_bottleneck_csp/sequential_1/tf_bottleneck_2/add", "model/tf_bottleneck_csp/sequential_1/tf_bottleneck_3/tf_conv_11/LeakyRelu"], "attr": {"T": {"type": "DT_FLOAT"}}}, {"name": "model/tf_bottleneck_csp/tf_conv2d_1/conv2d_4/Conv2D", "op": "Conv2D", "input": ["model/tf_bottleneck_csp/sequential_1/tf_bottleneck_3/add", "model/tf_bottleneck_csp/tf_conv2d_1/conv2d_4/Conv2D/ReadVariableOp"], "device": "/device:CPU:0", "attr": {"T": {"type": "DT_FLOAT"}, "data_format": {"s": "TkhXQw=="}, "explicit_paddings": {"list": {}}, "dilations": {"list": {"i": ["1", "1", "1", "1"]}}, "padding": {"s": "VkFMSUQ="}, "strides": {"list": {"i": ["1", "1", "1", "1"]}}, "use_cudnn_on_gpu": {"b": true}}}, {"name": "model/tf_bottleneck_csp/concat", "op": "ConcatV2", "input": ["model/tf_bottleneck_csp/tf_conv2d_1/conv2d_4/Conv2D", "model/tf_bottleneck_csp/tf_conv2d/conv2d_3/Conv2D", "model/tf_bottleneck_csp/concat/axis"], "attr": {"Tidx": {"type": "DT_INT32"}, "N": {"i": "2"}, "T": {"type": "DT_FLOAT"}}}, {"name": "model/tf_bottleneck_csp/tfbn/batch_normalization/FusedBatchNormV3/Mul", "op": "Mul", "input": ["model/tf_bottleneck_csp/concat", "model/tf_bottleneck_csp/tfbn/batch_normalization/FusedBatchNormV3/Scaled"], "attr": {"T": {"type": "DT_FLOAT"}}}, {"name": "model/tf_bottleneck_csp/tfbn/batch_normalization/FusedBatchNormV3", "op": "Add", "input": ["model/tf_bottleneck_csp/tfbn/batch_normalization/FusedBatchNormV3/Mul", "model/tf_bottleneck_csp/tfbn/batch_normalization/FusedBatchNormV3/Offset"], "attr": {"T": {"type": "DT_FLOAT"}}}, {"name": "model/tf_bottleneck_csp/Sigmoid", "op": "Sigmoid", "input": ["model/tf_bottleneck_csp/tfbn/batch_normalization/FusedBatchNormV3"], "attr": {"T": {"type": "DT_FLOAT"}}}, {"name": "model/tf_bottleneck_csp/mul_1", "op": "Mul", "input": ["model/tf_bottleneck_csp/tfbn/batch_normalization/FusedBatchNormV3", "model/tf_bottleneck_csp/Sigmoid"], "attr": {"T": {"type": "DT_FLOAT"}}}, {"name": "model/tf_bottleneck_csp/tf_conv_3/LeakyRelu", "op": "_FusedConv2D", "input": ["model/tf_bottleneck_csp/mul_1", "model/tf_bottleneck_csp/tf_conv_3/conv2d_5/Conv2D/ReadVariableOp", "model/tf_bottleneck_csp/tf_conv_3/conv2d_5/BiasAdd/ReadVariableOp"], "device": "/device:CPU:0", "attr": {"use_cudnn_on_gpu": {"b": true}, "T": {"type": "DT_FLOAT"}, "data_format": {"s": "TkhXQw=="}, "strides": {"list": {"i": ["1", "1", "1", "1"]}}, "explicit_paddings": {"list": {}}, "num_args": {"i": "1"}, "epsilon": {"f": 0.0}, "leakyrelu_alpha": {"f": 0.1}, "dilations": {"list": {"i": ["1", "1", "1", "1"]}}, "padding": {"s": "U0FNRQ=="}, "fused_ops": {"list": {"s": ["Qmlhc0FkZA==", "TGVha3lSZWx1"]}}}}, {"name": "model/tf_conv_12/sequential_2/tf_pad_1/Pad", "op": "Pad", "input": ["model/tf_bottleneck_csp/tf_conv_3/LeakyRelu", "model/tf_conv_12/sequential_2/tf_pad_1/Pad/paddings"], "attr": {"Tpaddings": {"type": "DT_INT32"}, "T": {"type": "DT_FLOAT"}}}, {"name": "model/tf_conv_12/LeakyRelu", "op": "_FusedConv2D", "input": ["model/tf_conv_12/sequential_2/tf_pad_1/Pad", "model/tf_conv_12/sequential_2/conv2d_14/Conv2D/ReadVariableOp", "model/tf_conv_12/sequential_2/conv2d_14/BiasAdd/ReadVariableOp"], "device": "/device:CPU:0", "attr": {"use_cudnn_on_gpu": {"b": true}, "strides": {"list": {"i": ["1", "2", "2", "1"]}}, "epsilon": {"f": 0.0}, "data_format": {"s": "TkhXQw=="}, "num_args": {"i": "1"}, "padding": {"s": "VkFMSUQ="}, "explicit_paddings": {"list": {}}, "dilations": {"list": {"i": ["1", "1", "1", "1"]}}, "leakyrelu_alpha": {"f": 0.1}, "fused_ops": {"list": {"s": ["Qmlhc0FkZA==", "TGVha3lSZWx1"]}}, "T": {"type": "DT_FLOAT"}}}, {"name": "model/tf_bottleneck_csp_1/tf_conv_13/LeakyRelu", "op": "_FusedConv2D", "input": ["model/tf_conv_12/LeakyRelu", "model/tf_bottleneck_csp_1/tf_conv_13/conv2d_15/Conv2D/ReadVariableOp", "model/tf_bottleneck_csp_1/tf_conv_13/conv2d_15/BiasAdd/ReadVariableOp"], "device": "/device:CPU:0", "attr": {"epsilon": {"f": 0.0}, "leakyrelu_alpha": {"f": 0.1}, "dilations": {"list": {"i": ["1", "1", "1", "1"]}}, "use_cudnn_on_gpu": {"b": true}, "padding": {"s": "U0FNRQ=="}, "fused_ops": {"list": {"s": ["Qmlhc0FkZA==", "TGVha3lSZWx1"]}}, "data_format": {"s": "TkhXQw=="}, "strides": {"list": {"i": ["1", "1", "1", "1"]}}, "explicit_paddings": {"list": {}}, "num_args": {"i": "1"}, "T": {"type": "DT_FLOAT"}}}, {"name": "model/tf_bottleneck_csp_1/tf_conv2d_2/conv2d_16/Conv2D", "op": "Conv2D", "input": ["model/tf_conv_12/LeakyRelu", "model/tf_bottleneck_csp_1/tf_conv2d_2/conv2d_16/Conv2D/ReadVariableOp"], "device": "/device:CPU:0", "attr": {"use_cudnn_on_gpu": {"b": true}, "T": {"type": "DT_FLOAT"}, "data_format": {"s": "TkhXQw=="}, "strides": {"list": {"i": ["1", "1", "1", "1"]}}, "explicit_paddings": {"list": {}}, "padding": {"s": "VkFMSUQ="}, "dilations": {"list": {"i": ["1", "1", "1", "1"]}}}}, {"name": "model/tf_bottleneck_csp_1/sequential_3/tf_bottleneck_4/tf_conv_15/LeakyRelu", "op": "_FusedConv2D", "input": ["model/tf_bottleneck_csp_1/tf_conv_13/LeakyRelu", "model/tf_bottleneck_csp_1/sequential_3/tf_bottleneck_4/tf_conv_15/conv2d_19/Conv2D/ReadVariableOp", "model/tf_bottleneck_csp_1/sequential_3/tf_bottleneck_4/tf_conv_15/conv2d_19/BiasAdd/ReadVariableOp"], "device": "/device:CPU:0", "attr": {"padding": {"s": "U0FNRQ=="}, "num_args": {"i": "1"}, "dilations": {"list": {"i": ["1", "1", "1", "1"]}}, "fused_ops": {"list": {"s": ["Qmlhc0FkZA==", "TGVha3lSZWx1"]}}, "leakyrelu_alpha": {"f": 0.1}, "epsilon": {"f": 0.0}, "use_cudnn_on_gpu": {"b": true}, "data_format": {"s": "TkhXQw=="}, "strides": {"list": {"i": ["1", "1", "1", "1"]}}, "explicit_paddings": {"list": {}}, "T": {"type": "DT_FLOAT"}}}, {"name": "model/tf_bottleneck_csp_1/sequential_3/tf_bottleneck_4/tf_conv_16/LeakyRelu", "op": "_FusedConv2D", "input": ["model/tf_bottleneck_csp_1/sequential_3/tf_bottleneck_4/tf_conv_15/LeakyRelu", "model/tf_bottleneck_csp_1/sequential_3/tf_bottleneck_4/tf_conv_16/conv2d_20/Conv2D/ReadVariableOp", "model/tf_bottleneck_csp_1/sequential_3/tf_bottleneck_4/tf_conv_16/conv2d_20/BiasAdd/ReadVariableOp"], "device": "/device:CPU:0", "attr": {"T": {"type": "DT_FLOAT"}, "use_cudnn_on_gpu": {"b": true}, "fused_ops": {"list": {"s": ["Qmlhc0FkZA==", "TGVha3lSZWx1"]}}, "data_format": {"s": "TkhXQw=="}, "explicit_paddings": {"list": {}}, "num_args": {"i": "1"}, "epsilon": {"f": 0.0}, "leakyrelu_alpha": {"f": 0.1}, "padding": {"s": "U0FNRQ=="}, "dilations": {"list": {"i": ["1", "1", "1", "1"]}}, "strides": {"list": {"i": ["1", "1", "1", "1"]}}}}, {"name": "model/tf_bottleneck_csp_1/sequential_3/tf_bottleneck_4/add", "op": "AddV2", "input": ["model/tf_bottleneck_csp_1/tf_conv_13/LeakyRelu", "model/tf_bottleneck_csp_1/sequential_3/tf_bottleneck_4/tf_conv_16/LeakyRelu"], "attr": {"T": {"type": "DT_FLOAT"}}}, {"name": "model/tf_bottleneck_csp_1/sequential_3/tf_bottleneck_5/tf_conv_17/LeakyRelu", "op": "_FusedConv2D", "input": ["model/tf_bottleneck_csp_1/sequential_3/tf_bottleneck_4/add", "model/tf_bottleneck_csp_1/sequential_3/tf_bottleneck_5/tf_conv_17/conv2d_21/Conv2D/ReadVariableOp", "model/tf_bottleneck_csp_1/sequential_3/tf_bottleneck_5/tf_conv_17/conv2d_21/BiasAdd/ReadVariableOp"], "device": "/device:CPU:0", "attr": {"leakyrelu_alpha": {"f": 0.1}, "strides": {"list": {"i": ["1", "1", "1", "1"]}}, "use_cudnn_on_gpu": {"b": true}, "T": {"type": "DT_FLOAT"}, "fused_ops": {"list": {"s": ["Qmlhc0FkZA==", "TGVha3lSZWx1"]}}, "data_format": {"s": "TkhXQw=="}, "explicit_paddings": {"list": {}}, "epsilon": {"f": 0.0}, "padding": {"s": "U0FNRQ=="}, "num_args": {"i": "1"}, "dilations": {"list": {"i": ["1", "1", "1", "1"]}}}}, {"name": "model/tf_bottleneck_csp_1/sequential_3/tf_bottleneck_5/tf_conv_18/LeakyRelu", "op": "_FusedConv2D", "input": ["model/tf_bottleneck_csp_1/sequential_3/tf_bottleneck_5/tf_conv_17/LeakyRelu", "model/tf_bottleneck_csp_1/sequential_3/tf_bottleneck_5/tf_conv_18/conv2d_22/Conv2D/ReadVariableOp", "model/tf_bottleneck_csp_1/sequential_3/tf_bottleneck_5/tf_conv_18/conv2d_22/BiasAdd/ReadVariableOp"], "device": "/device:CPU:0", "attr": {"explicit_paddings": {"list": {}}, "padding": {"s": "U0FNRQ=="}, "dilations": {"list": {"i": ["1", "1", "1", "1"]}}, "leakyrelu_alpha": {"f": 0.1}, "epsilon": {"f": 0.0}, "use_cudnn_on_gpu": {"b": true}, "fused_ops": {"list": {"s": ["Qmlhc0FkZA==", "TGVha3lSZWx1"]}}, "strides": {"list": {"i": ["1", "1", "1", "1"]}}, "data_format": {"s": "TkhXQw=="}, "T": {"type": "DT_FLOAT"}, "num_args": {"i": "1"}}}, {"name": "model/tf_bottleneck_csp_1/sequential_3/tf_bottleneck_5/add", "op": "AddV2", "input": ["model/tf_bottleneck_csp_1/sequential_3/tf_bottleneck_4/add", "model/tf_bottleneck_csp_1/sequential_3/tf_bottleneck_5/tf_conv_18/LeakyRelu"], "attr": {"T": {"type": "DT_FLOAT"}}}, {"name": "model/tf_bottleneck_csp_1/sequential_3/tf_bottleneck_6/tf_conv_19/LeakyRelu", "op": "_FusedConv2D", "input": ["model/tf_bottleneck_csp_1/sequential_3/tf_bottleneck_5/add", "model/tf_bottleneck_csp_1/sequential_3/tf_bottleneck_6/tf_conv_19/conv2d_23/Conv2D/ReadVariableOp", "model/tf_bottleneck_csp_1/sequential_3/tf_bottleneck_6/tf_conv_19/conv2d_23/BiasAdd/ReadVariableOp"], "device": "/device:CPU:0", "attr": {"epsilon": {"f": 0.0}, "leakyrelu_alpha": {"f": 0.1}, "dilations": {"list": {"i": ["1", "1", "1", "1"]}}, "strides": {"list": {"i": ["1", "1", "1", "1"]}}, "fused_ops": {"list": {"s": ["Qmlhc0FkZA==", "TGVha3lSZWx1"]}}, "use_cudnn_on_gpu": {"b": true}, "padding": {"s": "U0FNRQ=="}, "explicit_paddings": {"list": {}}, "data_format": {"s": "TkhXQw=="}, "num_args": {"i": "1"}, "T": {"type": "DT_FLOAT"}}}, {"name": "model/tf_bottleneck_csp_1/sequential_3/tf_bottleneck_6/tf_conv_20/LeakyRelu", "op": "_FusedConv2D", "input": ["model/tf_bottleneck_csp_1/sequential_3/tf_bottleneck_6/tf_conv_19/LeakyRelu", "model/tf_bottleneck_csp_1/sequential_3/tf_bottleneck_6/tf_conv_20/conv2d_24/Conv2D/ReadVariableOp", "model/tf_bottleneck_csp_1/sequential_3/tf_bottleneck_6/tf_conv_20/conv2d_24/BiasAdd/ReadVariableOp"], "device": "/device:CPU:0", "attr": {"leakyrelu_alpha": {"f": 0.1}, "strides": {"list": {"i": ["1", "1", "1", "1"]}}, "T": {"type": "DT_FLOAT"}, "use_cudnn_on_gpu": {"b": true}, "fused_ops": {"list": {"s": ["Qmlhc0FkZA==", "TGVha3lSZWx1"]}}, "data_format": {"s": "TkhXQw=="}, "epsilon": {"f": 0.0}, "explicit_paddings": {"list": {}}, "padding": {"s": "U0FNRQ=="}, "num_args": {"i": "1"}, "dilations": {"list": {"i": ["1", "1", "1", "1"]}}}}, {"name": "model/tf_bottleneck_csp_1/sequential_3/tf_bottleneck_6/add", "op": "AddV2", "input": ["model/tf_bottleneck_csp_1/sequential_3/tf_bottleneck_5/add", "model/tf_bottleneck_csp_1/sequential_3/tf_bottleneck_6/tf_conv_20/LeakyRelu"], "attr": {"T": {"type": "DT_FLOAT"}}}, {"name": "model/tf_bottleneck_csp_1/sequential_3/tf_bottleneck_7/tf_conv_21/LeakyRelu", "op": "_FusedConv2D", "input": ["model/tf_bottleneck_csp_1/sequential_3/tf_bottleneck_6/add", "model/tf_bottleneck_csp_1/sequential_3/tf_bottleneck_7/tf_conv_21/conv2d_25/Conv2D/ReadVariableOp", "model/tf_bottleneck_csp_1/sequential_3/tf_bottleneck_7/tf_conv_21/conv2d_25/BiasAdd/ReadVariableOp"], "device": "/device:CPU:0", "attr": {"dilations": {"list": {"i": ["1", "1", "1", "1"]}}, "T": {"type": "DT_FLOAT"}, "use_cudnn_on_gpu": {"b": true}, "epsilon": {"f": 0.0}, "padding": {"s": "U0FNRQ=="}, "fused_ops": {"list": {"s": ["Qmlhc0FkZA==", "TGVha3lSZWx1"]…
"dtype": "float32"}, {"name": "model/tf_bottleneck_csp_7/sequential_13/tf_bottleneck_44/tf_conv_115/conv2d_131/BiasAdd/ReadVariableOp", "shape": [640], "dtype": "float32"}, {"name": "model/tf_bottleneck_csp_7/sequential_13/tf_bottleneck_44/tf_conv_116/conv2d_132/Conv2D/ReadVariableOp", "shape": [3, 3, 640, 640], "dtype": "float32"}, {"name": "model/tf_bottleneck_csp_7/sequential_13/tf_bottleneck_44/tf_conv_116/conv2d_132/BiasAdd/ReadVariableOp", "shape": [640], "dtype": "float32"}, {"name": "model/tf_bottleneck_csp_7/sequential_13/tf_bottleneck_45/tf_conv_117/conv2d_133/Conv2D/ReadVariableOp", "shape": [1, 1, 640, 640], "dtype": "float32"}, {"name": "model/tf_bottleneck_csp_7/sequential_13/tf_bottleneck_45/tf_conv_117/conv2d_133/BiasAdd/ReadVariableOp", "shape": [640], "dtype": "float32"}, {"name": "model/tf_bottleneck_csp_7/sequential_13/tf_bottleneck_45/tf_conv_118/conv2d_134/Conv2D/ReadVariableOp", "shape": [3, 3, 640, 640], "dtype": "float32"}, {"name": "model/tf_bottleneck_csp_7/sequential_13/tf_bottleneck_45/tf_conv_118/conv2d_134/BiasAdd/ReadVariableOp", "shape": [640], "dtype": "float32"}, {"name": "model/tf_bottleneck_csp_7/sequential_13/tf_bottleneck_46/tf_conv_119/conv2d_135/Conv2D/ReadVariableOp", "shape": [1, 1, 640, 640], "dtype": "float32"}, {"name": "model/tf_bottleneck_csp_7/sequential_13/tf_bottleneck_46/tf_conv_119/conv2d_135/BiasAdd/ReadVariableOp", "shape": [640], "dtype": "float32"}, {"name": "model/tf_bottleneck_csp_7/sequential_13/tf_bottleneck_46/tf_conv_120/conv2d_136/Conv2D/ReadVariableOp", "shape": [3, 3, 640, 640], "dtype": "float32"}, {"name": "model/tf_bottleneck_csp_7/sequential_13/tf_bottleneck_46/tf_conv_120/conv2d_136/BiasAdd/ReadVariableOp", "shape": [640], "dtype": "float32"}, {"name": "model/tf_bottleneck_csp_7/sequential_13/tf_bottleneck_47/tf_conv_121/conv2d_137/Conv2D/ReadVariableOp", "shape": [1, 1, 640, 640], "dtype": "float32"}, {"name": "model/tf_bottleneck_csp_7/sequential_13/tf_bottleneck_47/tf_conv_121/conv2d_137/BiasAdd/ReadVariableOp", "shape": [640], "dtype": "float32"}, {"name": "model/tf_bottleneck_csp_7/sequential_13/tf_bottleneck_47/tf_conv_122/conv2d_138/Conv2D/ReadVariableOp", "shape": [3, 3, 640, 640], "dtype": "float32"}, {"name": "model/tf_bottleneck_csp_7/sequential_13/tf_bottleneck_47/tf_conv_122/conv2d_138/BiasAdd/ReadVariableOp", "shape": [640], "dtype": "float32"}, {"name": "model/tf_bottleneck_csp_7/tf_conv2d_15/conv2d_129/Conv2D/ReadVariableOp", "shape": [1, 1, 640, 640], "dtype": "float32"}, {"name": "model/tf_bottleneck_csp_6/tf_conv_102/conv2d_114/Conv2D/ReadVariableOp", "shape": [1, 1, 640, 320], "dtype": "float32"}, {"name": "model/tf_bottleneck_csp_6/tf_conv_102/conv2d_114/BiasAdd/ReadVariableOp", "shape": [320], "dtype": "float32"}, {"name": "model/tf_bottleneck_csp_6/sequential_11/tf_bottleneck_40/tf_conv_104/conv2d_118/Conv2D/ReadVariableOp", "shape": [1, 1, 320, 320], "dtype": "float32"}, {"name": "model/tf_bottleneck_csp_6/sequential_11/tf_bottleneck_40/tf_conv_104/conv2d_118/BiasAdd/ReadVariableOp", "shape": [320], "dtype": "float32"}, {"name": "model/tf_bottleneck_csp_6/sequential_11/tf_bottleneck_40/tf_conv_105/conv2d_119/Conv2D/ReadVariableOp", "shape": [3, 3, 320, 320], "dtype": "float32"}, {"name": "model/tf_bottleneck_csp_6/sequential_11/tf_bottleneck_40/tf_conv_105/conv2d_119/BiasAdd/ReadVariableOp", "shape": [320], "dtype": "float32"}, {"name": "model/tf_bottleneck_csp_6/sequential_11/tf_bottleneck_41/tf_conv_106/conv2d_120/Conv2D/ReadVariableOp", "shape": [1, 1, 320, 320], "dtype": "float32"}, {"name": "model/tf_bottleneck_csp_6/sequential_11/tf_bottleneck_41/tf_conv_106/conv2d_120/BiasAdd/ReadVariableOp", "shape": [320], "dtype": "float32"}, {"name": "model/tf_bottleneck_csp_6/sequential_11/tf_bottleneck_41/tf_conv_107/conv2d_121/Conv2D/ReadVariableOp", "shape": [3, 3, 320, 320], "dtype": "float32"}, {"name": "model/tf_bottleneck_csp_6/sequential_11/tf_bottleneck_41/tf_conv_107/conv2d_121/BiasAdd/ReadVariableOp", "shape": [320], "dtype": "float32"}, {"name": "model/tf_bottleneck_csp_6/sequential_11/tf_bottleneck_42/tf_conv_108/conv2d_122/Conv2D/ReadVariableOp", "shape": [1, 1, 320, 320], "dtype": "float32"}, {"name": "model/tf_bottleneck_csp_6/sequential_11/tf_bottleneck_42/tf_conv_108/conv2d_122/BiasAdd/ReadVariableOp", "shape": [320], "dtype": "float32"}, {"name": "model/tf_bottleneck_csp_6/sequential_11/tf_bottleneck_42/tf_conv_109/conv2d_123/Conv2D/ReadVariableOp", "shape": [3, 3, 320, 320], "dtype": "float32"}, {"name": "model/tf_bottleneck_csp_6/sequential_11/tf_bottleneck_42/tf_conv_109/conv2d_123/BiasAdd/ReadVariableOp", "shape": [320], "dtype": "float32"}, {"name": "model/tf_bottleneck_csp_6/sequential_11/tf_bottleneck_43/tf_conv_110/conv2d_124/Conv2D/ReadVariableOp", "shape": [1, 1, 320, 320], "dtype": "float32"}, {"name": "model/tf_bottleneck_csp_6/sequential_11/tf_bottleneck_43/tf_conv_110/conv2d_124/BiasAdd/ReadVariableOp", "shape": [320], "dtype": "float32"}, {"name": "model/tf_bottleneck_csp_6/sequential_11/tf_bottleneck_43/tf_conv_111/conv2d_125/Conv2D/ReadVariableOp", "shape": [3, 3, 320, 320], "dtype": "float32"}, {"name": "model/tf_bottleneck_csp_6/sequential_11/tf_bottleneck_43/tf_conv_111/conv2d_125/BiasAdd/ReadVariableOp", "shape": [320], "dtype": "float32"}, {"name": "model/tf_bottleneck_csp_6/tf_conv2d_13/conv2d_116/Conv2D/ReadVariableOp", "shape": [1, 1, 320, 320], "dtype": "float32"}, {"name": "model/tf_bottleneck_csp_5/tf_conv_91/conv2d_101/Conv2D/ReadVariableOp", "shape": [1, 1, 640, 160], "dtype": "float32"}, {"name": "model/tf_bottleneck_csp_5/tf_conv_91/conv2d_101/BiasAdd/ReadVariableOp", "shape": [160], "dtype": "float32"}, {"name": "model/tf_bottleneck_csp_5/sequential_9/tf_bottleneck_36/tf_conv_93/conv2d_105/Conv2D/ReadVariableOp", "shape": [1, 1, 160, 160], "dtype": "float32"}, {"name": "model/tf_bottleneck_csp_5/sequential_9/tf_bottleneck_36/tf_conv_93/conv2d_105/BiasAdd/ReadVariableOp", "shape": [160], "dtype": "float32"}, {"name": "model/tf_bottleneck_csp_5/sequential_9/tf_bottleneck_36/tf_conv_94/conv2d_106/Conv2D/ReadVariableOp", "shape": [3, 3, 160, 160], "dtype": "float32"}, {"name": "model/tf_bottleneck_csp_5/sequential_9/tf_bottleneck_36/tf_conv_94/conv2d_106/BiasAdd/ReadVariableOp", "shape": [160], "dtype": "float32"}, {"name": "model/tf_bottleneck_csp_5/sequential_9/tf_bottleneck_37/tf_conv_95/conv2d_107/Conv2D/ReadVariableOp", "shape": [1, 1, 160, 160], "dtype": "float32"}, {"name": "model/tf_bottleneck_csp_5/sequential_9/tf_bottleneck_37/tf_conv_95/conv2d_107/BiasAdd/ReadVariableOp", "shape": [160], "dtype": "float32"}, {"name": "model/tf_bottleneck_csp_5/sequential_9/tf_bottleneck_37/tf_conv_96/conv2d_108/Conv2D/ReadVariableOp", "shape": [3, 3, 160, 160], "dtype": "float32"}, {"name": "model/tf_bottleneck_csp_5/sequential_9/tf_bottleneck_37/tf_conv_96/conv2d_108/BiasAdd/ReadVariableOp", "shape": [160], "dtype": "float32"}, {"name": "model/tf_bottleneck_csp_5/sequential_9/tf_bottleneck_38/tf_conv_97/conv2d_109/Conv2D/ReadVariableOp", "shape": [1, 1, 160, 160], "dtype": "float32"}, {"name": "model/tf_bottleneck_csp_5/sequential_9/tf_bottleneck_38/tf_conv_97/conv2d_109/BiasAdd/ReadVariableOp", "shape": [160], "dtype": "float32"}, {"name": "model/tf_bottleneck_csp_5/sequential_9/tf_bottleneck_38/tf_conv_98/conv2d_110/Conv2D/ReadVariableOp", "shape": [3, 3, 160, 160], "dtype": "float32"}, {"name": "model/tf_bottleneck_csp_5/sequential_9/tf_bottleneck_38/tf_conv_98/conv2d_110/BiasAdd/ReadVariableOp", "shape": [160], "dtype": "float32"}, {"name": "model/tf_bottleneck_csp_5/sequential_9/tf_bottleneck_39/tf_conv_99/conv2d_111/Conv2D/ReadVariableOp", "shape": [1, 1, 160, 160], "dtype": "float32"}, {"name": "model/tf_bottleneck_csp_5/sequential_9/tf_bottleneck_39/tf_conv_99/conv2d_111/BiasAdd/ReadVariableOp", "shape": [160], "dtype": "float32"}, {"name": "model/tf_bottleneck_csp_5/sequential_9/tf_bottleneck_39/tf_conv_100/conv2d_112/Conv2D/ReadVariableOp", "shape": [3, 3, 160, 160], "dtype": "float32"}, {"name": "model/tf_bottleneck_csp_5/sequential_9/tf_bottleneck_39/tf_conv_100/conv2d_112/BiasAdd/ReadVariableOp", "shape": [160], "dtype": "float32"}, {"name": "model/tf_bottleneck_csp_5/tf_conv2d_11/conv2d_103/Conv2D/ReadVariableOp", "shape": [1, 1, 160, 160], "dtype": "float32"}, {"name": "model/tf_upsample_1/resize/size", "shape": [2], "dtype": "int32"}, {"name": "model/tf_concat_1/concat/axis", "shape": [], "dtype": "int32"}, {"name": "model/tf_bottleneck_csp_5/tf_conv2d_10/conv2d_102/Conv2D/ReadVariableOp", "shape": [1, 1, 640, 160], "dtype": "float32"}, {"name": "model/tf_bottleneck_csp_5/concat/axis", "shape": [], "dtype": "int32"}, {"name": "model/tf_bottleneck_csp_5/tf_conv_92/conv2d_104/Conv2D/ReadVariableOp", "shape": [1, 1, 320, 320], "dtype": "float32"}, {"name": "model/tf_bottleneck_csp_5/tf_conv_92/conv2d_104/BiasAdd/ReadVariableOp", "shape": [320], "dtype": "float32"}, {"name": "model/tf_conv_101/sequential_10/tf_pad_4/Pad/paddings", "shape": [4, 2], "dtype": "int32"}, {"name": "model/tf_conv_101/sequential_10/conv2d_113/Conv2D/ReadVariableOp", "shape": [3, 3, 320, 320], "dtype": "float32"}, {"name": "model/tf_conv_101/sequential_10/conv2d_113/BiasAdd/ReadVariableOp", "shape": [320], "dtype": "float32"}, {"name": "model/tf_bottleneck_csp_4/tf_conv_80/conv2d_88/Conv2D/ReadVariableOp", "shape": [1, 1, 1280, 320], "dtype": "float32"}, {"name": "model/tf_bottleneck_csp_4/tf_conv_80/conv2d_88/BiasAdd/ReadVariableOp", "shape": [320], "dtype": "float32"}, {"name": "model/tf_bottleneck_csp_4/sequential_8/tf_bottleneck_32/tf_conv_82/conv2d_92/Conv2D/ReadVariableOp", "shape": [1, 1, 320, 320], "dtype": "float32"}, {"name": "model/tf_bottleneck_csp_4/sequential_8/tf_bottleneck_32/tf_conv_82/conv2d_92/BiasAdd/ReadVariableOp", "shape": [320], "dtype": "float32"}, {"name": "model/tf_bottleneck_csp_4/sequential_8/tf_bottleneck_32/tf_conv_83/conv2d_93/Conv2D/ReadVariableOp", "shape": [3, 3, 320, 320], "dtype": "float32"}, {"name": "model/tf_bottleneck_csp_4/sequential_8/tf_bottleneck_32/tf_conv_83/conv2d_93/BiasAdd/ReadVariableOp", "shape": [320], "dtype": "float32"}, {"name": "model/tf_bottleneck_csp_4/sequential_8/tf_bottleneck_33/tf_conv_84/conv2d_94/Conv2D/ReadVariableOp", "shape": [1, 1, 320, 320], "dtype": "float32"}, {"name": "model/tf_bottleneck_csp_4/sequential_8/tf_bottleneck_33/tf_conv_84/conv2d_94/BiasAdd/ReadVariableOp", "shape": [320], "dtype": "float32"}, {"name": "model/tf_bottleneck_csp_4/sequential_8/tf_bottleneck_33/tf_conv_85/conv2d_95/Conv2D/ReadVariableOp", "shape": [3, 3, 320, 320], "dtype": "float32"}, {"name": "model/tf_bottleneck_csp_4/sequential_8/tf_bottleneck_33/tf_conv_85/conv2d_95/BiasAdd/ReadVariableOp", "shape": [320], "dtype": "float32"}, {"name": "model/tf_bottleneck_csp_4/sequential_8/tf_bottleneck_34/tf_conv_86/conv2d_96/Conv2D/ReadVariableOp", "shape": [1, 1, 320, 320], "dtype": "float32"}, {"name": "model/tf_bottleneck_csp_4/sequential_8/tf_bottleneck_34/tf_conv_86/conv2d_96/BiasAdd/ReadVariableOp", "shape": [320], "dtype": "float32"}, {"name": "model/tf_bottleneck_csp_4/sequential_8/tf_bottleneck_34/tf_conv_87/conv2d_97/Conv2D/ReadVariableOp", "shape": [3, 3, 320, 320], "dtype": "float32"}, {"name": "model/tf_bottleneck_csp_4/sequential_8/tf_bottleneck_34/tf_conv_87/conv2d_97/BiasAdd/ReadVariableOp", "shape": [320], "dtype": "float32"}, {"name": "model/tf_bottleneck_csp_4/sequential_8/tf_bottleneck_35/tf_conv_88/conv2d_98/Conv2D/ReadVariableOp", "shape": [1, 1, 320, 320], "dtype": "float32"}, {"name": "model/tf_bottleneck_csp_4/sequential_8/tf_bottleneck_35/tf_conv_88/conv2d_98/BiasAdd/ReadVariableOp", "shape": [320], "dtype": "float32"}, {"name": "model/tf_bottleneck_csp_4/sequential_8/tf_bottleneck_35/tf_conv_89/conv2d_99/Conv2D/ReadVariableOp", "shape": [3, 3, 320, 320], "dtype": "float32"}, {"name": "model/tf_bottleneck_csp_4/sequential_8/tf_bottleneck_35/tf_conv_89/conv2d_99/BiasAdd/ReadVariableOp", "shape": [320], "dtype": "float32"}, {"name": "model/tf_bottleneck_csp_4/tf_conv2d_9/conv2d_90/Conv2D/ReadVariableOp", "shape": [1, 1, 320, 320], "dtype": "float32"}, {"name": "model/tf_upsample/resize/size", "shape": [2], "dtype": "int32"}, {"name": "model/tf_concat/concat/axis", "shape": [], "dtype": "int32"}, {"name": "model/tf_bottleneck_csp_4/tf_conv2d_8/conv2d_89/Conv2D/ReadVariableOp", "shape": [1, 1, 1280, 320], "dtype": "float32"}, {"name": "model/tf_bottleneck_csp_4/concat/axis", "shape": [], "dtype": "int32"}, {"name": "model/tf_bottleneck_csp_4/tf_conv_81/conv2d_91/Conv2D/ReadVariableOp", "shape": [1, 1, 640, 640], "dtype": "float32"}, {"name": "model/tf_bottleneck_csp_4/tf_conv_81/conv2d_91/BiasAdd/ReadVariableOp", "shape": [640], "dtype": "float32"}, {"name": "model/tf_conv_90/conv2d_100/Conv2D/ReadVariableOp", "shape": [1, 1, 640, 320], "dtype": "float32"}, {"name": "model/tf_conv_90/conv2d_100/BiasAdd/ReadVariableOp", "shape": [320], "dtype": "float32"}, {"name": "model/tf_concat_2/concat/axis", "shape": [], "dtype": "int32"}, {"name": "model/tf_bottleneck_csp_6/tf_conv2d_12/conv2d_115/Conv2D/ReadVariableOp", "shape": [1, 1, 640, 320], "dtype": "float32"}, {"name": "model/tf_bottleneck_csp_6/concat/axis", "shape": [], "dtype": "int32"}, {"name": "model/tf_bottleneck_csp_6/tf_conv_103/conv2d_117/Conv2D/ReadVariableOp", "shape": [1, 1, 640, 640], "dtype": "float32"}, {"name": "model/tf_bottleneck_csp_6/tf_conv_103/conv2d_117/BiasAdd/ReadVariableOp", "shape": [640], "dtype": "float32"}, {"name": "model/tf_conv_112/sequential_12/tf_pad_5/Pad/paddings", "shape": [4, 2], "dtype": "int32"}, {"name": "model/tf_conv_112/sequential_12/conv2d_126/Conv2D/ReadVariableOp", "shape": [3, 3, 640, 640], "dtype": "float32"}, {"name": "model/tf_conv_112/sequential_12/conv2d_126/BiasAdd/ReadVariableOp", "shape": [640], "dtype": "float32"}, {"name": "model/tf_bottleneck_csp_3/tf_conv_69/conv2d_75/Conv2D/ReadVariableOp", "shape": [1, 1, 1280, 640], "dtype": "float32"}, {"name": "model/tf_bottleneck_csp_3/tf_conv_69/conv2d_75/BiasAdd/ReadVariableOp", "shape": [640], "dtype": "float32"}, {"name": "model/tf_bottleneck_csp_3/sequential_7/tf_bottleneck_28/tf_conv_71/conv2d_79/Conv2D/ReadVariableOp", "shape": [1, 1, 640, 640], "dtype": "float32"}, {"name": "model/tf_bottleneck_csp_3/sequential_7/tf_bottleneck_28/tf_conv_71/conv2d_79/BiasAdd/ReadVariableOp", "shape": [640], "dtype": "float32"}, {"name": "model/tf_bottleneck_csp_3/sequential_7/tf_bottleneck_28/tf_conv_72/conv2d_80/Conv2D/ReadVariableOp", "shape": [3, 3, 640, 640], "dtype": "float32"}, {"name": "model/tf_bottleneck_csp_3/sequential_7/tf_bottleneck_28/tf_conv_72/conv2d_80/BiasAdd/ReadVariableOp", "shape": [640], "dtype": "float32"}, {"name": "model/tf_bottleneck_csp_3/sequential_7/tf_bottleneck_29/tf_conv_73/conv2d_81/Conv2D/ReadVariableOp", "shape": [1, 1, 640, 640], "dtype": "float32"}, {"name": "model/tf_bottleneck_csp_3/sequential_7/tf_bottleneck_29/tf_conv_73/conv2d_81/BiasAdd/ReadVariableOp", "shape": [640], "dtype": "float32"}, {"name": "model/tf_bottleneck_csp_3/sequential_7/tf_bottleneck_29/tf_conv_74/conv2d_82/Conv2D/ReadVariableOp", "shape": [3, 3, 640, 640], "dtype": "float32"}, {"name": "model/tf_bottleneck_csp_3/sequential_7/tf_bottleneck_29/tf_conv_74/conv2d_82/BiasAdd/ReadVariableOp", "shape": [640], "dtype": "float32"}, {"name": "model/tf_bottleneck_csp_3/sequential_7/tf_bottleneck_30/tf_conv_75/conv2d_83/Conv2D/ReadVariableOp", "shape": [1, 1, 640, 640], "dtype": "float32"}, {"name": "model/tf_bottleneck_csp_3/sequential_7/tf_bottleneck_30/tf_conv_75/conv2d_83/BiasAdd/ReadVariableOp", "shape": [640], "dtype": "float32"}, {"name": "model/tf_bottleneck_csp_3/sequential_7/tf_bottleneck_30/tf_conv_76/conv2d_84/Conv2D/ReadVariableOp", "shape": [3, 3, 640, 640], "dtype": "float32"}, {"name": "model/tf_bottleneck_csp_3/sequential_7/tf_bottleneck_30/tf_conv_76/conv2d_84/BiasAdd/ReadVariableOp", "shape": [640], "dtype": "float32"}, {"name": "model/tf_bottleneck_csp_3/sequential_7/tf_bottleneck_31/tf_conv_77/conv2d_85/Conv2D/ReadVariableOp", "shape": [1, 1, 640, 640], "dtype": "float32"}, {"name": "model/tf_bottleneck_csp_3/sequential_7/tf_bottleneck_31/tf_conv_77/conv2d_85/BiasAdd/ReadVariableOp", "shape": [640], "dtype": "float32"}, {"name": "model/tf_bottleneck_csp_3/sequential_7/tf_bottleneck_31/tf_conv_78/conv2d_86/Conv2D/ReadVariableOp", "shape": [3, 3, 640, 640], "dtype": "float32"}, {"name": "model/tf_bottleneck_csp_3/sequential_7/tf_bottleneck_31/tf_conv_78/conv2d_86/BiasAdd/ReadVariableOp", "shape": [640], "dtype": "float32"}, {"name": "model/tf_bottleneck_csp_3/tf_conv2d_7/conv2d_77/Conv2D/ReadVariableOp", "shape": [1, 1, 640, 640], "dtype": "float32"}, {"name": "model/tf_bottleneck_csp_2/tf_conv_40/conv2d_44/Conv2D/ReadVariableOp", "shape": [1, 1, 640, 320], "dtype": "float32"}, {"name": "model/tf_bottleneck_csp_2/tf_conv_40/conv2d_44/BiasAdd/ReadVariableOp", "shape": [320], "dtype": "float32"}, {"name": "model/tf_bottleneck_csp_2/sequential_5/tf_bottleneck_16/tf_conv_42/conv2d_48/Conv2D/ReadVariableOp", "shape": [1, 1, 320, 320], "dtype": "float32"}, {"name": "model/tf_bottleneck_csp_2/sequential_5/tf_bottleneck_16/tf_conv_42/conv2d_48/BiasAdd/ReadVariableOp", "shape": [320], "dtype": "float32"}, {"name": "model/tf_bottleneck_csp_2/sequential_5/tf_bottleneck_16/tf_conv_43/conv2d_49/Conv2D/ReadVariableOp", "shape": [3, 3, 320, 320], "dtype": "float32"}, {"name": "model/tf_bottleneck_csp_2/sequential_5/tf_bottleneck_16/tf_conv_43/conv2d_49/BiasAdd/ReadVariableOp", "shape": [320], "dtype": "float32"}, {"name": "model/tf_bottleneck_csp_2/sequential_5/tf_bottleneck_17/tf_conv_44/conv2d_50/Conv2D/ReadVariableOp", "shape": [1, 1, 320, 320], "dtype": "float32"}, {"name": "model/tf_bottleneck_csp_2/sequential_5/tf_bottleneck_17/tf_conv_44/conv2d_50/BiasAdd/ReadVariableOp", "shape": [320], "dtype": "float32"}, {"name": "model/tf_bottleneck_csp_2/sequential_5/tf_bottleneck_17/tf_conv_45/conv2d_51/Conv2D/ReadVariableOp", "shape": [3, 3, 320, 320], "dtype": "float32"}, {"name": "model/tf_bottleneck_csp_2/sequential_5/tf_bottleneck_17/tf_conv_45/conv2d_51/BiasAdd/ReadVariableOp", "shape": [320], "dtype": "float32"}, {"name": "model/tf_bottleneck_csp_2/sequential_5/tf_bottleneck_18/tf_conv_46/conv2d_52/Conv2D/ReadVariableOp", "shape": [1, 1, 320, 320], "dtype": "float32"}, {"name": "model/tf_bottleneck_csp_2/sequential_5/tf_bottleneck_18/tf_conv_46/conv2d_52/BiasAdd/ReadVariableOp", "shape": [320], "dtype": "float32"}, {"name": "model/tf_bottleneck_csp_2/sequential_5/tf_bottleneck_18/tf_conv_47/conv2d_53/Conv2D/ReadVariableOp", "shape": [3, 3, 320, 320], "dtype": "float32"}, {"name": "model/tf_bottleneck_csp_2/sequential_5/tf_bottleneck_18/tf_conv_47/conv2d_53/BiasAdd/ReadVariableOp", "shape": [320], "dtype": "float32"}, {"name": "model/tf_bottleneck_csp_2/sequential_5/tf_bottleneck_19/tf_conv_48/conv2d_54/Conv2D/ReadVariableOp", "shape": [1, 1, 320, 320], "dtype": "float32"}, {"name": "model/tf_bottleneck_csp_2/sequential_5/tf_bottleneck_19/tf_conv_48/conv2d_54/BiasAdd/ReadVariableOp", "shape": [320], "dtype": "float32"}, {"name": "model/tf_bottleneck_csp_2/sequential_5/tf_bottleneck_19/tf_conv_49/conv2d_55/Conv2D/ReadVariableOp", "shape": [3, 3, 320, 320], "dtype": "float32"}, {"name": "model/tf_bottleneck_csp_2/sequential_5/tf_bottleneck_19/tf_conv_49/conv2d_55/BiasAdd/ReadVariableOp", "shape": [320], "dtype": "float32"}, {"name": "model/tf_bottleneck_csp_2/sequential_5/tf_bottleneck_20/tf_conv_50/conv2d_56/Conv2D/ReadVariableOp", "shape": [1, 1, 320, 320], "dtype": "float32"}, {"name": "model/tf_bottleneck_csp_2/sequential_5/tf_bottleneck_20/tf_conv_50/conv2d_56/BiasAdd/ReadVariableOp", "shape": [320], "dtype": "float32"}, {"name": "model/tf_bottleneck_csp_2/sequential_5/tf_bottleneck_20/tf_conv_51/conv2d_57/Conv2D/ReadVariableOp", "shape": [3, 3, 320, 320], "dtype": "float32"}, {"name": "model/tf_bottleneck_csp_2/sequential_5/tf_bottleneck_20/tf_conv_51/conv2d_57/BiasAdd/ReadVariableOp", "shape": [320], "dtype": "float32"}, {"name": "model/tf_bottleneck_csp_2/sequential_5/tf_bottleneck_21/tf_conv_52/conv2d_58/Conv2D/ReadVariableOp", "shape": [1, 1, 320, 320], "dtype": "float32"}, {"name": "model/tf_bottleneck_csp_2/sequential_5/tf_bottleneck_21/tf_conv_52/conv2d_58/BiasAdd/ReadVariableOp", "shape": [320], "dtype": "float32"}, {"name": "model/tf_bottleneck_csp_2/sequential_5/tf_bottleneck_21/tf_conv_53/conv2d_59/Conv2D/ReadVariableOp", "shape": [3, 3, 320, 320], "dtype": "float32"}, {"name": "model/tf_bottleneck_csp_2/sequential_5/tf_bottleneck_21/tf_conv_53/conv2d_59/BiasAdd/ReadVariableOp", "shape": [320], "dtype": "float32"}, {"name": "model/tf_bottleneck_csp_2/sequential_5/tf_bottleneck_22/tf_conv_54/conv2d_60/Conv2D/ReadVariableOp", "shape": [1, 1, 320, 320], "dtype": "float32"}, {"name": "model/tf_bottleneck_csp_2/sequential_5/tf_bottleneck_22/tf_conv_54/conv2d_60/BiasAdd/ReadVariableOp", "shape": [320], "dtype": "float32"}, {"name": "model/tf_bottleneck_csp_2/sequential_5/tf_bottleneck_22/tf_conv_55/conv2d_61/Conv2D/ReadVariableOp", "shape": [3, 3, 320, 320], "dtype": "float32"}, {"name": "model/tf_bottleneck_csp_2/sequential_5/tf_bottleneck_22/tf_conv_55/conv2d_61/BiasAdd/ReadVariableOp", "shape": [320], "dtype": "float32"}, {"name": "model/tf_bottleneck_csp_2/sequential_5/tf_bottleneck_23/tf_conv_56/conv2d_62/Conv2D/ReadVariableOp", "shape": [1, 1, 320, 320], "dtype": "float32"}, {"name": "model/tf_bottleneck_csp_2/sequential_5/tf_bottleneck_23/tf_conv_56/conv2d_62/BiasAdd/ReadVariableOp", "shape": [320], "dtype": "float32"}, {"name": "model/tf_bottleneck_csp_2/sequential_5/tf_bottleneck_23/tf_conv_57/conv2d_63/Conv2D/ReadVariableOp", "shape": [3, 3, 320, 320], "dtype": "float32"}, {"name": "model/tf_bottleneck_csp_2/sequential_5/tf_bottleneck_23/tf_conv_57/conv2d_63/BiasAdd/ReadVariableOp", "shape": [320], "dtype": "float32"}, {"name": "model/tf_bottleneck_csp_2/sequential_5/tf_bottleneck_24/tf_conv_58/conv2d_64/Conv2D/ReadVariableOp", "shape": [1, 1, 320, 320], "dtype": "float32"}, {"name": "model/tf_bottleneck_csp_2/sequential_5/tf_bottleneck_24/tf_conv_58/conv2d_64/BiasAdd/ReadVariableOp", "shape": [320], "dtype": "float32"}, {"name": "model/tf_bottleneck_csp_2/sequential_5/tf_bottleneck_24/tf_conv_59/conv2d_65/Conv2D/ReadVariableOp", "shape": [3, 3, 320, 320], "dtype": "float32"}, {"name": "model/tf_bottleneck_csp_2/sequential_5/tf_bottleneck_24/tf_conv_59/conv2d_65/BiasAdd/ReadVariableOp", "shape": [320], "dtype": "float32"}, {"name": "model/tf_bottleneck_csp_2/sequential_5/tf_bottleneck_25/tf_conv_60/conv2d_66/Conv2D/ReadVariableOp", "shape": [1, 1, 320, 320], "dtype": "float32"}, {"name": "model/tf_bottleneck_csp_2/sequential_5/tf_bottleneck_25/tf_conv_60/conv2d_66/BiasAdd/ReadVariableOp", "shape": [320], "dtype": "float32"}, {"name": "model/tf_bottleneck_csp_2/sequential_5/tf_bottleneck_25/tf_conv_61/conv2d_67/Conv2D/ReadVariableOp", "shape": [3, 3, 320, 320], "dtype": "float32"}, {"name": "model/tf_bottleneck_csp_2/sequential_5/tf_bottleneck_25/tf_conv_61/conv2d_67/BiasAdd/ReadVariableOp", "shape": [320], "dtype": "float32"}, {"name": "model/tf_bottleneck_csp_2/sequential_5/tf_bottleneck_26/tf_conv_62/conv2d_68/Conv2D/ReadVariableOp", "shape": [1, 1, 320, 320], "dtype": "float32"}, {"name": "model/tf_bottleneck_csp_2/sequential_5/tf_bottleneck_26/tf_conv_62/conv2d_68/BiasAdd/ReadVariableOp", "shape": [320], "dtype": "float32"}, {"name": "model/tf_bottleneck_csp_2/sequential_5/tf_bottleneck_26/tf_conv_63/conv2d_69/Conv2D/ReadVariableOp", "shape": [3, 3, 320, 320], "dtype": "float32"}, {"name": "model/tf_bottleneck_csp_2/sequential_5/tf_bottleneck_26/tf_conv_63/conv2d_69/BiasAdd/ReadVariableOp", "shape": [320], "dtype": "float32"}, {"name": "model/tf_bottleneck_csp_2/sequential_5/tf_bottleneck_27/tf_conv_64/conv2d_70/Conv2D/ReadVariableOp", "shape": [1, 1, 320, 320], "dtype": "float32"}, {"name": "model/tf_bottleneck_csp_2/sequential_5/tf_bottleneck_27/tf_conv_64/conv2d_70/BiasAdd/ReadVariableOp", "shape": [320], "dtype": "float32"}, {"name": "model/tf_bottleneck_csp_2/sequential_5/tf_bottleneck_27/tf_conv_65/conv2d_71/Conv2D/ReadVariableOp", "shape": [3, 3, 320, 320], "dtype": "float32"}, {"name": "model/tf_bottleneck_csp_2/sequential_5/tf_bottleneck_27/tf_conv_65/conv2d_71/BiasAdd/ReadVariableOp", "shape": [320], "dtype": "float32"}, {"name": "model/tf_bottleneck_csp_2/tf_conv2d_5/conv2d_46/Conv2D/ReadVariableOp", "shape": [1, 1, 320, 320], "dtype": "float32"}, {"name": "model/tf_bottleneck_csp_1/tf_conv_13/conv2d_15/Conv2D/ReadVariableOp", "shape": [1, 1, 320, 160], "dtype": "float32"}, {"name": "model/tf_bottleneck_csp_1/tf_conv_13/conv2d_15/BiasAdd/ReadVariableOp", "shape": [160], "dtype": "float32"}, {"name": "model/tf_bottleneck_csp_1/sequential_3/tf_bottleneck_4/tf_conv_15/conv2d_19/Conv2D/ReadVariableOp", "shape": [1, 1, 160, 160], "dtype": "float32"}, {"name": "model/tf_bottleneck_csp_1/sequential_3/tf_bottleneck_4/tf_conv_15/conv2d_19/BiasAdd/ReadVariableOp", "shape": [160], "dtype": "float32"}, {"name": "model/tf_bottleneck_csp_1/sequential_3/tf_bottleneck_4/tf_conv_16/conv2d_20/Conv2D/ReadVariableOp", "shape": [3, 3, 160, 160], "dtype": "float32"}, {"name": "model/tf_bottleneck_csp_1/sequential_3/tf_bottleneck_4/tf_conv_16/conv2d_20/BiasAdd/ReadVariableOp", "shape": [160], "dtype": "float32"}, {"name": "model/tf_bottleneck_csp_1/sequential_3/tf_bottleneck_5/tf_conv_17/conv2d_21/Conv2D/ReadVariableOp", "shape": [1, 1, 160, 160], "dtype": "float32"}, {"name": "model/tf_bottleneck_csp_1/sequential_3/tf_bottleneck_5/tf_conv_17/conv2d_21/BiasAdd/ReadVariableOp", "shape": [160], "dtype": "float32"}, {"name": "model/tf_bottleneck_csp_1/sequential_3/tf_bottleneck_5/tf_conv_18/conv2d_22/Conv2D/ReadVariableOp", "shape": [3, 3, 160, 160], "dtype": "float32"}, {"name": "model/tf_bottleneck_csp_1/sequential_3/tf_bottleneck_5/tf_conv_18/conv2d_22/BiasAdd/ReadVariableOp", "shape": [160], "dtype": "float32"}, {"name": "model/tf_bottleneck_csp_1/sequential_3/tf_bottleneck_6/tf_conv_19/conv2d_23/Conv2D/ReadVariableOp", "shape": [1, 1, 160, 160], "dtype": "float32"}, {"name": "model/tf_bottleneck_csp_1/sequential_3/tf_bottleneck_6/tf_conv_19/conv2d_23/BiasAdd/ReadVariableOp", "shape": [160], "dtype": "float32"}, {"name": "model/tf_bottleneck_csp_1/sequential_3/tf_bottleneck_6/tf_conv_20/conv2d_24/Conv2D/ReadVariableOp", "shape": [3, 3, 160, 160], "dtype": "float32"}, {"name": "model/tf_bottleneck_csp_1/sequential_3/tf_bottleneck_6/tf_conv_20/conv2d_24/BiasAdd/ReadVariableOp", "shape": [160], "dtype": "float32"}, {"name": "model/tf_bottleneck_csp_1/sequential_3/tf_bottleneck_7/tf_conv_21/conv2d_25/Conv2D/ReadVariableOp", "shape": [1, 1, 160, 160], "dtype": "float32"}, {"name": "model/tf_bottleneck_csp_1/sequential_3/tf_bottleneck_7/tf_conv_21/conv2d_25/BiasAdd/ReadVariableOp", "shape": [160], "dtype": "float32"}, {"name": "model/tf_bottleneck_csp_1/sequential_3/tf_bottleneck_7/tf_conv_22/conv2d_26/Conv2D/ReadVariableOp", "shape": [3, 3, 160, 160], "dtype": "float32"}, {"name": "model/tf_bottleneck_csp_1/sequential_3/tf_bottleneck_7/tf_conv_22/conv2d_26/BiasAdd/ReadVariableOp", "shape": [160], "dtype": "float32"}, {"name": "model/tf_bottleneck_csp_1/sequential_3/tf_bottleneck_8/tf_conv_23/conv2d_27/Conv2D/ReadVariableOp", "shape": [1, 1, 160, 160], "dtype": "float32"}, {"name": "model/tf_bottleneck_csp_1/sequential_3/tf_bottleneck_8/tf_conv_23/conv2d_27/BiasAdd/ReadVariableOp", "shape": [160], "dtype": "float32"}, {"name": "model/tf_bottleneck_csp_1/sequential_3/tf_bottleneck_8/tf_conv_24/conv2d_28/Conv2D/ReadVariableOp", "shape": [3, 3, 160, 160], "dtype": "float32"}, {"name": "model/tf_bottleneck_csp_1/sequential_3/tf_bottleneck_8/tf_conv_24/conv2d_28/BiasAdd/ReadVariableOp", "shape": [160], "dtype": "float32"}, {"name": "model/tf_bottleneck_csp_1/sequential_3/tf_bottleneck_9/tf_conv_25/conv2d_29/Conv2D/ReadVariableOp", "shape": [1, 1, 160, 160], "dtype": "float32"}, {"name": "model/tf_bottleneck_csp_1/sequential_3/tf_bottleneck_9/tf_conv_25/conv2d_29/BiasAdd/ReadVariableOp", "shape": [160], "dtype": "float32"}, {"name": "model/tf_bottleneck_csp_1/sequential_3/tf_bottleneck_9/tf_conv_26/conv2d_30/Conv2D/ReadVariableOp", "shape": [3, 3, 160, 160], "dtype": "float32"}, {"name": "model/tf_bottleneck_csp_1/sequential_3/tf_bottleneck_9/tf_conv_26/conv2d_30/BiasAdd/ReadVariableOp", "shape": [160], "dtype": "float32"}, {"name": "model/tf_bottleneck_csp_1/sequential_3/tf_bottleneck_10/tf_conv_27/conv2d_31/Conv2D/ReadVariableOp", "shape": [1, 1, 160, 160], "dtype": "float32"}, {"name": "model/tf_bottleneck_csp_1/sequential_3/tf_bottleneck_10/tf_conv_27/conv2d_31/BiasAdd/ReadVariableOp", "shape": [160], "dtype": "float32"}, {"name": "model/tf_bottleneck_csp_1/sequential_3/tf_bottleneck_10/tf_conv_28/conv2d_32/Conv2D/ReadVariableOp", "shape": [3, 3, 160, 160], "dtype": "float32"}, {"name": "model/tf_bottleneck_csp_1/sequential_3/tf_bottleneck_10/tf_conv_28/conv2d_32/BiasAdd/ReadVariableOp", "shape": [160], "dtype": "float32"}, {"name": "model/tf_bottleneck_csp_1/sequential_3/tf_bottleneck_11/tf_conv_29/conv2d_33/Conv2D/ReadVariableOp", "shape": [1, 1, 160, 160], "dtype": "float32"}, {"name": "model/tf_bottleneck_csp_1/sequential_3/tf_bottleneck_11/tf_conv_29/conv2d_33/BiasAdd/ReadVariableOp", "shape": [160], "dtype": "float32"}, {"name": "model/tf_bottleneck_csp_1/sequential_3/tf_bottleneck_11/tf_conv_30/conv2d_34/Conv2D/ReadVariableOp", "shape": [3, 3, 160, 160], "dtype": "float32"}, {"name": "model/tf_bottleneck_csp_1/sequential_3/tf_bottleneck_11/tf_conv_30/conv2d_34/BiasAdd/ReadVariableOp", "shape": [160], "dtype": "float32"}, {"name": "model/tf_bottleneck_csp_1/sequential_3/tf_bottleneck_12/tf_conv_31/conv2d_35/Conv2D/ReadVariableOp", "shape": [1, 1, 160, 160], "dtype": "float32"}, {"name": "model/tf_bottleneck_csp_1/sequential_3/tf_bottleneck_12/tf_conv_31/conv2d_35/BiasAdd/ReadVariableOp", "shape": [160], "dtype": "float32"}, {"name": "model/tf_bottleneck_csp_1/sequential_3/tf_bottleneck_12/tf_conv_32/conv2d_36/Conv2D/ReadVariableOp", "shape": [3, 3, 160, 160], "dtype": "float32"}, {"name": "model/tf_bottleneck_csp_1/sequential_3/tf_bottleneck_12/tf_conv_32/conv2d_36/BiasAdd/ReadVariableOp", "shape": [160], "dtype": "float32"}, {"name": "model/tf_bottleneck_csp_1/sequential_3/tf_bottleneck_13/tf_conv_33/conv2d_37/Conv2D/ReadVariableOp", "shape": [1, 1, 160, 160], "dtype": "float32"}, {"name": "model/tf_bottleneck_csp_1/sequential_3/tf_bottleneck_13/tf_conv_33/conv2d_37/BiasAdd/ReadVariableOp", "shape": [160], "dtype": "float32"}, {"name": "model/tf_bottleneck_csp_1/sequential_3/tf_bottleneck_13/tf_conv_34/conv2d_38/Conv2D/ReadVariableOp", "shape": [3, 3, 160, 160], "dtype": "float32"}, {"name": "model/tf_bottleneck_csp_1/sequential_3/tf_bottleneck_13/tf_conv_34/conv2d_38/BiasAdd/ReadVariableOp", "shape": [160], "dtype": "float32"}, {"name": "model/tf_bottleneck_csp_1/sequential_3/tf_bottleneck_14/tf_conv_35/conv2d_39/Conv2D/ReadVariableOp", "shape": [1, 1, 160, 160], "dtype": "float32"}, {"name": "model/tf_bottleneck_csp_1/sequential_3/tf_bottleneck_14/tf_conv_35/conv2d_39/BiasAdd/ReadVariableOp", "shape": [160], "dtype": "float32"}, {"name": "model/tf_bottleneck_csp_1/sequential_3/tf_bottleneck_14/tf_conv_36/conv2d_40/Conv2D/ReadVariableOp", "shape": [3, 3, 160, 160], "dtype": "float32"}, {"name": "model/tf_bottleneck_csp_1/sequential_3/tf_bottleneck_14/tf_conv_36/conv2d_40/BiasAdd/ReadVariableOp", "shape": [160], "dtype": "float32"}, {"name": "model/tf_bottleneck_csp_1/sequential_3/tf_bottleneck_15/tf_conv_37/conv2d_41/Conv2D/ReadVariableOp", "shape": [1, 1, 160, 160], "dtype": "float32"}, {"name": "model/tf_bottleneck_csp_1/sequential_3/tf_bottleneck_15/tf_conv_37/conv2d_41/BiasAdd/ReadVariableOp", "shape": [160], "dtype": "float32"}, {"name": "model/tf_bottleneck_csp_1/sequential_3/tf_bottleneck_15/tf_conv_38/conv2d_42/Conv2D/ReadVariableOp", "shape": [3, 3, 160, 160], "dtype": "float32"}, {"name": "model/tf_bottleneck_csp_1/sequential_3/tf_bottleneck_15/tf_conv_38/conv2d_42/BiasAdd/ReadVariableOp", "shape": [160], "dtype": "float32"}, {"name": "model/tf_bottleneck_csp_1/tf_conv2d_3/conv2d_17/Conv2D/ReadVariableOp", "shape": [1, 1, 160, 160], "dtype": "float32"}, {"name": "model/tf_bottleneck_csp/tf_conv_2/conv2d_2/Conv2D/ReadVariableOp", "shape": [1, 1, 160, 80], "dtype": "float32"}, {"name": "model/tf_bottleneck_csp/tf_conv_2/conv2d_2/BiasAdd/ReadVariableOp", "shape": [80], "dtype": "float32"}, {"name": "model/tf_bottleneck_csp/sequential_1/tf_bottleneck/tf_conv_4/conv2d_6/Conv2D/ReadVariableOp", "shape": [1, 1, 80, 80], "dtype": "float32"}, {"name": "model/tf_bottleneck_csp/sequential_1/tf_bottleneck/tf_conv_4/conv2d_6/BiasAdd/ReadVariableOp", "shape": [80], "dtype": "float32"}, {"name": "model/tf_bottleneck_csp/sequential_1/tf_bottleneck/tf_conv_5/conv2d_7/Conv2D/ReadVariableOp", "shape": [3, 3, 80, 80], "dtype": "float32"}, {"name": "model/tf_bottleneck_csp/sequential_1/tf_bottleneck/tf_conv_5/conv2d_7/BiasAdd/ReadVariableOp", "shape": [80], "dtype": "float32"}, {"name": "model/tf_bottleneck_csp/sequential_1/tf_bottleneck_1/tf_conv_6/conv2d_8/Conv2D/ReadVariableOp", "shape": [1, 1, 80, 80], "dtype": "float32"}, {"name": "model/tf_bottleneck_csp/sequential_1/tf_bottleneck_1/tf_conv_6/conv2d_8/BiasAdd/ReadVariableOp", "shape": [80], "dtype": "float32"}, {"name": "model/tf_bottleneck_csp/sequential_1/tf_bottleneck_1/tf_conv_7/conv2d_9/Conv2D/ReadVariableOp", "shape": [3, 3, 80, 80], "dtype": "float32"}, {"name": "model/tf_bottleneck_csp/sequential_1/tf_bottleneck_1/tf_conv_7/conv2d_9/BiasAdd/ReadVariableOp", "shape": [80], "dtype": "float32"}, {"name": "model/tf_bottleneck_csp/sequential_1/tf_bottleneck_2/tf_conv_8/conv2d_10/Conv2D/ReadVariableOp", "shape": [1, 1, 80, 80], "dtype": "float32"}, {"name": "model/tf_bottleneck_csp/sequential_1/tf_bottleneck_2/tf_conv_8/conv2d_10/BiasAdd/ReadVariableOp", "shape": [80], "dtype": "float32"}, {"name": "model/tf_bottleneck_csp/sequential_1/tf_bottleneck_2/tf_conv_9/conv2d_11/Conv2D/ReadVariableOp", "shape": [3, 3, 80, 80], "dtype": "float32"}, {"name": "model/tf_bottleneck_csp/sequential_1/tf_bottleneck_2/tf_conv_9/conv2d_11/BiasAdd/ReadVariableOp", "shape": [80], "dtype": "float32"}, {"name": "model/tf_bottleneck_csp/sequential_1/tf_bottleneck_3/tf_conv_10/conv2d_12/Conv2D/ReadVariableOp", "shape": [1, 1, 80, 80], "dtype": "float32"}, {"name": "model/tf_bottleneck_csp/sequential_1/tf_bottleneck_3/tf_conv_10/conv2d_12/BiasAdd/ReadVariableOp", "shape": [80], "dtype": "float32"}, {"name": "model/tf_bottleneck_csp/sequential_1/tf_bottleneck_3/tf_conv_11/conv2d_13/Conv2D/ReadVariableOp", "shape": [3, 3, 80, 80], "dtype": "float32"}, {"name": "model/tf_bottleneck_csp/sequential_1/tf_bottleneck_3/tf_conv_11/conv2d_13/BiasAdd/ReadVariableOp", "shape": [80], "dtype": "float32"}, {"name": "model/tf_bottleneck_csp/tf_conv2d_1/conv2d_4/Conv2D/ReadVariableOp", "shape": [1, 1, 80, 80], "dtype": "float32"}, {"name": "model/tf_focus/strided_slice/stack", "shape": [4], "dtype": "int32"}, {"name": "model/tf_focus/strided_slice/stack_1", "shape": [4], "dtype": "int32"}, {"name": "model/tf_focus/strided_slice/stack_2", "shape": [4], "dtype": "int32"}, {"name": "model/tf_focus/strided_slice_1/stack", "shape": [4], "dtype": "int32"}, {"name": "model/tf_focus/strided_slice_1/stack_1", "shape": [4], "dtype": "int32"}, {"name": "model/tf_focus/strided_slice_1/stack_2", "shape": [4], "dtype": "int32"}, {"name": "model/tf_focus/strided_slice_2/stack", "shape": [4], "dtype": "int32"}, {"name": "model/tf_focus/strided_slice_2/stack_1", "shape": [4], "dtype": "int32"}, {"name": "model/tf_focus/strided_slice_2/stack_2", "shape": [4], "dtype": "int32"}, {"name": "model/tf_focus/strided_slice_3/stack", "shape": [4], "dtype": "int32"}, {"name": "model/tf_focus/strided_slice_3/stack_1", "shape": [4], "dtype": "int32"}, {"name": "model/tf_focus/strided_slice_3/stack_2", "shape": [4], "dtype": "int32"}, {"name": "model/tf_focus/concat/axis", "shape": [], "dtype": "int32"}, {"name": "model/tf_focus/tf_conv/conv2d/Conv2D/ReadVariableOp", "shape": [3, 3, 12, 80], "dtype": "float32"}, {"name": "model/tf_focus/tf_conv/conv2d/BiasAdd/ReadVariableOp", "shape": [80], "dtype": "float32"}, {"name": "model/tf_conv_1/sequential/tf_pad/Pad/paddings", "shape": [4, 2], "dtype": "int32"}, {"name": "model/tf_conv_1/sequential/conv2d_1/Conv2D/ReadVariableOp", "shape": [3, 3, 80, 160], "dtype": "float32"}, {"name": "model/tf_conv_1/sequential/conv2d_1/BiasAdd/ReadVariableOp", "shape": [160], "dtype": "float32"}, {"name": "model/tf_bottleneck_csp/tf_conv2d/conv2d_3/Conv2D/ReadVariableOp", "shape": [1, 1, 160, 80], "dtype": "float32"}, {"name": "model/tf_bottleneck_csp/concat/axis", "shape": [], "dtype": "int32"}, {"name": "model/tf_bottleneck_csp/tf_conv_3/conv2d_5/Conv2D/ReadVariableOp", "shape": [1, 1, 160, 160], "dtype": "float32"}, {"name": "model/tf_bottleneck_csp/tf_conv_3/conv2d_5/BiasAdd/ReadVariableOp", "shape": [160], "dtype": "float32"}, {"name": "model/tf_conv_12/sequential_2/tf_pad_1/Pad/paddings", "shape": [4, 2], "dtype": "int32"}, {"name": "model/tf_conv_12/sequential_2/conv2d_14/Conv2D/ReadVariableOp", "shape": [3, 3, 160, 320], "dtype": "float32"}, {"name": "model/tf_conv_12/sequential_2/conv2d_14/BiasAdd/ReadVariableOp", "shape": [320], "dtype": "float32"}, {"name": "model/tf_bottleneck_csp_1/tf_conv2d_2/conv2d_16/Conv2D/ReadVariableOp", "shape": [1, 1, 320, 160], "dtype": "float32"}, {"name": "model/tf_bottleneck_csp_1/concat/axis", "shape": [], "dtype": "int32"}, {"name": "model/tf_bottleneck_csp_1/tf_conv_14/conv2d_18/Conv2D/ReadVariableOp", "shape": [1, 1, 320, 320], "dtype": "float32"}, {"name": "model/tf_bottleneck_csp_1/tf_conv_14/conv2d_18/BiasAdd/ReadVariableOp", "shape": [320], "dtype": "float32"}, {"name": "model/tf_conv_39/sequential_4/tf_pad_2/Pad/paddings", "shape": [4, 2], "dtype": "int32"}, {"name": "model/tf_conv_39/sequential_4/conv2d_43/Conv2D/ReadVariableOp", "shape": [3, 3, 320, 640], "dtype": "float32"}, {"name": "model/tf_conv_39/sequential_4/conv2d_43/BiasAdd/ReadVariableOp", "shape": [640], "dtype": "float32"}, {"name": "model/tf_bottleneck_csp_2/tf_conv2d_4/conv2d_45/Conv2D/ReadVariableOp", "shape": [1, 1, 640, 320], "dtype": "float32"}, {"name": "model/tf_bottleneck_csp_2/concat/axis", "shape": [], "dtype": "int32"}, {"name": "model/tf_bottleneck_csp_2/tf_conv_41/conv2d_47/Conv2D/ReadVariableOp", "shape": [1, 1, 640, 640], "dtype": "float32"}, {"name": "model/tf_bottleneck_csp_2/tf_conv_41/conv2d_47/BiasAdd/ReadVariableOp", "shape": [640], "dtype": "float32"}, {"name": "model/tf_conv_66/sequential_6/tf_pad_3/Pad/paddings", "shape": [4, 2], "dtype": "int32"}, {"name": "model/tf_conv_66/sequential_6/conv2d_72/Conv2D/ReadVariableOp", "shape": [3, 3, 640, 1280], "dtype": "float32"}, {"name": "model/tf_conv_66/sequential_6/conv2d_72/BiasAdd/ReadVariableOp", "shape": [1280], "dtype": "float32"}, {"name": "model/tfspp/tf_conv_67/conv2d_73/Conv2D/ReadVariableOp", "shape": [1, 1, 1280, 640], "dtype": "float32"}, {"name": "model/tfspp/tf_conv_67/conv2d_73/BiasAdd/ReadVariableOp", "shape": [640], "dtype": "float32"}, {"name": "model/tfspp/concat/axis", "shape": [], "dtype": "int32"}, {"name": "model/tfspp/tf_conv_68/conv2d_74/Conv2D/ReadVariableOp", "shape": [1, 1, 2560, 1280], "dtype": "float32"}, {"name": "model/tfspp/tf_conv_68/conv2d_74/BiasAdd/ReadVariableOp", "shape": [1280], "dtype": "float32"}, {"name": "model/tf_bottleneck_csp_3/tf_conv2d_6/conv2d_76/Conv2D/ReadVariableOp", "shape": [1, 1, 1280, 640], "dtype": "float32"}, {"name": "model/tf_bottleneck_csp_3/concat/axis", "shape": [], "dtype": "int32"}, {"name": "model/tf_bottleneck_csp_3/tf_conv_70/conv2d_78/Conv2D/ReadVariableOp", "shape": [1, 1, 1280, 1280], "dtype": "float32"}, {"name": "model/tf_bottleneck_csp_3/tf_conv_70/conv2d_78/BiasAdd/ReadVariableOp", "shape": [1280], "dtype": "float32"}, {"name": "model/tf_conv_79/conv2d_87/Conv2D/ReadVariableOp", "shape": [1, 1, 1280, 640], "dtype": "float32"}, {"name": "model/tf_conv_79/conv2d_87/BiasAdd/ReadVariableOp", "shape": [640], "dtype": "float32"}, {"name": "model/tf_concat_3/concat/axis", "shape": [], "dtype": "int32"}, {"name": "model/tf_bottleneck_csp_7/tf_conv2d_14/conv2d_128/Conv2D/ReadVariableOp", "shape": [1, 1, 1280, 640], "dtype": "float32"}, {"name": "model/tf_bottleneck_csp_7/concat/axis", "shape": [], "dtype": "int32"}, {"name": "model/tf_bottleneck_csp_7/tf_conv_114/conv2d_130/Conv2D/ReadVariableOp", "shape": [1, 1, 1280, 1280], "dtype": "float32"}, {"name": "model/tf_bottleneck_csp_7/tf_conv_114/conv2d_130/BiasAdd/ReadVariableOp", "shape": [1280], "dtype": "float32"}, {"name": "model/tf_detect/tf_conv2d_18/conv2d_141/Conv2D/ReadVariableOp", "shape": [1, 1, 1280, 255], "dtype": "float32"}, {"name": "model/tf_detect/tf_conv2d_18/conv2d_141/BiasAdd/ReadVariableOp", "shape": [255], "dtype": "float32"}, {"name": "model/tf_detect/Reshape_4/shape_1", "shape": [4], "dtype": "int32"}, {"name": "model/tf_detect/strided_slice_20/stack", "shape": [2], "dtype": "int32"}, {"name": "model/tf_detect/strided_slice_20/stack_1", "shape": [2], "dtype": "int32"}, {"name": "model/tf_detect/strided_slice_20/stack_2", "shape": [2], "dtype": "int32"}, {"name": "model/tf_detect/concat_2/axis", "shape": [], "dtype": "int32"}, {"name": "model/tf_detect/Reshape_5/shape_1", "shape": [3], "dtype": "int32"}, {"name": "model/tf_detect/concat_3/axis", "shape": [], "dtype": "int32"}, {"name": "model/tf.__operators__.getitem_2/strided_slice/stack", "shape": [3], "dtype": "int32"}, {"name": "model/tf.__operators__.getitem_2/strided_slice/stack_1", "shape": [3], "dtype": "int32"}, {"name": "model/tf.__operators__.getitem_2/strided_slice/stack_2", "shape": [3], "dtype": "int32"}, {"name": "model/agnostic_nms_1/agnostic_nms/TensorArrayUnstack_2/TensorListFromTensor/element_shape", "shape": [2], "dtype": "int32"}, {"name": "model/agnostic_nms_1/agnostic_nms/while/maximum_iterations", "shape": [], "dtype": "int32"}, {"name": "model/agnostic_nms_1/agnostic_nms/Const", "shape": [], "dtype": "int32"}, {"name": "model/agnostic_nms_1/agnostic_nms/while/loop_counter", "shape": [], "dtype": "int32"}, {"name": "model/agnostic_nms_1/agnostic_nms/TensorArrayV2Stack_3/Const", "shape": [0], "dtype": "int32"}, {"name": "model/tf_bottleneck_csp_6/tfbn_6/batch_normalization_6/FusedBatchNormV3/Scaled", "shape": [640], "dtype": "float32"}, {"name": "model/tf_bottleneck_csp_6/tfbn_6/batch_normalization_6/FusedBatchNormV3/Offset", "shape": [640], "dtype": "float32"}, {"name": "model/tf_bottleneck_csp_5/tfbn_5/batch_normalization_5/FusedBatchNormV3/Scaled", "shape": [320], "dtype": "float32"}, {"name": "model/tf_bottleneck_csp_5/tfbn_5/batch_normalization_5/FusedBatchNormV3/Offset", "shape": [320], "dtype": "float32"}, {"name": "model/tf_bottleneck_csp_4/tfbn_4/batch_normalization_4/FusedBatchNormV3/Scaled", "shape": [640], "dtype": "float32"}, {"name": "model/tf_bottleneck_csp_4/tfbn_4/batch_normalization_4/FusedBatchNormV3/Offset", "shape": [640], "dtype": "float32"}, {"name": "model/tf_bottleneck_csp_3/tfbn_3/batch_normalization_3/FusedBatchNormV3/Scaled", "shape": [1280], "dtype": "float32"}, {"name": "model/tf_bottleneck_csp_3/tfbn_3/batch_normalization_3/FusedBatchNormV3/Offset", "shape": [1280], "dtype": "float32"}, {"name": "model/tf_bottleneck_csp_2/tfbn_2/batch_normalization_2/FusedBatchNormV3/Scaled", "shape": [640], "dtype": "float32"}, {"name": "model/tf_bottleneck_csp_2/tfbn_2/batch_normalization_2/FusedBatchNormV3/Offset", "shape": [640], "dtype": "float32"}, {"name": "model/tf_bottleneck_csp_1/tfbn_1/batch_normalization_1/FusedBatchNormV3/Scaled", "shape": [320], "dtype": "float32"}, {"name": "model/tf_bottleneck_csp_1/tfbn_1/batch_normalization_1/FusedBatchNormV3/Offset", "shape": [320], "dtype": "float32"}, {"name": "model/tf_bottleneck_csp/tfbn/batch_normalization/FusedBatchNormV3/Scaled", "shape": [160], "dtype": "float32"}, {"name": "model/tf_bottleneck_csp/tfbn/batch_normalization/FusedBatchNormV3/Offset", "shape": [160], "dtype": "float32"}, {"name": "model/tf_bottleneck_csp_7/tfbn_7/batch_normalization_7/FusedBatchNormV3/Scaled", "shape": [1280], "dtype": "float32"}, {"name": "model/tf_bottleneck_csp_7/tfbn_7/batch_normalization_7/FusedBatchNormV3/Offset", "shape": [1280], "dtype": "float32"}, {"name": "model/agnostic_nms_1/agnostic_nms/while/cond/_0/model/agnostic_nms_1/agnostic_nms/while/Less/y", "shape": [], "dtype": "int32"}, {"name": "model/agnostic_nms_1/agnostic_nms/while/body/_1/model/agnostic_nms_1/agnostic_nms/while/Pad/paddings/0/0", "shape": [], "dtype": "int32"}, {"name": "model/agnostic_nms_1/agnostic_nms/while/body/_1/model/agnostic_nms_1/agnostic_nms/while/sub/x", "shape": [], "dtype": "int32"}, {"name": "model/agnostic_nms_1/agnostic_nms/while/body/_1/model/agnostic_nms_1/agnostic_nms/while/strided_slice/stack", "shape": [1], "dtype": "int32"}, {"name": "model/agnostic_nms_1/agnostic_nms/while/body/_1/model/agnostic_nms_1/agnostic_nms/while/strided_slice/stack_1", "shape": [1], "dtype": "int32"}, {"name": "model/agnostic_nms_1/agnostic_nms/while/body/_1/model/agnostic_nms_1/agnostic_nms/while/strided_slice/stack_2", "shape": [1], "dtype": "int32"}, {"name": "model/agnostic_nms_1/agnostic_nms/while/body/_1/model/agnostic_nms_1/agnostic_nms/while/Pad/paddings/1_1", "shape": [2], "dtype": "int32"}, {"name": "model/agnostic_nms_1/agnostic_nms/while/body/_1/model/agnostic_nms_1/agnostic_nms/while/GatherV2_1/axis", "shape": [], "dtype": "int32"}, {"name": "model/agnostic_nms_1/agnostic_nms/while/body/_1/model/agnostic_nms_1/agnostic_nms/while/PadV2/paddings/0/0", "shape": [], "dtype": "int32"}, {"name": "model/agnostic_nms_1/agnostic_nms/while/body/_1/model/agnostic_nms_1/agnostic_nms/while/sub_1/x", "shape": [], "dtype": "int32"}, {"name": "model/agnostic_nms_1/agnostic_nms/while/body/_1/model/agnostic_nms_1/agnostic_nms/while/strided_slice_1/stack", "shape": [1], "dtype": "int32"}, {"name": "model/agnostic_nms_1/agnostic_nms/while/body/_1/model/agnostic_nms_1/agnostic_nms/while/strided_slice_1/stack_1", "shape": [1], "dtype": "int32"}, {"name": "model/agnostic_nms_1/agnostic_nms/while/body/_1/model/agnostic_nms_1/agnostic_nms/while/strided_slice_1/stack_2", "shape": [1], "dtype": "int32"}, {"name": "model/agnostic_nms_1/agnostic_nms/while/body/_1/model/agnostic_nms_1/agnostic_nms/while/PadV2/constant_values", "shape": [], "dtype": "float32"}, {"name": "model/agnostic_nms_1/agnostic_nms/while/body/_1/model/agnostic_nms_1/agnostic_nms/while/TensorArrayV2Read_1/TensorListGetItem/element_shape", "shape": [2], "dtype": "int32"}, {"name": "model/agnostic_nms_1/agnostic_nms/while/body/_1/model/agnostic_nms_1/agnostic_nms/while/ArgMax/dimension", "shape": [], "dtype": "int32"}, {"name": "model/agnostic_nms_1/agnostic_nms/while/body/_1/model/agnostic_nms_1/agnostic_nms/while/GatherV2_2/axis", "shape": [], "dtype": "int32"}, {"name": "model/agnostic_nms_1/agnostic_nms/while/body/_1/model/agnostic_nms_1/agnostic_nms/while/PadV2_1/paddings/0/0", "shape": [], "dtype": "int32"}, {"name": "model/agnostic_nms_1/agnostic_nms/while/body/_1/model/agnostic_nms_1/agnostic_nms/while/sub_2/x", "shape": [], "dtype": "int32"}, {"name": "model/agnostic_nms_1/agnostic_nms/while/body/_1/model/agnostic_nms_1/agnostic_nms/while/GatherV2/axis", "shape": [], "dtype": "int32"}, {"name": "model/agnostic_nms_1/agnostic_nms/while/body/_1/model/agnostic_nms_1/agnostic_nms/while/strided_slice_2/stack", "shape": [1], "dtype": "int32"}, {"name": "model/agnostic_nms_1/agnostic_nms/while/body/_1/model/agnostic_nms_1/agnostic_nms/while/strided_slice_2/stack_1", "shape": [1], "dtype": "int32"}, {"name": "model/agnostic_nms_1/agnostic_nms/while/body/_1/model/agnostic_nms_1/agnostic_nms/while/strided_slice_2/stack_2", "shape": [1], "dtype": "int32"}, {"name": "model/agnostic_nms_1/agnostic_nms/while/body/_1/model/agnostic_nms_1/agnostic_nms/while/PadV2_1/constant_values", "shape": [], "dtype": "float32"}, {"name": "model/agnostic_nms_1/agnostic_nms/while/body/_1/model/agnostic_nms_1/agnostic_nms/while/TensorArrayV2Read/TensorListGetItem/element_shape", "shape": [2], "dtype": "int32"}, {"name": "model/agnostic_nms_1/agnostic_nms/while/body/_1/model/agnostic_nms_1/agnostic_nms/while/TensorArrayV2Read_2/TensorListGetItem/element_shape", "shape": [2], "dtype": "int32"}, {"name": "model/agnostic_nms_1/agnostic_nms/while/body/_1/model/agnostic_nms_1/agnostic_nms/while/Max/reduction_indices", "shape": [], "dtype": "int32"}, {"name": "model/agnostic_nms_1/agnostic_nms/while/body/_1/model/agnostic_nms_1/agnostic_nms/while/non_max_suppression/NonMaxSuppressionV3/max_output_size", "shape": [], "dtype": "int32"}, {"name": "model/agnostic_nms_1/agnostic_nms/while/body/_1/model/agnostic_nms_1/agnostic_nms/while/non_max_suppression/iou_threshold", "shape": [], "dtype": "float32"}, {"name": "model/agnostic_nms_1/agnostic_nms/while/body/_1/model/agnostic_nms_1/agnostic_nms/while/non_max_suppression/score_threshold", "shape": [], "dtype": "float32"}, {"name": "model/agnostic_nms_1/agnostic_nms/while/body/_1/model/agnostic_nms_1/agnostic_nms/while/strided_slice_3/stack", "shape": [1], "dtype": "int32"}, {"name": "model/agnostic_nms_1/agnostic_nms/while/body/_1/model/agnostic_nms_1/agnostic_nms/while/strided_slice_3/stack_1", "shape": [1], "dtype": "int32"}, {"name": "model/agnostic_nms_1/agnostic_nms/while/body/_1/model/agnostic_nms_1/agnostic_nms/while/strided_slice_3/stack_2", "shape": [1], "dtype": "int32"}, {"name": "model/agnostic_nms_1/agnostic_nms/while/body/_1/model/agnostic_nms_1/agnostic_nms/while/add/y", "shape": [], "dtype": "int32"}, {"name": "model/agnostic_nms_1/agnostic_nms/while/body/_1/model/agnostic_nms_1/agnostic_nms/while/add_1/y", "shape": [], "dtype": "int32"}, {"name": "ConstantFolding/model/agnostic_nms_1/agnostic_nms/while/body/_1/model/agnostic_nms_1/agnostic_nms/while/PadV2/paddings_const_axis", "shape": [], "dtype": "int32"}, {"name": "ConstantFolding/model/agnostic_nms_1/agnostic_nms/while/body/_1/model/agnostic_nms_1/agnostic_nms/while/PadV2_1/paddings_const_axis", "shape": [], "dtype": "int32"}]}]}